stock_label7_model.pth (torch, 90934 bytes, 6 tensors)

net.0.weight f4 [128, 29]
0	0xbd049055	-0.03236421
1	0x3e16cd41	0.14726736
2	0x3cadef90	0.021232396
3	0xbddefe21	-0.10888315
4	0xbf10b046	-0.5651897
5	0xbda08042	-0.07836963
6	0xbe140872	-0.14456347
7	0x3e306105	0.1722451
8	0xbe3346c7	-0.17507468
9	0x3d9523b3	0.072822
10	0xbd85cd7a	-0.06533332
11	0xbcc4e3dc	-0.024034433
12	0xbe7bf687	-0.24605761
13	0x3e182372	0.14857271
14	0x3e1b38c8	0.15158379
15	0xbd9d4870	-0.07679832
16	0x3cd39b79	0.025830971
17	0xbe0c7726	-0.13717327
18	0xbdb536f5	-0.08848373
19	0x3dc0eeec	0.09420571
20	0xbd91109c	-0.07083246
21	0x3daf8791	0.08570779
22	0x3e9937d3	0.29925403
23	0xbe912a5f	-0.2835264
24	0xbd8fe764	-0.07026556
25	0xbe9c65c9	-0.30546406
26	0xbda58a26	-0.0808299
27	0xbbc3931e	-0.0059684655
28	0xbd1b1a62	-0.037866957
29	0x3cef8e47	0.029242648
30	0x3c9dee65	0.019278714
31	0xbcdb5a8c	-0.026776575
32	0x3d2ba838	0.041908473
33	0xbee350f5	-0.44397703
34	0x3dc8187e	0.097702965
35	0xbe08f437	-0.1337441
36	0x3df04a0a	0.11732872
37	0x3e949f19	0.29027632
38	0x3e1b5ea6	0.15172824
39	0x3eae7166	0.3407089
40	0x3cd14d82	0.025549654
41	0xbe0514ed	-0.12996264
42	0x3df6f550	0.120585084
43	0x3e88758e	0.26652187
44	0xb9af599a	-0.0003344536
45	0x3d3eb437	0.046558585
46	0xbdb18e2c	-0.08669695
47	0x3e62a858	0.2213453
48	0xbd4d261b	-0.05008517
49	0xbb0f1b4a	-0.0021836334
50	0xbd2e55dc	-0.04256235
51	0xb89152b7	-6.9295456e-05
52	0x3e58b11b	0.2116131
53	0xbd8ada58	-0.06779927
54	0xbc004009	-0.007827767
55	0xbc18a2b2	-0.009316133
56	0xbd7b1483	-0.06129886
57	0x3e75f820	0.24020433
58	0x3d8cf3b6	0.06882422
59	0x3c1e5bd6	0.00966545
60	0x3e17e429	0.1483313
61	0x3e20f807	0.15719615
62	0x3e71dc70	0.23619246
63	0xbddbf780	-0.10740566
64	0xbd758c2c	-0.05994813
65	0xbe145d01	-0.14488603
66	0xbdf91116	-0.12161462
67	0xbd27e83d	-0.040992964
68	0x3db03c8e	0.086053
69	0x3e13dcce	0.14439699
70	0xbebeebf8	-0.37289405
71	0xbd905223	-0.07046916
72	0x3e663fca	0.22485271
73	0x3e549508	0.20759976
74	0x3db99042	0.09060718
75	0x3d4713ea	0.048602976
76	0x3e214a2c	0.1575095
77	0xbe0e6d13	-0.13908796
78	0x3d069aa7	0.03286233
79	0xbe2323b4	-0.15931588
80	0x3eca0370	0.39455748
81	0xbdffddf7	-0.12493508
82	0xbd9d569a	-0.076825336
83	0xbd0325f0	-0.032018602
84	0xbd9210f8	-0.07132143
85	0x3c8ecdfb	0.017432204
86	0x3e6a4389	0.22877325
87	0xbcdb730d	-0.026788259
88	0x3de84c3b	0.11342665
89	0xbc6882be	-0.014191328
90	0x3d2c64c1	0.042088274
91	0xbe87e60e	-0.26542705
92	0xbed8cdb6	-0.42344445
93	0xbde3ed73	-0.11129274
94	0x3e20acb2	0.15690878
95	0x3eb016a7	0.34392282
96	0x3dfd6ab1	0.123738654
97	0xbe4829c6	-0.19547185
98	0x3d9bd275	0.07608501
99	0x3e0d2d6a	0.13786855
100	0xbd01e513	-0.031712603
101	0x3e392ea4	0.18084198
102	0x3e3d1d2e	0.18468162
103	0x3dad16d6	0.08451621
104	0xbe26e9ae	-0.16300079
105	0x3de1d00f	0.11026012
106	0x3d0893d4	0.033344105
107	0xbcbe45bd	-0.023226613
108	0xbdbba65c	-0.0916259
109	0xbe984fe4	-0.29748452
110	0x3e836c15	0.25668398
111	0x3dac39ab	0.08409437
112	0x3ebf3010	0.37341356
113	0x3e3acca5	0.18242128
114	0x3cecec25	0.028921196
115	0x3e812b25	0.2522823
116	0xbd863fde	-0.065551504
117	0xbd8a34dd	-0.06748364
118	0x3d93806c	0.07202229
119	0x3ca36b60	0.019948661
120	0x3d927b75	0.07152454
121	0x3e50ab08	0.20377743
122	0xbdb2c00b	-0.087280355
123	0xbd8ad62f	-0.067791335
124	0x3dd6fc95	0.10497395
125	0x3b1e1576	0.0024121678
126	0xbe3b9349	-0.18317904
127	0xbd614c31	-0.055004302
128	0x3e9842b2	0.29738384
129	0x3de792f1	0.11307324
130	0x3e5821ce	0.21106645
131	0x3da78fe2	0.0818174
132	0x3e2f1f86	0.17101869
133	0x3e2be681	0.16787149
134	0x3e7a7fe3	0.24462847
135	0x3d406071	0.046966974
136	0x3d0ba06f	0.03408855
137	0x3e807768	0.250911
138	0xbe4f1c70	-0.20225692
139	0x3e4426d4	0.19155437
140	0xbd89e22b	-0.06732591
141	0x3e922024	0.28540146
142	0xbc905cf9	-0.017622458
143	0xbd913d50	-0.070917726
144	0xbdb62a02	-0.08894731
145	0xbd9e03ca	-0.077155665
146	0xbe1f0c54	-0.15532047
147	0xbe726a69	-0.23673405
148	0x3d70197c	0.058618054
149	0xbe2d0ef7	-0.1690024
150	0x3da1842a	0.078865364
151	0x3d177fa4	0.036986962
152	0xbe024bc6	-0.12724218
153	0x3d9c5f79	0.076353975
154	0xbceeead3	-0.029164707
155	0x3e585137	0.21124731
156	0x3d84100e	0.06448375
157	0x3e9d9191	0.3077512
158	0xbe662739	-0.224759
159	0x3da20229	0.07910568
160	0xbe605ee1	-0.21911193
161	0xbc2b1b4f	-0.010443523
162	0xbe891eb4	-0.26781237
163	0x3da592c9	0.08084638
164	0xbe44ce41	-0.19219305
165	0xbc029fa6	-0.0079726335
166	0xbe345ee6	-0.17614326
167	0xbecd1817	-0.40057442
168	0x3de22d57	0.11043804
169	0xbe8e15b4	-0.27750933
170	0xbc23760e	-0.009976877
171	0x3ec1f80c	0.37884557
172	0x3cbc5c37	0.02299319
173	0xbe95d031	-0.292604
174	0xbdbd7579	-0.09250922
175	0x3d13683e	0.035988085
176	0x3d206013	0.039154124
177	0xbda062dd	-0.07831357
178	0x3e907138	0.2821138
179	0x3e387906	0.18014917
180	0x3e2073ff	0.15669249
181	0xbd9698aa	-0.07353337
182	0x3e2f5ce1	0.17125274
183	0x3e2dac82	0.16960338
184	0xbea0de06	-0.3141939
185	0xbec20a36	-0.37898415
186	0x3e9387d7	0.28814575
187	0x3cf9dc8c	0.030500673
188	0xbe328ed1	-0.17437293
189	0x3da81203	0.082065605
190	0xbdcb8d52	-0.09939064
191	0x3d554797	0.052070227
192	0xbe03259f	-0.1280732
193	0xbd5431b1	-0.051805202
194	0xbcd06840	-0.025440335
195	0x3dab0dd3	0.08352246
196	0x3e2ed6db	0.17074148
197	0x3d007a89	0.03136686
198	0x3e644297	0.22291027
199	0xbea41471	-0.32046846
200	0x3e40ecef	0.18840383
201	0x3c9aeafe	0.018910881
202	0x3cc3d2ae	0.02390417
203	0x3dc0ad55	0.094080605
204	0x3dab091f	0.08351349
205	0x3dc6afd2	0.09701504
206	0xbde7fcab	-0.113274895
207	0xbed2878c	-0.4111904
208	0xbed4534e	-0.41469806
209	0xbe50dd24	-0.20396858
210	0x3e35f2cb	0.177684
211	0x3d6bbc8a	0.05755285
212	0x3d1206e5	0.035651106
213	0xbd356da5	-0.04429402
214	0xbdfc3fc3	-0.12316849
215	0x3e7c76a7	0.24654637
216	0x3eaae12f	0.33374926
217	0x3e843670	0.25822783
218	0xbe724da2	-0.23662427
219	0xbd3d9739	-0.046286795
220	0x3dccc521	0.09998537
221	0xbd6eb102	-0.058274277
222	0xbe2e2311	-0.17005564
223	0x3d091f5b	0.03347717
224	0x3d749ad5	0.05971797
225	0xbe5fe32f	-0.21864007
226	0x3e62159a	0.22078553
227	0xbdb6b331	-0.08920897
228	0xbc79ef61	-0.015254826
229	0x3e225d8b	0.15855996
230	0x3d0f3bba	0.03496907
231	0x3d74fa42	0.059808977
232	0x3e1246cd	0.14284821
233	0xbe0924bb	-0.13392918
234	0x3d987e05	0.07445911
235	0xbe32a791	-0.17446734
236	0x3ec93776	0.39300126
237	0x3e06edfc	0.13176721
238	0x3d942db5	0.072352804
239	0xbd09692d	-0.03354757
240	0x3e24e508	0.16102993
241	0x3e03676d	0.12832423
242	0x3d159734	0.03652115
243	0xbe46dd73	-0.19420414
244	0x3e22f0da	0.1591219
245	0xbbf76672	-0.007550054
246	0x3d01b48f	0.031666335
247	0x3db0571f	0.08610367
248	0x3d715e4e	0.058927827
249	0x3d2162c0	0.039400816
250	0xbe397250	-0.18110013
251	0xbe059b1d	-0.13047452
252	0xbdfcff04	-0.12353328
253	0xbcefe10b	-0.029282114
254	0x3e81a216	0.25318974
255	0xbe4ce4bf	-0.20009135

net.0.bias f4 [128]
0	0xbda11545	-0.07865385
1	0xbe5c54f7	-0.21516787
2	0xbe2c75fb	-0.16841881
3	0xbe88664b	-0.26640543
4	0xbef746d6	-0.4829623
5	0xbe7af0c2	-0.24505904
6	0xbe840d3f	-0.25791356
7	0xbeadb3cf	-0.33926246
8	0xbe4cb029	-0.19989075
9	0xbe2bbba0	-0.16770792
10	0xbd683961	-0.056695346
11	0xbe559c62	-0.20860437
12	0xbde17ce7	-0.11010151
13	0xbd8bde6c	-0.06829533
14	0xbe8b5dd2	-0.27220017
15	0x3d244b7f	0.04011106
16	0x3d599d46	0.053128503
17	0xbe7129b3	-0.23551063
18	0x3d9288ad	0.07154975
19	0xbd9dd1af	-0.077060096
20	0xbecc1d4a	-0.39866096
21	0xbe670b3b	-0.22562878
22	0xbef36aec	-0.47542512
23	0xbec4a4e7	-0.3840706
24	0xbea09b1e	-0.31368345
25	0xbe7cc8e3	-0.24686007
26	0xbca98dbb	-0.020697465
27	0xb9c504e1	-0.00037578403
28	0xbea56f82	-0.32311636
29	0xbe92dcbf	-0.2868404
30	0xbe7a3e4b	-0.24437825
31	0x3e2bf336	0.16791996
32	0xbdf98753	-0.12184014
33	0xbdbc0194	-0.091799885
34	0xbe7cdac8	-0.24692833
35	0xbd6feea7	-0.058577206
36	0xbe32da0f	-0.17465995
37	0xbec63953	-0.3871561
38	0xbea1a4b0	-0.3157096
39	0xbee6f4be	-0.45108598
40	0xbe403a5a	-0.1877226
41	0xbef77ab9	-0.48335817
42	0xbd3dc802	-0.04633332
43	0xbe066135	-0.13123019
44	0xbe0356db	-0.12826101
45	0xbe7acc97	-0.24492107
46	0xbe5d8a96	-0.21634898
47	0xbd30b5fd	-0.043142308
48	0xbdf71006	-0.12063603
49	0xbe94584c	-0.28973615
50	0xbe840ad7	-0.2578952
51	0xbe1d78e8	-0.15378153
52	0xbebf5cff	-0.37375638
53	0xbdf2850f	-0.11841785
54	0x3e2b8eba	0.16753665
55	0xbe1a5121	-0.1507001
56	0x3db3d2d7	0.08780449
57	0xbe82c202	-0.2553864
58	0x3c3dcba6	0.011584198
59	0x3c80da9b	0.01572924
60	0x3c37a300	0.011208296
61	0xbe298d12	-0.1655772
62	0xbecee652	-0.40410095
63	0xbe543bf6	-0.20725998
64	0x3d3d7bf8	0.046260804
65	0xbc6c4e5b	-0.014422978
66	0xbec7566e	-0.38933128
67	0xbcec3296	-0.028832715
68	0xbea7998a	-0.32734329
69	0xbe335d88	-0.17516148
70	0x3be9eb71	0.0071386625
71	0xbdb80bd4	-0.08986631
72	0xbe677366	-0.22602615
73	0xbe48447b	-0.19557373
74	0xbe73b800	-0.23800659
75	0xbe6105a0	-0.21974802
76	0x3d9c4712	0.07630743
77	0xbe0db51c	-0.13838619
78	0xbd58126c	-0.052751943
79	0xbe5f08a1	-0.21780635
80	0xbefc0b1f	-0.49227235
81	0xbbd6a546	-0.006550464
82	0xbf062fb8	-0.52416563
83	0x3e04ef4c	0.1298191
84	0xbd517f7a	-0.05114696
85	0xbe2c3989	-0.16818823
86	0xbdccbbd8	-0.09996766
87	0xbe0be160	-0.13660192
88	0xbe010a4b	-0.12601583
89	0xbede6f91	-0.43444493
90	0xbe077ad9	-0.13230456
91	0xbe22b950	-0.15891004
92	0xbdff8abb	-0.124776326
93	0xbe27ca50	-0.1638577
94	0xbdcd0c45	-0.10012106
95	0xbdf22b6e	-0.1182469
96	0x3dab4778	0.08363241
97	0xbe70113f	-0.23444079
98	0xbe2d2ccc	-0.1691162
99	0xbe70d1f9	-0.23517598
100	0xbe2f6138	-0.1712693
101	0xbed7af21	-0.421258
102	0xbd03ac20	-0.032146573
103	0xbde7a5b5	-0.11310903
104	0xbd4577e4	-0.04821004
105	0x3df46e6a	0.11935122
106	0xbe716b09	-0.23575987
107	0xbd96b92d	-0.07359538
108	0xbd91bc6f	-0.07116019
109	0xba712faf	-0.0009200526
110	0xbe8c07ed	-0.27349797
111	0xbdbde308	-0.092718184
112	0xbe5bed1e	-0.21477172
113	0x3db9e604	0.09077075
114	0xbe53168c	-0.2061407
115	0xbdc46566	-0.09589653
116	0x3c8347a4	0.016025372
117	0xbe8016e3	-0.2501746
118	0xbc164213	-0.009171027
119	0xbd4e2a30	-0.050333202
120	0xbe817bc2	-0.25289732
121	0x3d5e9bfc	0.054347977
122	0x3d986c59	0.07442541
123	0xbe1c5839	-0.1526803
124	0xbeb97773	-0.36223945
125	0x3ca73f91	0.020416053
126	0xbe1a88c2	-0.15091231
127	0xbeaeb024	-0.3411876

net.2.weight f4 [128, 128]
0	0xbd0663c2	-0.03280998
1	0xbd5077ab	-0.050895374
2	0xbe219d0c	-0.15782565
3	0x3e3237d1	0.17404105
4	0x3dbdca75	0.09267131
5	0xbe7a9db1	-0.24474217
6	0x3e06d7fa	0.13168326
7	0xbde4d3a9	-0.111731835
8	0x3e22151d	0.15828367
9	0x3ecbda5f	0.3981504
10	0xbe18d338	-0.14924324
11	0x3c37a7da	0.0112094525
12	0x3cba163f	0.022715686
13	0x3c05aa54	0.008158285
14	0xbe10a9a6	-0.14127216
15	0xbceee88b	-0.02916362
16	0xbdaaf2ea	-0.083471134
17	0xbed027f6	-0.40655488
18	0x3b9c6210	0.004772432
19	0x39e4bda4	0.00043628842
20	0xbd5e3e8e	-0.054258876
21	0x3b6b4092	0.0035896641
22	0x3d9a546d	0.07535634
23	0xbe2904cb	-0.16505735
24	0x3d7e312c	0.062058613
25	0xbd5e031c	-0.054202184
26	0x3e9a5a3a	0.30146962
27	0x3db64f0f	0.08901798
28	0x3dffd2ed	0.12491403
29	0xbed4ef7f	-0.4158897
30	0x3d6f0bc6	0.058360837
31	0xbd9c9c7c	-0.076470345
32	0x3c1f72c4	0.009731952
33	0xbaefba1e	-0.001828972
34	0xbc7a319f	-0.01527062
35	0xbe710104	-0.23535544
36	0xbd2b6916	-0.041848265
37	0x3e175070	0.14776778
38	0xbd1fb637	-0.038992133
39	0xbad0b266	-0.0015922308
40	0xbdb073a3	-0.08615806
41	0x3d382c93	0.044964384
42	0xbd34e7c0	-0.044166327
43	0xbeda60b2	-0.42651898
44	0xbe0f061d	-0.13967176
45	0x3dedff46	0.11620955
46	0x3e3f4775	0.18679602
47	0x3e441e83	0.19152264
48	0x3e6dcff5	0.2322386
49	0x3d58939e	0.052875154
50	0x3e30ee99	0.17278518
51	0x3e883f5f	0.26610848
52	0x3def9608	0.11698538
53	0x3da72b83	0.08162596
54	0x3a02abb3	0.00049846916
55	0xbc28b892	-0.010297911
56	0xbd695c54	-0.056972817
57	0xbdcc8984	-0.099871665
58	0x3ea42170	0.3205676
59	0x3d800854	0.062515885
60	0x3c0db586	0.008649236
61	0xbee83fda	-0.45361215
62	0xbe152278	-0.1456393
63	0x3d1a1ca4	0.03762497
64	0xbde55cbd	-0.11199329
65	0xbce7d511	-0.02829984
66	0x3e175252	0.14777496
67	0x3e86aec9	0.26305225
68	0x3e2c749f	0.16841362
69	0x3de5e4db	0.11225291
70	0xbcfbc28f	-0.030732421
71	0xbe27e5e9	-0.16396298
72	0xbd45925c	-0.048235282
73	0xbed2ccb1	-0.41171792
74	0x3cce3029	0.025169449
75	0xbed8208a	-0.42212325
76	0x3d9bc55d	0.076060034
77	0xbda9643d	-0.08271072
78	0x3d80585e	0.06266855
79	0xbe83ea2a	-0.2576459
80	0x3e3f9966	0.1871086
81	0xbdc66365	-0.09686927
82	0x3de1f01c	0.11032125
83	0x3dbab1dd	0.09115956
84	0x3dbbe790	0.091750264
85	0xbd324440	-0.04352212
86	0xbe45c395	-0.1931289
87	0xbe1a5288	-0.15070546
88	0x3e1af887	0.15133868
89	0xbd6ac157	-0.05731329
90	0x3da7d84b	0.081955515
91	0xbdcdfdd9	-0.10058183
92	0x3e278bbd	0.163619
93	0x3d0030c3	0.031296503
94	0x3d9450a6	0.07241945
95	0x3e80c46f	0.25149867
96	0xbee82225	-0.4533855
97	0x3e071238	0.13190544
98	0xbe96c949	-0.29450443
99	0xbec22257	-0.37916824
100	0xbddf0b55	-0.10890833
101	0x3df08cbc	0.11745593
102	0xbed928d5	-0.42413965
103	0x3cc9348e	0.024561193
104	0xbd7864c6	-0.06064298
105	0xbde01d47	-0.10943084
106	0xbeacf787	-0.33782598
107	0xbdbd343a	-0.09238477
108	0xbe14847a	-0.14503661
109	0xbc9f38b7	-0.019436223
110	0xbea7d22d	-0.3277754
111	0xbd85be8f	-0.06530487
112	0xbe8748f6	-0.26422852
113	0xbeaf77cf	-0.34271094
114	0xbd030509	-0.031987224
115	0xbc5872d0	-0.013210967
116	0xbe4906fa	-0.19631568
117	0xbd754565	-0.059880633
118	0x3d3c1355	0.045916874
119	0xbe3fb19c	-0.18720096
120	0xbe8fb06d	-0.2806429
121	0xbd376ab6	-0.0447795
122	0xbe071fb6	-0.1319569
123	0xbd9c875a	-0.07643004
124	0xbe78381b	-0.24240153
125	0x3d9ad6e8	0.07560521
126	0xbe49d58d	-0.1971037
127	0x3db645c1	0.08900023
128	0xbbac0987	-0.005250159
129	0xbda7d557	-0.08194988
130	0x3d84d755	0.06486384
131	0x3d4ae5bb	0.049535494
132	0xbe5aa0a3	-0.2135034
133	0x3da3d4a0	0.079995394
134	0xbd808bef	-0.0627669
135	0x3d7acb4f	0.061229046
136	0xbe699c02	-0.22813419
137	0x3e7d4370	0.24732757
138	0xbdfcf682	-0.12351705
139	0x3ac98829	0.0015375662
140	0x3d13766a	0.0360016
141	0x3e024039	0.12719811
142	0x3e2856a4	0.16439301
143	0xbcd22243	-0.025651103
144	0xbe8c6faa	-0.27428943
145	0xbe30282e	-0.17202827
146	0x3da477f3	0.08030691
147	0x3d3381a6	0.043824814
148	0xbce8e014	-0.028427161
149	0x3e199670	0.14998794
150	0x3d5fcd18	0.054638952
151	0x3d30fb55	0.04320844
152	0xbeb62889	-0.355778
153	0x3e22dd9f	0.15904854
154	0xbdf611ee	-0.120151386
155	0x3b7e16b2	0.0038770852
156	0xbe2ac38f	-0.16676162
157	0xbe27361a	-0.16329232
158	0xbd5b7956	-0.05358251
159	0x3debaa85	0.115071334
160	0xbe13a215	-0.14417298
161	0x3cfe4682	0.03103948
162	0x3e1bc01a	0.1521
163	0x3dc3c474	0.09558955
164	0x3b6c6e95	0.0036076654
165	0x3e543f3c	0.20727247
166	0xbcffb907	-0.031216158
167	0x3e0c03d6	0.13673338
168	0xbd2abdd1	-0.04168493
169	0x3e069d09	0.13145842
170	0x3d76b4fa	0.060231186
171	0xbe8830db	-0.26599774
172	0xbe5dc0d4	-0.2165559
173	0x3e396f63	0.18108897
174	0x3db3e303	0.087835334
175	0xbe10d736	-0.14144596
176	0xbf0e3439	-0.55548435
177	0x3e46c228	0.19410002
178	0x3dbb7f04	0.09155086
179	0xbe869255	-0.26283517
180	0xbeae11ca	-0.33997947
181	0x3d817f59	0.06323118
182	0xbd7e815f	-0.062135097
183	0xbed2be31	-0.4116073
184	0x3d8903ee	0.06690203
185	0x3bc88dda	0.0061204256
186	0xbdcc2ff9	-0.099700876
187	0x3e602385	0.2188855
188	0xbdaf8a94	-0.085713536
189	0xbe8a8cff	-0.27060696
190	0x3e2fbe82	0.17162517
191	0x3d47aa99	0.04874668
192	0x3e01181e	0.12606856
193	0x3d20390c	0.039116904
194	0x3be331a1	0.0069334065
195	0xbe076070	-0.13220382
196	0x3e72a26e	0.23694775
197	0x3e14fdcb	0.1454994
198	0xbddc2019	-0.1074831
199	0x3e552212	0.20813778
200	0xbcc0951d	-0.023508603
201	0xbd9b0a16	-0.07570283
202	0x3e3ae53c	0.18251508
203	0xbd22eef2	-0.039778657
204	0x3dd6dc5a	0.104912475
205	0xbe05dc8c	-0.13072413
206	0xbde667c4	-0.112502605
207	0xbe835bce	-0.2565598
208	0xbe4488f2	-0.19192865
209	0x3e14b115	0.14520676
210	0x3ea5cfbe	0.32385057
211	0xbd28cac4	-0.041208997
212	0x3de6ee00	0.11275864
213	0x3cf391a1	0.029732527
214	0x3d471c75	0.048611123
215	0x3de6e39e	0.11273883
216	0x3e35d172	0.17755678
217	0xbde1b52f	-0.11020886
218	0xbe2f13dd	-0.17097421
219	0xbe2da70f	-0.16958259
220	0x3d72e42a	0.059299625
221	0xbe192261	-0.14954521
222	0xbd1ee0be	-0.03878855
223	0xbecd2689	-0.40068462
224	0xbe80bd92	-0.2514463
225	0x3d53f527	0.051747467
226	0x3e138de6	0.14409599
227	0xbf13f3ce	-0.5779389
228	0xbea08c03	-0.3135682
229	0xbd8b77a1	-0.06809927
230	0xbdb2c1de	-0.087283835
231	0xbd3179bf	-0.043328997
232	0xbc2c997b	-0.0105346395
233	0x3d0cf572	0.034413762
234	0xbcbb16b2	-0.02283797
235	0x3d9997a3	0.074996255
236	0x3e94e0d0	0.29077768
237	0xbec49801	-0.3839722
238	0x3e0cdc7d	0.13755985
239	0x3dc25a68	0.094899
240	0xbd354c25	-0.04426207
241	0x3d8e53a6	0.069495484
242	0xbeb0ac26	-0.3450634
243	0xbd1b1145	-0.037858266
244	0xbe017138	-0.12640846
245	0xbdf3801c	-0.11889669
246	0xbd6b6892	-0.057472773
247	0xbe5d8e86	-0.216364
248	0xbeae0bdd	-0.33993426
249	0xbe39f0dc	-0.18158287
250	0x3d2a79cd	0.041620065
251	0x3e32f02a	0.17474428
252	0xbe4cf000	-0.20013428
253	0xbdefab3a	-0.11702581
254	0xbc24e0cc	-0.010063361
255	0x3dce6bb5	0.10079137

net.2.bias f4 [128]
0	0x3d1b3230	0.03788966
1	0xbd99c737	-0.075087
2	0x3d10c7e3	0.035346877
3	0x3dc45fbf	0.095885746
4	0x3e8c430a	0.27394897
5	0x3e3300b1	0.17480733
6	0x3df98f71	0.121855624
7	0x3c82eb36	0.015981298
8	0xbe50de19	-0.20397224
9	0xbe5d9432	-0.21638563
10	0x3d768c93	0.060192656
11	0x3d232c09	0.039836917
12	0x3df48267	0.11938935
13	0xbcbcece1	-0.023062171
14	0xbde51828	-0.11186248
15	0xbd8ece22	-0.069729105
16	0xbdaa398f	-0.0831176
17	0x3db8511f	0.089998476
18	0xbd2d44cb	-0.042301934
19	0x3cc97b24	0.02459485
20	0xbd085c2f	-0.033291038
21	0x3d862b35	0.0655121
22	0x3c01d94f	0.007925346
23	0x3ccd7cdd	0.025083954
24	0xbd47ad5e	-0.04874932
25	0x3d023f13	0.031798434
26	0xbcfd8f2e	-0.030952062
27	0x3d6db7fa	0.05803678
28	0xbe0cee9c	-0.13762897
29	0x3e583d93	0.21117239
30	0x3dc5a7a0	0.096511126
31	0xbdfe289c	-0.124100894
32	0x3d117a6d	0.035517145
33	0xbd317bac	-0.043330833
34	0x3d300470	0.042972982
35	0xbd4a0795	-0.049323637
36	0xbddd6390	-0.10810006
37	0x3d821dbf	0.0635333
38	0xbdb5dcfa	-0.088800386
39	0x3d38fffa	0.045165993
40	0x3cdc430b	0.026887437
41	0x3dad9e4e	0.0847746
42	0x3ded540c	0.11588296
43	0x3dfb8820	0.12281823
44	0xbe229a42	-0.15879157
45	0xbe82e81d	-0.25567713
46	0x3de6eea7	0.11275988
47	0x3d9382fc	0.07202718
48	0xbdd72c2d	-0.10506473
49	0xbe6bd8ee	-0.23031971
50	0x3c7cd2c0	0.015431106
51	0xbd054013	-0.03253181
52	0xbca1078f	-0.019656925
53	0x3d533c29	0.051571045
54	0xbd7377dd	-0.059440482
55	0x3d7c3947	0.06157806
56	0x3cfe6296	0.031052869
57	0xbd890677	-0.06690686
58	0x3dd0eac0	0.10201025
59	0x3cd62bb9	0.026143895
60	0x3dd60175	0.10449497
61	0x3dad279d	0.08454821
62	0xbd305a5b	-0.04305492
63	0xbd4daf8a	-0.050216235
64	0x3c6689e8	0.014070965
65	0x3b94d48a	0.004541938
66	0x3cb8068f	0.022464065
67	0x3d55ab19	0.052165125
68	0xbdd12b12	-0.10213293
69	0x3d83692d	0.06416545
70	0xbdc7f214	-0.097629696
71	0x3dc55e5b	0.096371375
72	0xbcba8ab0	-0.02277121
73	0xbe29f67e	-0.16597936
74	0xbe098c05	-0.1343232
75	0xbb49c9a1	-0.0030790346
76	0x3d2e70b8	0.042587966
77	0xbc5eb8b6	-0.013593843
78	0x3e36b1d4	0.17841274
79	0x3e4ccf7c	0.20001024
80	0xbdcfa2c1	-0.10138465
81	0xbe86fc76	-0.26364487
82	0x3ded0952	0.11574043
83	0xbd81e1e5	-0.06341914
84	0xbe0fdc8f	-0.1404898
85	0x3e339636	0.1753777
86	0x3e4a32cc	0.1974594
87	0x3d01f84e	0.031730942
88	0xbd664f18	-0.056227773
89	0x3de28472	0.11060418
90	0xbd4dfaa8	-0.050287873
91	0x3dea8add	0.11452267
92	0x3e24ecdf	0.16105984
93	0x3e248440	0.16066074
94	0xbdb1ead2	-0.086873665
95	0x3dc77416	0.097389385
96	0xbde6b632	-0.1126522
97	0x3d058012	0.03259284
98	0xbe3ff61c	-0.18746227
99	0x3dee26fd	0.1162853
100	0x3c85cd26	0.016333174
101	0xbe4d14ed	-0.20027514
102	0x3e18e4c4	0.14931017
103	0x3c56bad5	0.013106068
104	0xbc2cac11	-0.010539071
105	0xbda7369c	-0.08164713
106	0x3dcd17c6	0.100143
107	0x3e0dedcf	0.13860248
108	0xbe460a79	-0.19339933
109	0x3da683d0	0.0813061
110	0x3c894996	0.016758721
111	0x3e045127	0.12921582
112	0xbe0cc4af	-0.13746904
113	0x3d1c57c4	0.038169637
114	0x3dbdfd45	0.09276823
115	0x3e1e428b	0.15455072
116	0x3d135a09	0.035974536
117	0x3d9dd59c	0.077067584
118	0x3cb24e76	0.021765929
119	0x3e1f2b89	0.15543951
120	0xbd649228	-0.055803448
121	0xbee827d2	-0.4534288
122	0x3cf6c7ca	0.030124564
123	0xbdc86400	-0.097846985
124	0x3d712bec	0.058879778
125	0xbdfdc2aa	-0.12390645
126	0xbe3b00bf	-0.18262003
127	0xbbc2f163	-0.0059491857

net.4.weight f4 [3, 128]
0	0xbf0d10b5	-0.5510362
1	0x3e6cc8fd	0.23123546
2	0xbdbdcbcb	-0.09267386
3	0x3ef2ee8e	0.47447628
4	0x3e267e68	0.16259158
5	0xbe4dcfde	-0.20098826
6	0xbd2258df	-0.039635535
7	0xbec61c4b	-0.3869346
8	0xbea90f7d	-0.3301963
9	0x3ebbff54	0.36718237
10	0xbd67a832	-0.056556888
11	0x3d80c4f3	0.06287565
12	0xbe29086a	-0.16507116
13	0x3d258a7d	0.040415276
14	0xbe96b237	-0.29432842
15	0xbeb68720	-0.35649967
16	0x3d9a7685	0.07542137
17	0xbd07d5a2	-0.03316272
18	0xbd16f371	-0.036853258
19	0xbe8dd1a1	-0.27698997
20	0x3d80bc5b	0.06285926
21	0xbee4dcfe	-0.44699854
22	0xbd78bd9b	-0.060727697
23	0x3ebcd1b4	0.3687874
24	0x3d0a3b30	0.03374785
25	0xbedd423f	-0.43214604
26	0x3d2a5e77	0.041593995
27	0x3d6a2ae8	0.057169825
28	0xbc050a5c	-0.008120146
29	0xbeaf48a2	-0.34235102
30	0x3dcf6405	0.10126499
31	0x3d718b86	0.05897095
32	0x3c3de4c0	0.011590183
33	0x3dc75c29	0.09734375
34	0x3e415382	0.18879512
35	0xbe8f8f64	-0.28039086
36	0x3dd9f685	0.10642723
37	0x3d93e9af	0.07222306
38	0x3bfb8158	0.007675331
39	0xbded0bb0	-0.11574495
40	0xbe5be8e3	-0.21475558
41	0xbe3e34cf	-0.18574832
42	0xbeb298ae	-0.3488211
43	0xbd62b8be	-0.055351965
44	0xbedd8ed3	-0.4327303
45	0xbf5db49a	-0.866037
46	0x3df5167d	0.1196718
47	0xbec3f7dd	-0.38275042
48	0xbe80a99d	-0.25129405
49	0xbe850a7e	-0.25984567
50	0xbda72631	-0.08161581
51	0x3e6b5e51	0.22985198
52	0x3e0bddd9	0.13658847
53	0x3edb9dc0	0.4289379
54	0xbe08ddaa	-0.13365808
55	0xbdb37137	-0.087618284
56	0xbe533ff5	-0.20629866
57	0x3e8203b8	0.25393462
58	0xbec5beae	-0.3862204
59	0x3e5bad73	0.21452884
60	0x3e2416e6	0.1602436
61	0x3e34dab3	0.17661552
62	0x3ee176f2	0.4403606
63	0xbdf0ce8b	-0.11758145
64	0x3d3aa0fd	0.045563687
65	0xbe92b4f8	-0.28653693
66	0xbecd258f	-0.40067717
67	0xbc12db4c	-0.008963417
68	0x3ed45d23	0.41477308
69	0xbe38695b	-0.1800894
70	0xbdaa3416	-0.08310716
71	0x3e0c42e9	0.13697399
72	0x3eff7be3	0.49899206
73	0xbec437f5	-0.38323942
74	0xbd99c9fe	-0.0750923
75	0x3e0366b5	0.12832148
76	0xbe99bbd6	-0.3002612
77	0x3eb4fd8a	0.35349685
78	0xbe0c86be	-0.13723275
79	0xbe6c6b93	-0.23087911
80	0xbc2cb464	-0.010541055
81	0x3ec6e11e	0.38843626
82	0x3ee1e002	0.44116217
83	0x3e2699f3	0.16269664
84	0xbe5233f7	-0.20527636
85	0xbe994755	-0.29937235
86	0x3de6b5b2	0.112651244
87	0xbd7adbf3	-0.061244916
88	0x3d96468f	0.07337677
89	0x3ea047bd	0.31304732
90	0xbe98fc33	-0.29879913
91	0x3d982052	0.074280396
92	0xbd49e7b1	-0.049293224
93	0xbe179780	-0.14803886
94	0x3d44187b	0.04787491
95	0x3c93482d	0.017978752
96	0xbdd61b2d	-0.10454402
97	0x3cd1eac3	0.025624638
98	0xbef25bc7	-0.47335646
99	0x3e712ff9	0.23553456
100	0xbe773aba	-0.24143496
101	0xbe2356de	-0.15951106
102	0xbeb017d6	-0.34393185
103	0xbdcbf6bd	-0.09959171
104	0xbe96b08c	-0.2943157
105	0x3e09430b	0.13404481
106	0xbd0e7158	-0.03477606
107	0xbe7f9591	-0.24959399
108	0x3ee7e84a	0.4529441
109	0x3da5d5a3	0.080973886
110	0xbc5098b0	-0.012731716
111	0xbeab4519	-0.33451155
112	0xbd325e52	-0.043546982
113	0x3e821cd5	0.25412622
114	0xbe6ed032	-0.23321608
115	0xbed1c2f5	-0.40969053
116	0xbe5a645e	-0.2132735
117	0x3df83d77	0.121210985
118	0xbef4d69c	-0.47819984
119	0xbdcbc2cf	-0.09949266
120	0xbc99b0d6	-0.01876108
121	0xbf1089c1	-0.56460196
122	0x3e879d7b	0.26487336
123	0xbea88300	-0.32912445
124	0x3e2fcae6	0.17167243
125	0x3d3867ca	0.045020856
126	0xbe935dff	-0.2878265
127	0x3e2fadd0	0.17156148
128	0x3dae744e	0.08518277
129	0xbe93c41b	-0.28860554
130	0x3db4ae92	0.08822359
131	0xbea921f9	-0.33033732
132	0x3ebc0e10	0.3672948
133	0x3da97f1f	0.082761995
134	0x3e105efc	0.14098734
135	0x3efad3f1	0.48989823
136	0x3d7e16e5	0.062033553
137	0xbc86e2cd	-0.016465569
138	0xbdc289e0	-0.09498954
139	0xbcbcb949	-0.02303757
140	0x3e284493	0.16432409
141	0x3c982a1d	0.018574769
142	0x3d972e40	0.07381868
143	0x3e480274	0.19532186
144	0x3d8f8251	0.07007278
145	0xbe28b990	-0.16477036
146	0xbd7b2cf9	-0.061322186
147	0x3e339681	0.17537881
148	0x3d14aca5	0.03629746
149	0xbda7abe3	-0.08187082
150	0xbea552c4	-0.32289708
151	0x3d7cdbc1	0.06173301
152	0x3d3e8868	0.046516806
153	0xbe1dbde2	-0.15404466
154	0xbe210d35	-0.15727694
155	0x3e1ea4ab	0.15492503
156	0xbc8e8a7d	-0.01740002
157	0xbe63f099	-0.2225975
158	0xbdc54e8c	-0.09634122
159	0x3d560f50	0.052260697
160	0xbe116faa	-0.14202753
161	0xbd7cd398	-0.06172523
162	0xbe7bd58f	-0.24593185
163	0x3de3a72c	0.1111587
164	0x3e6e8978	0.23294628
165	0x3e11d956	0.14243063
166	0xbcdc4c4e	-0.026891854
167	0x3e836874	0.2566563
168	0x3e99f544	0.30069935
169	0x3ec6757a	0.38761503
170	0x3e30f221	0.17279865
171	0x3e11b66f	0.14229749
172	0x3e05b005	0.13055427
173	0xbee216f1	-0.44158128
174	0x3d948994	0.072528034
175	0xbde33a67	-0.11095124
176	0x3ea4cfb7	0.32189724
177	0x3e465814	0.19369537
178	0xbde13f72	-0.10998429
179	0xbd2230a0	-0.039597154
180	0xbdb06fe4	-0.086150914
181	0x3ccca3c0	0.024980426
182	0x3d37fee2	0.04492081
183	0xbe88296c	-0.26594102
184	0x3e0215b1	0.12703587
185	0x3d78c80f	0.060737666
186	0xbd0be0dc	-0.03414999
187	0xbecad75c	-0.3961743
188	0x3cdc0da0	0.026861966
189	0xbe9589a0	-0.29206562
190	0xbe487e5f	-0.19579457
191	0xbebd33b7	-0.36953518
192	0x3d734903	0.0593958
193	0x3e8c889b	0.27447972
194	0x3dbccb29	0.09218437
195	0xbc754859	-0.014970862
196	0xbe47f0f0	-0.19525504
197	0x3f001346	0.5002941
198	0xbe4539a4	-0.1926027
199	0xbe136bb5	-0.14396556
200	0xbe3d8100	-0.18506241
201	0x3d84b62f	0.06480061
202	0xbe8be2e0	-0.2732153
203	0xbc442306	-0.011971241
204	0x3e6d4573	0.23171024
205	0xbd1d6b11	-0.038432185
206	0x3ee62189	0.4494746
207	0xbe038f99	-0.12847747
208	0x3d21bbe3	0.039485823
209	0x3c90d6ef	0.017680613
210	0xbda92d4e	-0.08260594
211	0xbc5325a3	-0.012887391
212	0x3c6360dc	0.013878074
213	0xbe74604d	-0.23864861
214	0x3e28231f	0.16419648
215	0xbeab6d8e	-0.3348202
216	0xbd83d88f	-0.0643779
217	0xbc60f961	-0.013731332
218	0x3dd64be0	0.10463691
219	0xbea8ca62	-0.32966906
220	0xbdd23338	-0.102636755
221	0xbc94e714	-0.018176593
222	0x3d790327	0.060794022
223	0x3d969c4f	0.07354032
224	0xbebf133c	-0.37319362
225	0xbd3890dd	-0.045060027
226	0xbea6f579	-0.32609156
227	0x3e358009	0.17724623
228	0x3dfcf857	0.123520546
229	0xbdde2dee	-0.10848604
230	0xbd86b69a	-0.06577797
231	0xbe4682be	-0.19385812
232	0x3e0fdf5d	0.1405005
233	0x3e6c2dbe	0.23064324
234	0xbe3c59d0	-0.18393636
235	0xbe1cb050	-0.15301633
236	0xbe04b847	-0.12960921
237	0x3e35f70d	0.17770024
238	0x3dd862a6	0.10565691
239	0xbd0dcd3d	-0.03461956
240	0x3c65b0a9	0.01401917
241	0x3e0112ca	0.12604824
242	0x3d14deb0	0.036345184
243	0xbd480a2d	-0.04883783
244	0xbe58756f	-0.21138547
245	0xbe29cbb4	-0.16581613
246	0x3e26497e	0.16238973
247	0xbdb73aa9	-0.089467354
248	0xbe6448e2	-0.22293428
249	0xbe540e48	-0.20708573
250	0xbee4e632	-0.44706875
251	0x3d154015	0.036438067
252	0x3dc1ed2b	0.09469064
253	0xbe349c6c	-0.17637795
254	0xbe0bb3e9	-0.13642849
255	0xbe3885d1	-0.18019797

net.4.bias f4 [3]
0	0x3e2c84ad	0.16847487
1	0xbcb3c086	-0.021942388
2	0xbd5fe5c3	-0.054662477
