stock_label7_model.pth (torch, 90934 bytes, 6 tensors)

net.0.weight f4 [128, 29]
-0.05831217 0.16338043 -0.085157774 0.19524792 -0.05187314 0.11990183 -0.16050738 -0.04319769
-0.36259496 0.032472666 -0.22309612 -0.07268529 0.042166308 -0.35800603 -0.089979075 0.060030192
-0.014472622 -0.09072424 -0.2920765 0.052378584 0.04868016 0.053499274 0.03319678 0.50954336
-0.014441843 0.16301855 -0.011473612 -0.007299223 0.02553609 -0.12480992 0.11646325 0.008197785
-0.017825846 -0.10112502 -0.07470208 -0.025814367 -0.07322762 -0.009857391 -0.1521443 -0.15746163
0.04679038 0.10767585 -0.0036878933 -0.062838234 -0.21379209 0.075395174 0.07913617 -0.15986767
-0.041055005 -0.055411473 0.06896054 -0.17640667 -0.2387852 -0.36683097 0.19550063 -0.1127132
0.05157483 0.16454373 0.10708161 0.07165674 -0.070544094 0.11507083 -0.22845161 0.22634953
-0.08829784 -0.020650959 -0.35941657 0.03055472 0.02604965 0.02580544 0.05961282 0.14370312
-0.08016313 -0.022377608 0.019864788 0.14401309 0.1773735 0.11217728 0.10188514 0.061420526
-0.5877817 0.26232907 0.20319992 -0.06768896 0.21566468 0.14168191 0.06584608 -0.11075148
-0.15711346 -0.13106775 -0.033935055 0.23162593 0.077347584 0.09712681 0.18392782 -0.119510576
-0.025922326 -0.16447471 -0.030868243 0.053528503 0.2236241 -0.16626593 -0.32097536 -0.067669585
0.10124507 -0.036720175 -0.049106456 0.15841523 0.0024381927 -0.19318295 -0.036275964 0.0872044
-0.12865868 0.07086022 0.10689785 0.29380316 -0.14785883 0.07684285 0.12488985 0.04109077
-0.3905628 0.008551269 -0.01946011 0.057812735 -0.0070915977 0.114475206 -0.09205063 -0.07393461
-0.469095 0.039842475 -0.19635503 -0.3784018 0.12999842 0.057108182 -0.03927786 -0.0017969736
0.12815401 -0.08637976 0.057058483 -0.038981754 0.01824355 -0.054347556 -0.09298368 0.046638835
0.008836786 -0.16822772 0.17686093 0.13717574 0.107628115 -0.074770845 0.40314004 0.18736057
0.1357164 0.0810234 -0.031465326 -0.10155377 -0.25522104 0.123674996 0.013785382 -0.14351524
-0.14014366 0.14007907 0.090453304 -0.019980976 -0.17115274 0.0051771435 0.061925862 -0.38354594
0.22695167 -0.18220603 -0.35550606 -0.21934043 0.01596901 0.20542863 0.111582264 0.18492623
-0.09373842 0.12948489 -0.41981238 -0.0021472662 0.1556486 -0.116697036 -0.041059695 0.058055125
0.098642245 0.006075828 0.22878043 -0.030640332 0.18033996 -0.24298975 -0.071503475 0.030879851
-0.009101667 0.0127194775 0.034585465 0.035502113 -0.52060676 -0.078175776 0.0259032 0.20849116
-0.23115829 0.01360293 -0.31273285 0.06945424 0.13265702 0.17100273 -0.028904637 0.007843822
0.41088638 -0.08443476 0.10848491 0.0415315 -0.09298764 -0.10930767 0.13013773 0.05939875
-0.0023736032 -0.016049389 0.111834176 0.14174058 0.112943664 0.17457208 -0.12838839 -0.1391361
-0.09229064 0.24138667 0.041686215 -0.3070256 -0.13768639 0.098750055 -0.0994078 -0.20499805
-0.018638473 0.07696802 0.16540536 -0.12594974 0.04651125 0.11903155 -0.041676573 0.015616079
0.0054743225 0.030183444 -0.079018086 -0.25643677 -0.23637024 -0.044122905 0.0903098 -0.04732109
0.14062987 -0.04503519 0.23294018 0.14044353 -0.03469403 0.09432553 0.048191562 -0.39320627
00000000: bed8 6ebd 334d 273e 3367 aebd 12ef 473e
00000010: ee78 54bd 178f f53d 0c5c 24be 10f0 30bd
00000020: 0ca6 b9be 0f02 053d 4f73 64be 06dc 94bd
00000030: 94b6 2c3d 914c b7be f346 b8bd 38e2 753d
00000040: 941e 6dbc a1cd b9bd 0d8b 95be ed8a 563d
00000050: d964 473d 0e22 5b3d 59f9 073d 6f71 023f
00000060: 7b9d 6cbc 56ee 263e d1fb 3bbc 522e efbb
00000070: 1031 d13c 589c ffbd 4984 ee3d 0150 063c
00000080: 8207 92bc a21a cfbd 67fd 98bd a778 d3bc
00000090: 5df8 95bd e580 21bc b7cb 1bbe 9f3d 21be
000000a0: 45a7 3f3d 2885 dc3d 95b0 71bb 55b1 80bd
000000b0: 50ec 5abe c968 9a3d 2512 a23d 5ab4 23be
000000c0: 4b29 28bd 24f7 62bd 2f3b 8d3d f3a3 34be
000000d0: 1c84 74be 45d1 bbbe 5131 483e 2ed6 e6bd
000000e0: 2140 533d 277e 283e 9a4d db3d c5c0 923d
000000f0: 6c79 90bd 41aa eb3d 38ef 69be 2cc8 673e
00000100: 7fd5 b4bd 332c a9bc 7305 b8be e44d fa3c
00000110: 1366 d53c ee65 d33c 932c 743d e926 133e
00000120: 912c a4bd 3f51 b7bc 7bbb a23c 2b78 133e
00000130: 66a1 353e 34bd e53d 28a9 d03d 1794 7b3d
00000140: dd78 16bf ff4f 863e a413 503e 82a0 8abd
00000150: 34d7 5c3e 1015 113e 4fda 863d acd1 e2bd
00000160: 5ae2 20be a036 06be 7cff 0abd 592f 6d3e
00000170: 6968 9e3d 6cea c63d 9357 3c3e f6c1 f4bd
00000180: 0f5b d4bc 0f6c 28be 66df fcbc b440 5b3d
00000190: b7fd 643e 9e41 2abe e256 a4be 5a96 8abd
000001a0: 9359 cf3d e567 16bd da23 49bd 9a37 223e
000001b0: 16ca 1f3b c0d1 45be 1b96 14bd 3898 b23d
000001c0: 1abf 03be 2a1f 913d 43ed da3d 5e6d 963e
000001d0: 4e68 17be c95f 9d3d 40c6 ff3d cc4e 283d
000001e0: d9f7 c7be 9f1a 0c3c cf6a 9fbc 0ccd 6c3d
000001f0: a260 e8bb fa71 ea3d 0a85 bcbd 076b 97bd
00000200: 382d f0be dd31 233d 4b11 49be e1bd c1be
00000210: 4e1e 053e 45ea 693d d2e1 20bd 6e88 ebba
00000220: ce3a 033e dfe7 b0bd 28b6 693d 55ab 1fbd
00000230: 7f73 953c 8b9b 5ebd 3a6e bebd 5d08 3f3d
00000240: 2bc8 103c e343 2cbe 081b 353e cc77 0c3e
00000250: 216c dc3d 7521 99bd 5f68 ce3e 73db 3f3e
00000260: 3df9 0a3e 99ef a53d c9e1 00bd 6cfb cfbd
00000270: 55ac 82be 5149 fd3d 15dc 613c a9f5 12be
00000280: d281 0fbe e370 0f3e 953f b93d 25af a3bc
00000290: aa42 2fbe 07a5 a93b f9a5 7d3d 2260 c4be
000002a0: 0566 683e 3894 3abe e404 b6be c79a 60be
000002b0: 71d1 823c e25b 523e 3e85 e43d 4d5d 3d3e
000002c0: eef9 bfbd b097 043e a6f1 d6be 26b9 0cbb
000002d0: 5962 1f3e dbfe eebd 362e 28bd 36cb 6d3d
000002e0: f204 ca3d bd17 c73b 6b45 6a3e 6f01 fbbc
000002f0: 0aab 383e 4ed2 78be 6a70 92bd bef7 fc3c
00000300: 291f 15bc 5b65 503c 7da9 0d3d aa6a 113d
00000310: 7c46 05bf 9f1a a0bd f332 d43c b57e 553e
00000320: c2b4 6cbe d3de 5e3c 851e a0be 063e 8e3d
00000330: 3ed7 073e 571b 2f3e 6bc9 ecbc 6083 003c
00000340: b35f d23e 22ec acbd 562d de3d ef1c 2a3d
00000350: 4e70 bebd b3dc dfbd d342 053e 1b4c 733d
00000360: 748e 1bbb 027a 83bc 5109 e53d 7124 113e
00000370: 024f e73d 06c3 323e 3f78 03be b279 0ebe
00000380: e002 bdbd 112e 773e 2abf 2a3d 7632 9dbe
00000390: a9fd 0cbe 783d ca3d 5196 cbbd 02eb 51be
000003a0: b6af 98bc 69a1 9d3d 0660 293e f8f8 00be
000003b0: 9582 3e3d d0c6 f33d 0eb5 2abd 95da 7f3c
000003c0: f261 b33b 4543 f73c 3cd4 a1bd ae4b 83be
000003d0: 0a0b 72be 38ba 34bd 58f4 b83d c2d3 41bd
000003e0: 4701 103e d276 38bd df87 6e3e 6ed0 0f3e
000003f0: 541b 0ebd be2d c13d 8464 453d 5552 c9be

net.0.bias f4 [128]
-0.39179224 0.091749504 0.07410784 -0.3442619 -0.26422 0.021939877 0.31016287 -0.2938525
-0.22119588 -0.24129148 -0.20518538 0.10445262 0.023043312 -0.24983394 -0.006165696 0.16938084
-0.03990884 -0.053116124 -0.28983805 -0.0020228536 0.1031979 -0.30590948 -0.34778017 -0.3217805
0.18298915 -0.051257223 -0.24329302 -0.3277495 -0.005170267 -0.13850372 0.0083295675 -0.014793551
-0.10015286 -0.14591299 -0.28368527 0.08537458 -0.07951506 -0.10434128 -0.35315043 -0.18699564
-0.006175881 0.0024632039 0.045771465 -0.4449544 0.0036844758 0.044052303 -0.011494608 -0.07454469
0.14767425 -0.07459093 -0.2494402 -0.058551025 -0.36169848 0.12404161 -0.2237495 0.02736968
-0.27313447 -0.04099938 -0.3030852 -0.34097722 0.13695624 -0.35052505 -0.1059997 -0.13164967
-0.23857021 -0.12748036 -0.15090129 0.048760265 -0.3888487 -0.003982994 -0.2585585 -0.06900595
-0.23195991 -0.05979749 -0.38317436 -0.36738092 0.12548058 -0.14788036 -0.09804638 -0.5229514
0.012458769 -0.05290723 -0.040299475 -0.13157895 -0.019140206 -0.25217792 -0.21466573 0.14036942
-0.092176974 0.04062016 -0.09717684 -0.048083063 -0.13654314 -0.21348985 -0.3645811 -0.09416874
-0.040235944 -0.27883512 -0.23824821 -0.055837896 -0.11730007 -0.32214692 0.16119611 -0.49887666
-0.35229442 -0.14724328 -0.23239447 -0.062233858 0.026203144 0.004462638 -0.27038348 0.10203122
0.08466156 -0.26436034 -0.3431156 -0.041639216 0.15421072 0.019401155 -0.21206453 -0.22280557
-0.07660619 -0.1963528 -0.11396273 -0.19849512 -0.2284406 -0.1365676 -0.024099195 -0.04776431
00000000: fe98 c8be 2ae7 bb3d dac5 973d 1943 b0be
00000010: d847 87be 42bb b33c abcd 9e3e d673 96be
00000020: 2c81 62be 1d15 77be 1e1c 52be 41eb d53d
00000030: 54c5 bc3c 78d4 7fbe 9b09 cabb 2c72 2d3e
00000040: 7477 23bd 4b90 59bd a765 94be da91 04bb
00000050: 6c59 d33d 2ba0 9cbe 3e10 b2be 6ac0 a4be
00000060: 8261 3b3e 18f3 51bd ce21 79be c8ce a7be
00000070: 586b a9bb ebd3 0dbe bd78 083c a660 72bc
00000080: f11c cdbd 376a 15be 323f 91be ded8 ae3d
00000090: cbd8 a2bd e2b0 d5bd 22d0 b4be c97b 3fbe
000000a0: 0b5f cabb b46d 213b dc7a 3b3d 10d1 e3be
000000b0: 3f77 713b 3070 343d e153 3cbc e3aa 98bd
000000c0: eb37 173e 21c3 98bd 406d 7fbe 33d3 6fbd
000000d0: 8b30 b9be 8709 fe3d 971e 65be 6136 e03c
000000e0: 48d8 8bbe f7ee 27bd fc2d 9bbe 9194 aebe
000000f0: 423e 0c3e 0578 b3be 5f16 d9bd 2ccf 06be
00000100: c04b 74be 368a 02be de85 1abe d8b8 473d
00000110: 2d17 c7be c683 82bb c861 84be fe52 8dbd
00000120: e686 6dbe 36ee 74bd 6e2f c4be 5a19 bcbe
00000130: fb7d 003e f36d 17be 8acc c8bd 25e0 05bf
00000140: dd1f 4c3c 40b5 58bd 1011 25bd a2bc 06be
00000150: eccb 9cbc 771d 81be 55d1 5bbe 00bd 0f3e
00000160: 48c7 bcbd 5361 263d a704 c7bd bff2 44bd
00000170: f7d1 0bbe 159d 5abe 60aa babe 8adb c0bd
00000180: 72ce 24bd 7ac3 8ebe 57f7 73be 47b6 64bd
00000190: 053b f0bd 71f0 a4be 9810 253e c36c ffbe
000001a0: ef5f b4be f1c6 16be d1f8 6dbe eee8 7ebd
000001b0: faa7 d63c 523b 923b b46f 8abe bff5 d03d
000001c0: 0a63 ad3d 3d5a 87be d9ac afbe e28d 2abd
000001d0: 6ae9 1d3e 2cef 9e3c 7227 59be 2527 64be
000001e0: b5e3 9cbd b510 49be 4b65 e9bd 4e42 4bbe
000001f0: 55ec 69be 60d8 0bbe ad6b c5bc 82a4 43bd

net.2.weight f4 [128, 128]
-0.027707053 0.20514214 -0.33506233 0.022556156 -0.067679636 -0.068567395 0.012204381 -0.24656008
-0.0799753 -0.15674423 0.03362842 -0.035179723 0.22732821 0.104173936 -0.08283915 0.057859812
-0.016741114 -0.09788379 -0.009537417 -0.046252783 -0.038330633 -0.07606984 0.005729002 0.11653583
0.053709783 0.30356866 -0.16409832 0.00891906 0.013997116 0.10986119 -0.17215228 0.15747401
0.08190591 -0.08089913 0.14402731 -0.050682943 -0.103032306 -0.20608324 0.006938702 0.0370124
0.14064379 -0.18103324 0.020842556 0.13564672 -0.20145509 0.06672889 0.09835393 0.19619164
-0.13467957 0.040401235 -0.0032524993 -0.1772906 -0.18147299 0.18792398 0.035525255 -0.1434506
-0.16010985 -0.23094112 -0.34988645 -0.14305417 0.034067668 -0.012256207 -0.19720756 0.15834123
0.0068793576 0.07773002 -0.25291863 -0.47411174 0.2695491 -0.46254084 0.06671086 0.065497614
-0.29975727 -0.02638847 -0.07853704 0.02928093 -0.40687695 -0.33870536 0.024089362 0.25060686
0.0043742796 -0.18906684 -0.03304275 -0.19186607 0.06782915 -0.16394058 0.009868803 0.07949734
-0.19677839 0.17192912 -0.05038633 -0.5034387 -0.119925365 -0.28581503 -0.16268887 0.04351497
0.17331445 -0.046118163 0.007954601 0.16492954 -0.0026445447 -0.33483002 -0.07559274 -0.024589052
0.046204817 -0.24831992 0.06600523 -0.081885666 -0.12469694 -0.21861523 -0.05902499 0.052555896
-0.079386495 -0.18346256 -0.109429486 -0.02483245 0.061863158 0.06813547 -0.15932755 0.042932134
-0.4680801 -0.11583856 -0.21800435 -0.07638402 -0.09018811 0.02714934 -0.10044318 0.016661525
-0.05663114 -0.21785228 0.001022396 -0.38495895 0.15565534 -0.01493029 -0.09440873 -0.12904544
0.07505659 -0.44442022 0.14229462 0.08868306 0.11510763 0.16110045 -0.24951275 0.12515874
0.16887987 0.08256169 -0.16538191 -0.015748953 -0.048634496 0.15312722 -0.009042115 -0.08382011
-0.14398685 -0.25305685 -0.20422779 -0.38583162 0.013962079 0.14016494 0.065504745 -0.0056596817
0.010193858 0.18135303 -0.13127516 0.2866006 0.16679578 -0.005107899 0.023427946 -0.038351808
0.23258941 0.06765145 -0.10284112 0.03118583 0.03814076 0.14159234 -0.24782982 -0.18445237
0.051560473 -0.1994479 -0.24456427 0.035988256 -0.623091 0.010349195 -0.07029027 -0.17441864
0.14810014 -0.055631164 -0.14697507 -0.41635397 0.04276583 0.17469616 -0.0955315 -0.007165989
-0.20180616 0.090078935 -0.24045049 0.024293257 -0.3568823 -0.33734128 -0.1165275 -0.07001627
-0.27476025 -0.032922614 -0.1484999 -0.31729993 0.05090548 0.08549725 0.065447785 -0.33645675
-0.058399107 -0.038465932 -0.306604 0.12389422 0.04783626 -0.18121825 -0.21286835 0.016756393
0.13511546 0.112435356 -0.13266253 0.09518073 0.16525233 0.04554612 -0.2875067 -0.20633698
-0.4472614 0.084902056 0.13327967 0.07958252 -0.024667554 -0.41277942 -0.014932884 0.09611933
-0.261938 -0.15785986 0.17562325 -0.069959104 -0.16672294 0.10149319 -0.41924268 -0.015197735
0.04421955 -0.35833085 0.32471535 -0.0379723 0.14709464 -0.51952106 -0.28164807 0.08270457
0.12314113 0.22976117 -0.034859337 -0.0834794 -0.038272314 -0.10312164 -0.015064856 0.19506054
00000000: e7f9 e2bc c810 523e 4a8d abbe b0c7 b83c
00000010: 9f9b 8abd 106d 8cbd e2f4 473c 3f7a 7cbe
00000020: 17ca a3bd 8f81 20be f4bd 093d 9d18 10bd
00000030: bac8 683e 2559 d53d 93a7 a9bd 69fe 6c3d
00000040: a924 89bc 4c77 c8bd d442 1cbc 8f73 3dbd
00000050: 9500 1dbd 81ca 9bbd 5aba bb3b 56aa ee3d
00000060: cafe 5b3d 5a6d 9b3e 6409 28be 4021 123c
00000070: 2954 653c e7fe e03d b048 30be de40 213e
00000080: 49be a73d 71ae a5bd e57b 133e eb98 4fbd
00000090: 9a02 d3bd 7c07 53be 0d5e e33b 509a 173d
000000a0: ed04 103e c760 39be 02be aa3c f9e6 0a3e
000000b0: 3e4a 4ebe 28a9 883d c96d c93d 76e6 483e
000000c0: 71e9 09be c47b 253d e227 55bb ab8b 35be
000000d0: 0ed4 39be 256f 403e ee82 113d b7e4 12be
000000e0: d6f3 23be d47b 6cbe 5124 b3be cb7c 12be
000000f0: 8a8a 0b3d 42ce 48bc c7f0 49be 3424 223e
00000100: 3c6c e13b eb30 9f3d 8d7e 81be c6be f2be
00000110: 5702 8a3e 27d2 ecbe b49f 883d 9d23 863d
00000120: c979 99be a22c d8bc 07d8 a0bd 90de ef3c
00000130: 2d52 d0be ca6a adbe 0e57 c53c 8b4f 803e
00000140: 1e56 8f3b bd9a 41be d657 07bd 8a78 44be
00000150: 02ea 8a3d 0ae0 27be c3b0 213c 80cf a23d
00000160: 4680 49be 300e 303e e561 4ebd 5ce1 00bf
00000170: 6e9b f5bd 5956 92be e997 26be c13c 323d
00000180: 5879 313e 66e6 3cbd 0454 023c 4ae3 283e
00000190: 1950 2dbb d76e abbe 5ed0 9abd fb6e c9bc
000001a0: 4341 3d3d 9447 7ebe c02d 873d acb3 a7bd
000001b0: 1c61 ffbd acdc 5fbe 30c4 71bd da44 573d
000001c0: 6395 a2bd 9cdd 3bbe 911c e0bd 6c6d cbbc
000001d0: 3964 7d3d 9c8a 8b3d c326 23be 9bd9 2f3d
000001e0: 32a8 efbe c43c edbd 883c 5fbe 3a6f 9cbd
000001f0: 8bb4 b8bd 4b68 de3c 27b5 cdbd c07d 883c
00000200: 0ef6 67bd ab14 5fbe eb01 863a 5719 c5be
00000210: 1d64 1f3e 2d9e 74bc 5d59 c1bd 7d24 04be
00000220: 45b7 993d 0c8b e3be aeb5 113e 779f b53d
00000230: 8dbd eb3d 84f7 243e 4580 7fbe 9d29 003e
00000240: d8ee 2c3e 1a16 a93d e059 29be f303 81bc
00000250: f734 47bd 62cd 1c3e 6125 14bc e1a9 abbd
00000260: 4a71 13be ab90 81be 1721 51be b98b c5be
00000270: 34c1 643c 6687 0f3e 5a27 863d da74 b9bb
00000280: 2404 273c 9cb4 393e ff6c 06be 50bd 923e
00000290: 83cc 2a3e 2a60 a7bb f7eb bf3c c916 1dbd
000002a0: eb2b 6e3e d88c 8a3d 5d9e d2bd 6d79 ff3c
000002b0: 7c39 1c3d 95fd 103e 1ac7 7dbe 15e1 3cbe
000002c0: 1331 533d 123c 4cbe 0e6f 7abe 6c68 133d
000002d0: e482 1fbf ac8f 293c 58f4 8fbd cd9a 32be
000002e0: 90a7 173e 81dd 63bd a280 16be 592c d5be
000002f0: 392b 2f3d 8de3 323e 05a6 c3bd acd0 eabb
00000300: 46a6 4ebe 4e7b b83d a738 76be a702 c73c
00000310: 47b9 b6be ffb7 acbe f8a5 eebd b164 8fbd
00000320: 60ad 8cbe ddd9 06bd 5c10 18be 2375 a2be
00000330: 4482 503d 2f19 af3d 7d09 863d 0f44 acbe
00000340: e733 6fbd 748e 1dbd 33fb 9cbe 41bc fd3d
00000350: f4ef 433d 4791 39be 29fa 59be b444 893c
00000360: b55b 0a3e 8244 e63d b0d8 07be 1dee c23d
00000370: e837 293e 918e 3a3d 1434 93be 004a 53be
00000380: 72ff e4be 21e1 ad3d 777a 083e 29fc a23d
00000390: 9c13 cabc d357 d3be 0ea9 74bc 36da c43d
000003a0: bd1c 86be 04a6 21be 95d6 333e b846 8fbd
000003b0: 6bb9 2abe a9db cf3d faa6 d6be ecff 78bc
000003c0: 8f1f 353d 2477 b7be 1741 a63e d888 1bbd
000003d0: fa9f 163e 55ff 04bf 2d34 90be 0361 a93d
000003e0: 6b31 fc3d 8346 6b3e aac8 0ebd 3ff7 aabd
000003f0: 6ec3 1cbd 7031 d3bd 96d2 76bc f3bd 473e

net.2.bias f4 [128]
0.08755392 0.15766117 0.031512275 -0.05805439 -0.06473484 -0.00040370814 -0.10649712 0.11936057
-0.03915796 -0.2745817 -0.08389153 -0.103390925 -0.058166474 0.13524048 -0.09799626 0.001915219
0.046201337 -0.17280479 0.100864455 -0.019376054 0.1392232 0.050017938 -0.053561717 0.14973907
0.034559507 0.058200877 -0.036836486 0.05806277 0.05059492 -0.12868875 -0.17004055 -0.1247858
-0.11423798 -0.44375795 0.09349695 -0.14542992 -0.18221311 -0.009499923 0.03960735 0.21642093
-0.03175601 -0.034743287 -0.05507327 0.06660676 -0.10411831 0.0893697 0.18409903 -0.022636026
-0.06865361 0.10714964 0.00844366 0.016529474 0.0851438 -0.041060433 0.017251356 -0.17700379
-0.033804882 -0.08498248 0.14727569 -0.099485464 0.21186145 -0.122329876 0.11130758 0.15319966
-0.08231806 -0.10213747 -0.108590506 0.07448813 0.1670482 0.061554488 -0.030235989 -0.00096637703
0.057936057 -0.15901536 0.01932233 0.02647347 -0.18251258 -0.011455825 0.12166555 -0.051172
-0.122033566 -0.00915946 0.011148697 0.027405787 -0.030970663 0.09232808 -0.0445255 0.07350629
0.11002165 0.1728964 0.14131182 -0.093185216 -0.21642187 -0.011658943 -0.014995696 -0.06677306
0.03655935 -0.00811389 0.015617728 -0.07814907 -0.15798008 0.07698906 0.096344344 0.040296935
-0.11314114 -0.022803567 -0.049049616 -0.0065484657 -0.19024314 -0.107683904 -0.06776953 -0.09253146
0.16505602 -0.07789719 -0.09745185 0.092201136 -0.08682866 0.19677936 -0.017660882 -0.16001515
0.085193515 0.02124012 -0.040923357 0.0657354 -0.07575716 -0.025363233 -0.01069488 0.006223101
00000000: 784f b33d ee71 213e 0413 013d 71ca 6dbd
00000010: b393 84bd caa8 d3b9 291b dabd 5173 f43d
00000020: 1964 20bd f995 8cbe 53cf abbd 9fbe d3bd
00000030: f83f 6ebd 7b7c 0a3e 43b2 c8bd 1608 fb3a
00000040: 9d3d 3d3d bdf3 30be 0692 ce3d 88ba 9ebc
00000050: 8790 0e3e 9cdf 4c3d 8863 5bbd 3355 193e
00000060: 458e 0d3d 0b64 6e3d dbe1 16bd 3ad3 6d3d
00000070: 9e3c 4f3d fcc6 03be 1c1f 2ebe b38f ffbd
00000080: 9af5 e9bd 3e34 e3be 547b bf3d 95eb 14be
00000090: 1396 3abe 91a5 1bbc 513b 223d 739d 5d3e
000000a0: 9712 02bd fa4e 0ebd 8294 61bd 2069 883d
000000b0: fb3b d5bd 7607 b73d 7584 3c3e 306f b9bc
000000c0: 449a 8cbd 4571 db3d 4757 0a3c d268 873c
000000d0: df5f ae3d fc2e 28bd b752 8d3c 7b40 35be
000000e0: fd76 0abd 4b0b aebd 70cf 163e 09bf cbbd
000000f0: 35f2 583e 1688 fabd 3af5 e33d 5fe0 1c3e
00000100: 5f96 a8bd 732d d1bd b364 debd 3c8d 983d
00000110: af0e 2b3e 8f20 7c3d 77b1 f7bc 7754 7dba
00000120: 5c4e 6d3d ecd4 22be dd49 9e3c e4de d83c
00000130: 94e4 3abe 36b1 3bbc ca2b f93d bb99 51bd
00000140: bcec f9bd 8f11 16bc 06a9 363c 1a82 e03c
00000150: 30b6 fdbc 8116 bd3d 5f60 36bd 778a 963d
00000160: 0853 e13d c10b 313e 0cb4 103e e4d7 bebd
00000170: b29d 5dbe 2705 3fbc 82b0 75bc 50c0 88bd
00000180: 42bf 153d 1ff0 04bc 80e1 7f3c 9f0c a0bd
00000190: 88c5 21be 71ac 9d3d 2f50 c53d 660e 253d
000001a0: 8bb6 e7bd 8cce babc 40e8 48bd 8394 d6bb
000001b0: 19cf 42be 6189 dcbd c0ca 8abd 2281 bdbd
000001c0: 7204 293e 9088 9fbd d694 c7bd f3d3 bc3d
000001d0: 39d3 b1bd 8780 493e 8ead 90bc 03db 23be
000001e0: f079 ae3d c3ff ad3c 409f 27bd 48a0 863d
000001f0: 9226 9bbd 8ec6 cfbc 9439 2fbc 28eb cb3b

net.4.weight f4 [3, 128]
0.1764756 0.4039331 -0.3686305 0.17241831 -0.07834107 -0.28739378 -0.33174917 0.103153355
-0.09469353 -0.56932163 -0.29739106 0.19372846 0.21102828 -0.035583787 -0.32964063 -0.16022845
0.062481187 0.06750354 0.052752946 0.103874765 -0.008296315 0.054496735 -0.16471627 0.035201196
0.063219786 -0.1003905 -0.17763485 -0.0045897854 -0.5300625 -0.07006628 0.25333583 0.16941062
0.4732463 -0.9832107 -0.05560682 0.13328503 0.20643336 0.030647362 -0.20305409 0.15299617
0.070572495 0.071977176 0.11609354 -0.009659128 -0.15107238 0.2264956 -0.29074186 -0.090620145
0.003103195 -0.33304596 -0.041907147 0.24012454 0.17777841 -0.023843063 -0.16530974 0.38300616
-0.14756621 0.06948176 0.23969994 -0.052650563 -0.5735536 0.3089513 0.16881652 -0.058763657
0.043418467 0.10077725 -0.0061999313 -0.33222693 -0.2162456 0.04461237 -0.3950704 0.038532514
0.009906871 0.01522861 0.47062522 -0.22113055 0.31948748 -0.087382786 -0.041722238 0.11620877
0.01866612 -0.3328888 0.06412511 0.3018522 0.3757286 -0.32916608 -0.08105928 -0.019726535
-0.3764428 0.3258798 -0.47498128 -0.37224454 0.30493563 -0.029155787 0.105495766 0.30578816
-0.027774105 0.058881614 0.04192246 0.026623074 -0.1020532 -0.12370292 -0.24929878 0.3765623
-0.4528041 -0.3985679 -0.2994393 -0.08607591 0.28140667 0.013459803 -0.38400996 0.038755234
0.18343638 0.054391928 -0.24894921 -0.16951966 0.033668894 0.13702117 0.013034944 0.06853011
-0.2601602 -0.1401039 -0.26133624 -0.0117223505 -0.038377974 0.32465893 -0.11021288 0.02655476
0.107565306 -0.1475908 0.021509133 -0.027325183 -0.014073982 0.22801673 0.22257182 -0.12478007
-0.0010353627 0.06480428 0.31791365 0.10927871 -0.3753157 -0.28157657 -0.07875071 0.3614605
-0.14017609 0.0711073 -0.18810825 -0.21923186 -0.08814754 -0.25553727 0.44400442 0.3791102
-0.056692544 0.040028665 0.060694255 0.0430948 -0.04865067 -0.15246978 -0.33479595 -0.23961696
0.014498441 0.07199301 -0.17469533 0.02879217 0.16191815 -0.088530034 -0.19263873 0.11895329
-0.2235129 0.0770002 0.10633883 0.117577404 0.24792601 -0.023729859 -0.030229386 -0.06372642
-0.07350395 -0.0755204 -0.4759935 -0.16236779 0.028926171 -0.46208355 -0.09900875 -0.11862688
-0.0072351024 0.04777602 -0.18263946 0.004730554 -0.058903813 -0.33518022 -0.05081032 0.14523888
0.09403614 0.121713325 -0.2492628 -0.006778674 -0.22311324 0.12269807 -0.040314082 0.10105291
-0.01871707 -0.48630455 0.0062889736 0.18196367 -0.09676438 0.023546644 0.08583006 -0.2713339
-0.047516853 0.17354955 -0.095461935 0.12052793 -0.025901088 0.4224858 0.13455336 0.2666617
-0.1101333 0.025989622 0.18900435 0.01595863 0.086754225 -0.055176575 -0.06049251 -0.0056924815
0.3214489 -0.18483907 -0.0011857192 0.17997384 -0.24433959 0.12176885 -0.34919366 -0.45305398
0.021034462 0.0328495 0.29183504 -0.085707195 -0.0099394 -0.014822455 0.02345439 0.005840435
0.030041432 -0.05623999 0.1635959 0.25009048 0.070308045 0.0822206 0.31163654 -0.08048957
0.4831615 -0.060353544 0.05465262 0.1568559 -0.016838145 0.13204296 -0.53932005 -0.04578331
00000000: 05b6 343e 52d0 ce3e 23bd bcbe 6d8e 303e
00000010: 4871 a0bd 4725 93be 07db a9be 1142 d33d
00000020: aeee c1bd 10bf 11bf a443 98be c160 463e
00000030: cc17 583e 4ec0 11bd a8c6 a8be ed12 24be
00000040: 46ec 7f3d 4c3f 8a3d 7913 583d 4bbc d43d
00000050: 44ed 07bc f837 5f3d 62ab 28be 212f 103d
00000060: 6079 813d 8999 cdbd e9e5 35be e965 96bb
00000070: 2db2 07bf e97e 8fbd 3cb5 813e fa79 2d3e
00000080: 574d f23e b2b3 7bbf fac3 63bd df7b 083e
00000090: 4463 533e 2d10 fb3c 69ed 4fbe 07ab 1c3e
000000a0: 5088 903d c568 933d 73c2 ed3d 5241 1ebc
000000b0: b8b2 1abe 76ee 673e 1edc 94be 0e97 b9bd
000000c0: f95e 4b3b 0085 aabe d4a6 2bbd 35e3 753e
000000d0: 8b0b 363e 8752 c3bc f546 29be 6219 c43e
000000e0: 991b 17be 744c 8e3d e773 753e 1ea8 57bd
000000f0: 69d4 12bf dd2e 9e3e 3dde 2c3e 29b2 70bd
00000100: 90d7 313d 4e64 ce3d cb28 cbbb a619 aabe
00000110: 7d6f 5dbe 76bb 363d ab46 cabe 45d4 1d3d
00000120: 6e50 223c 6b81 793c caf5 f03e 0c70 62be
00000130: dd93 a33e bff5 b2bd f0e4 2abd ddfe ed3d
00000140: b1e9 983c 6770 aabe 0754 833d 5f8c 9a3e
00000150: 805f c03e 7588 a8be 6802 a6bd 8b99 a1bc
00000160: 1cbd c0be b8d9 a63e bf30 f3be d696 bebe
00000170: 8620 9c3e 1ed8 eebc 2a0e d83d 4490 9c3e
00000180: 8586 e3bc d92d 713d e3b6 2b3d a218 da3c
00000190: 4501 d1bd f557 fdbd 2e48 7fbe c6cc c03e
000001a0: f0d5 e7be 1711 ccbe 1c50 99be 9148 b0bd
000001b0: 8914 903e 8186 5c3c f49c c4be cfbd 1e3d
000001c0: bfd6 3b3e 12ca 5e3d 8bec 7ebe 9096 2dbe
000001d0: 65e8 093d 474f 0c3e 8590 553c 8459 8c3d
000001e0: b833 85be 6677 0fbe ddcd 85be 1a0f 40bc
000001f0: 3932 1dbd b239 a63e 4ab7 e1bd 5e89 d93c
00000200: 334b dc3d 0b22 17be ec33 b03c 10d9 dfbc
00000210: 8f96 66bc 387d 693e dee9 633e b18c ffbd
00000220: 02b5 87ba 1bb8 843d 94c5 a23e 84cd df3d
00000230: 6129 c0be ce2a 90be 0d48 a1bd 5a11 b93e
00000240: 528a 0fbe b4a0 913d 739f 40be 517e 60be
00000250: b386 b4bd c8d5 82be 8c54 e33e bb1a c23e
00000260: 7136 68bd 19f5 233d 8a9a 783d 2c84 303d
00000270: ed45 47bd 0a21 1cbe 606a abbe 265e 75be
00000280: de8a 6d3c 1271 933d 55e3 32be 8fdd eb3c
00000290: dfcd 253e 3c4f b5bd 1643 45be c89d f33d
000002a0: 91e0 64be 48b2 9d3d 2cc8 d93d 6ccc f03d
000002b0: 51e0 7d3e 1f65 c2bc 9ea3 f7bc ff82 82bd
000002c0: 3d89 96bd 71aa 9abd 6cb5 f3be be43 26be
000002d0: 94f6 ec3c 3796 ecbe 19c5 cabd a6f2 f2bd
000002e0: 7014 edbb cab0 433d d705 3bbe c302 9b3b
000002f0: 2045 71bd be9c abbe 7b1e 50bd 80b9 143e
00000300: 0596 c03d d644 f93d bf3e 7fbe a41f debb
00000310: cc77 64be 2049 fb3d 6120 25bd d4f4 ce3d
00000320: 8a54 99bc e9fc f8be bc13 ce3b af54 3a3e
00000330: 672c c6bd e4e4 c03c acc7 af3d 47ec 8abe
00000340: 08a1 42bd f9b6 313e 8c81 c3bd 59d7 f63d
00000350: 852e d4bc 0f50 d83e 5bc8 093e e287 883e
00000360: 918d e1bd 30e8 d43c 5b8a 413e acbb 823c
00000370: 33ac b13d d500 62bd ffc6 77bd ff87 babb
00000380: f394 a43e 7446 3dbe 226a 9bba 104b 383e
00000390: 2834 7abe f261 f93d 83c9 b2be b1f6 e7be
000003a0: 7750 ac3c 338d 063d 676b 953e 4187 afbd
000003b0: ddd8 22bc e2d9 72bc 6c23 c03c 1f61 bf3b
000003c0: 7319 f63c e75b 66bd af85 273e dc0b 803e
000003d0: aafd 8f3d 4663 a83d d38e 9f3e b7d7 a4bd
000003e0: f260 f73e 4735 77bd 6ddb 5f3d d59e 203e
000003f0: 26f0 89bc 4536 073e e110 0abf 4887 3bbd

net.4.bias f4 [3]
0.121694475 -0.014662642 0.029459741
00000000: f43a f93d 943b 70bc 8e55 f13c
