stock_label3_model.pth (torch, 90934 bytes, 6 tensors)

net.0.weight f4 [128, 29]
0	0xbe75fecb	-0.24022977
1	0xbe364f0f	-0.17803596
2	0x3e02a467	0.12758027
3	0xbe04b4ef	-0.12959646
4	0xbe9ff348	-0.31240296
5	0xbe8243b5	-0.2544228
6	0x3da11f9c	0.07867357
7	0xbe332912	-0.17496136
8	0xbda4036a	-0.08008464
9	0x3d40f678	0.04711005
10	0x3d4b2d28	0.04960361
11	0x3d9cc950	0.07655585
12	0xbe9c0087	-0.30469152
13	0xbd62e148	-0.055390626
14	0x3d3f5638	0.046713084
15	0x3d9a7b32	0.07543029
16	0x3d70cbf5	0.05878826
17	0xbdca01a1	-0.09863592
18	0xbd2c1816	-0.042015158
19	0x3df6d0f7	0.12051576
20	0x3df1071c	0.11768934
21	0xbe1033d5	-0.14082272
22	0xbf1a542d	-0.6028469
23	0x3e96f0ba	0.29480535
24	0x3d9f4ac1	0.0777793
25	0xbe2a0707	-0.16604243
26	0x3d42ad0d	0.047528315
27	0xbd222efd	-0.039595593
28	0xbe2b3f32	-0.16723326
29	0xbd477ee4	-0.048704997
30	0x3da7c2ec	0.08191475
31	0xbe7572b5	-0.23969539
32	0xbdedd2e3	-0.11612489
33	0x3acbf90b	0.0015561891
34	0x3da2e1ca	0.07953222
35	0x3c0d6327	0.008629597
36	0xbbe6338c	-0.007025188
37	0xbdf6ee2a	-0.12057145
38	0xbe215af1	-0.15757348
39	0xbca18713	-0.019717729
40	0x3e2b584c	0.16732901
41	0x3e5b4343	0.21412377
42	0x3c0a8603	0.008454802
43	0x3e120412	0.14259365
44	0x3e50f49d	0.20405813
45	0xbe67fa3a	-0.22654048
46	0xbe205679	-0.15657987
47	0xbe0920a7	-0.13391362
48	0x3d7b6ee0	0.061385036
49	0xbe596891	-0.21231295
50	0xbe41d169	-0.1892754
51	0x3eceef01	0.4041672
52	0xbe0136b2	-0.12618521
53	0xbebb98e3	-0.3664008
54	0xbdb20542	-0.08692409
55	0xbe603725	-0.21896036
56	0x3bdf5e75	0.00681668
57	0xbbf3a283	-0.0074351444
58	0x3c96f2c0	0.0184263
59	0x3e48829a	0.1958107
60	0x3d29fa4c	0.041498467
61	0xbcf8fad9	-0.030393051
62	0xbe7bf400	-0.24604797
63	0x3c9875a2	0.01861078
64	0x3db826a1	0.08991743
65	0x3d3fe0d3	0.04684527
66	0x3e68d644	0.22737986
67	0x3da8b7ce	0.08238183
68	0x3c51242a	0.01276497
69	0x3c1a29b2	0.009409355
70	0xbe8edfc2	-0.2790509
71	0x3d3a2eaa	0.04545466
72	0x3e160c44	0.14653116
73	0xbeb4735b	-0.3524426
74	0xbe4090ee	-0.18805286
75	0x3e399a3b	0.1812524
76	0x3ce0706c	0.027397357
77	0xbda7c548	-0.08191925
78	0xbc8ddcb0	-0.017317146
79	0xbc40ac0e	-0.011759771
80	0x3ea2b8b5	0.31781545
81	0xbd498de4	-0.049207583
82	0x3e60165e	0.21883532
83	0xbe75727f	-0.23969458
84	0xbec7c154	-0.39014685
85	0xbc88afad	-0.016685331
86	0x3e1a41d9	0.15064181
87	0x3dc5ecd2	0.096643105
88	0xbd95c1de	-0.07312368
89	0x3d8f177a	0.069869
90	0x3da8124c	0.08206615
91	0xbe6f882e	-0.23391792
92	0xbecd022f	-0.40040728
93	0x3e3faa32	0.18717268
94	0xbe0957f4	-0.13412458
95	0xbeb5222e	-0.3537764
96	0xbdf89238	-0.12137264
97	0xbdb24b1f	-0.087057345
98	0xbd0f8195	-0.03503569
99	0x3d30b4aa	0.043141045
100	0xbc49a60b	-0.012307654
101	0xbd27b76c	-0.04094641
102	0x3dcc0ec7	0.09963756
103	0x3dce4d46	0.100733325
104	0x3b85d274	0.004083926
105	0xbd18f97b	-0.037347298
106	0x3c2a69fa	0.010401243
107	0x3ddb48cc	0.10707244
108	0x3d4c4576	0.04987093
109	0xbeb8ac06	-0.36068743
110	0x3db583b2	0.088630095
111	0xbdf948ef	-0.12172114
112	0xbe2b7714	-0.16744643
113	0xbca5b280	-0.020226717
114	0xbdcbae8e	-0.09945403
115	0x3dfa5736	0.122236654
116	0x3ddef6f7	0.108869486
117	0xbc6e1b2e	-0.014532847
118	0x3c4ff060	0.012691587
119	0xbdb94327	-0.090460114
120	0xbe58b415	-0.21162446
121	0xbeca154d	-0.39469376
122	0xbd17d29e	-0.037066095
123	0x3c46f72f	0.012143894
124	0x3cd228bf	0.025654195
125	0xbd7c6086	-0.06161549
126	0xbe275deb	-0.1634442
127	0xbe769855	-0.24081548
128	0x3e4a8ace	0.19779512
129	0xbd038b9f	-0.032115575
130	0x3d831129	0.063997574
131	0xbe231e10	-0.15929437
132	0x3df57c83	0.11986639
133	0x3c9d5284	0.019204386
134	0x3dd07da4	0.10180214
135	0x3e42b39b	0.19013827
136	0x3e1256e1	0.14290954
137	0xbda17850	-0.07884276
138	0xbdfe6862	-0.12422253
139	0xbdfcb79e	-0.1233971
140	0xbca6a678	-0.02034305
141	0xbdafae3f	-0.08578157
142	0xbe3882f8	-0.1801871
143	0xbe2ae5c6	-0.16689214
144	0xbd95dfba	-0.07318063
145	0xbde1b77b	-0.11021324
146	0xbde0964a	-0.10966165
147	0x3d2e4907	0.042550113
148	0x3cee5290	0.029092103
149	0xbc156854	-0.009119112
150	0x3dbba786	0.09162812
151	0x3a781d50	0.0009464817
152	0x3987285d	0.0002577928
153	0x3df407cc	0.1191555
154	0xbe40040b	-0.18751542
155	0xbe729c14	-0.23692352
156	0x3ed976c0	0.42473412
157	0xbe3f0f0a	-0.1865808
158	0x3dc01e30	0.09380758
159	0x3d52339c	0.05131875
160	0x3d8d2dc1	0.068934925
161	0x3df6ab24	0.12044361
162	0x3d6dd4c6	0.058064245
163	0x3e0fd190	0.14044785
164	0x3dc9e84c	0.0985876
165	0xbe342dae	-0.1759555
166	0xbb13ba42	-0.0022541438
167	0x3ebb63ae	0.36599487
168	0xbe8b635a	-0.27224237
169	0xbecde0a3	-0.40210447
170	0x3de73edb	0.112912856
171	0xbe1bdd6a	-0.15221182
172	0x3caa97fa	0.020824421
173	0xbdf2ce43	-0.118557476
174	0xbdd317aa	-0.10307248
175	0x3d7f4ddf	0.062330123
176	0x3da6148b	0.08109387
177	0x3e1ee9b5	0.1551884
178	0x3e0f724a	0.14008442
179	0xbf11509b	-0.5676362
180	0x3d89cde9	0.06728727
181	0x3e090477	0.1338061
182	0x3e961943	0.29316148
183	0xbe1c8f88	-0.15289128
184	0x3d8ce2ca	0.06879194
185	0xbe0626ab	-0.13100688
186	0xbdb97e67	-0.090573125
187	0x3b7fdd19	0.0039041697
188	0xbcbcd286	-0.023049604
189	0xbe77f5d1	-0.24214865
190	0x3e210c9f	0.15727471
191	0xbe2339c1	-0.1594
192	0x3dd25764	0.10270575
193	0xbd5362f6	-0.05160805
194	0x3de9f5d6	0.114238426
195	0xbd4b8863	-0.049690615
196	0xbd92a842	-0.07160999
197	0x3e9761b6	0.29566735
198	0x3e69cef8	0.22832859
199	0x3e760c85	0.24028213
200	0x3e43786e	0.19088909
201	0xbe187e70	-0.14891982
202	0xbe12a1c3	-0.1431952
203	0xbe0bdfd4	-0.13659602
204	0xbdd2ba8a	-0.10289486
205	0xbdb51dd8	-0.08843583
206	0xbe3b8727	-0.18313275
207	0x3d9cdcf4	0.07659331
208	0x3ca85348	0.020547524
209	0x3df18032	0.117920294
210	0x3d97dc30	0.07415044
211	0xbd66e00e	-0.05636602
212	0x3c866641	0.01640618
213	0x3d840ecf	0.06448137
214	0x3dd0f61a	0.1020319
215	0xbd322b75	-0.043498475
216	0x3d954bff	0.07289886
217	0xbd6d3924	-0.05791582
218	0xbe5ae42a	-0.213761
219	0x3d02af1a	0.03190527
220	0x3df73b12	0.12071814
221	0x3d293fbc	0.041320547
222	0xbe3feeaf	-0.18743394
223	0x3d89396d	0.06700406
224	0x3cc2750b	0.023737451
225	0x3e12cbf0	0.14335608
226	0xbabf8c77	-0.0014614005
227	0x3e184d91	0.14873339
228	0x3e80f612	0.25187737
229	0xbea9dbc8	-0.33175492
230	0xbddaed13	-0.106897496
231	0x3dc3f56c	0.09568295
232	0xbd9b5b8e	-0.07585822
233	0xbddda569	-0.10822565
234	0xbe2a7bad	-0.16648741
235	0x3d503de5	0.050840277
236	0xbde094d2	-0.10965885
237	0x3da719fb	0.08159252
238	0xbbfa00d7	-0.0076294946
239	0x3b8bbc05	0.004264357
240	0xbe890667	-0.26762697
241	0x3b9693fb	0.0045952774
242	0x3c99db1a	0.018781234
243	0x3d1a5e40	0.03768754
244	0x3d086493	0.03329904
245	0x3e48640c	0.19569415
246	0xbde30030	-0.1108402
247	0xbc3fa99f	-0.011698156
248	0xbddef7cb	-0.108871065
249	0xbe58e96d	-0.21182795
250	0xbe13dd31	-0.14439847
251	0x3c5f0e72	0.013614284
252	0xbd71cd4c	-0.059033677
253	0x3de3d9ec	0.1112555
254	0xbf13c2c7	-0.5771908
255	0xbd3321de	-0.04373347

net.0.bias f4 [128]
0	0xbeaa8880	-0.33307266
1	0xbe2fc550	-0.17165112
2	0xbe537c89	-0.20652975
3	0xbdcc7b9e	-0.099845156
4	0xbe253f94	-0.16137534
5	0x3b57863a	0.0032886402
6	0xbe9463c0	-0.28982353
7	0xbe2a8a1e	-0.1665425
8	0xbe26a4e8	-0.16273844
9	0xbebc1a50	-0.36738825
10	0xbe818f9c	-0.25304878
11	0xbcc01e36	-0.023451906
12	0xbeaf5d45	-0.34250847
13	0xbddf0290	-0.10889161
14	0xbe4b01d5	-0.19824918
15	0x3c0068ee	0.007837517
16	0xbeb9d426	-0.3629467
17	0xbe2477cd	-0.16061325
18	0xbe0aa7cc	-0.13540572
19	0xbe97e030	-0.2966323
20	0xbdfd45e9	-0.1236685
21	0xbd0566dd	-0.0325688
22	0x3b608175	0.003425685
23	0xbdc49b6a	-0.095999554
24	0xbd80672a	-0.06269677
25	0x3df150f8	0.11783022
26	0xbee8c525	-0.4546291
27	0xbee229f9	-0.44172648
28	0xbd8f87da	-0.070083335
29	0x3d554578	0.052068204
30	0x3de70e08	0.11281973
31	0xbeb7284e	-0.35772938
32	0xbed517d1	-0.41619733
33	0xbea5c27d	-0.32374945
34	0xbe12ba86	-0.14328966
35	0xbe8bede2	-0.27329928
36	0xbdf2d089	-0.11856181
37	0xbe3d82a1	-0.18506862
38	0xbe55bbde	-0.20872447
39	0x3dc5f252	0.096653596
40	0xbea6b1b1	-0.32557443
41	0xbed88f13	-0.42296657
42	0xbe6cd19d	-0.23126836
43	0x3c87daa6	0.016583752
44	0xbe035f59	-0.12829341
45	0xbe429ec0	-0.19005871
46	0xbd35f863	-0.044426333
47	0xbe0c2c83	-0.13688855
48	0xbb0744c8	-0.0020640362
49	0xbe7c080a	-0.24612442
50	0xbe885f68	-0.2663529
51	0xbf16eb60	-0.58952904
52	0xbe2ce174	-0.16882879
53	0xbe96711b	-0.29383168
54	0xbe2410eb	-0.16022079
55	0xbd5c8360	-0.053836226
56	0xbe716481	-0.23573495
57	0xbe5c94ad	-0.2154109
58	0xbe863009	-0.26208523
59	0xbd420da1	-0.04737628
60	0xbe922279	-0.28541926
61	0xbe51a311	-0.20472361
62	0xbd04da44	-0.032434717
63	0xbf19a929	-0.6002374
64	0x3e0dedc4	0.13860232
65	0xbe012d88	-0.12615025
66	0xbe770384	-0.24122435
67	0xbcb2e806	-0.021839153
68	0xbe751073	-0.23932056
69	0xbe0736d0	-0.13204503
70	0xbe6f8715	-0.23391373
71	0xbe9ef892	-0.3104902
72	0xbca5af88	-0.020225301
73	0xbea86568	-0.32889867
74	0xbece94b1	-0.40347818
75	0xbee9ccaa	-0.4566396
76	0x3e449e0f	0.1920092
77	0xbea285ed	-0.31742802
78	0xbe698cc4	-0.22807604
79	0xbe9816b2	-0.29704815
80	0xbe53fe93	-0.20702581
81	0xbe441388	-0.19148076
82	0xbe9088d8	-0.28229403
83	0xbe04b21a	-0.12958565
84	0xbabb06ba	-0.0014268972
85	0xbead4d7b	-0.33848175
86	0x3dbe9826	0.09306364
87	0xbd4f0a31	-0.05054683
88	0xbe3ecd5e	-0.18633029
89	0x3dde35f1	0.10850132
90	0xbd9f5ea8	-0.07781726
91	0xbdebd439	-0.11515088
92	0xbe1938bc	-0.14963049
93	0xbe0020ae	-0.12512466
94	0xbeaf99bd	-0.3429698
95	0xbd927d3b	-0.07152792
96	0xbe43fbb5	-0.19138987
97	0xbe965894	-0.29364455
98	0xbe1cf2db	-0.15327017
99	0xbe8cf14e	-0.2752785
100	0xbd96f050	-0.07370055
101	0xbdee5c09	-0.11638648
102	0xbe828142	-0.2548924
103	0xbe3c4ff2	-0.18389872
104	0xbe14b044	-0.14520365
105	0xbdb6140f	-0.088905446
106	0xbe9e9c1a	-0.3097847
107	0x3d80e3be	0.062934384
108	0xbe2a1132	-0.16608122
109	0xbe1d2a16	-0.15348086
110	0xbe734c6d	-0.23759623
111	0xbef4e1ef	-0.47828624
112	0xbe57dd3a	-0.21080485
113	0xbe81014c	-0.25196302
114	0xbecadcfc	-0.39621723
115	0xbe648dfe	-0.2231979
116	0xbd94ec72	-0.07271661
117	0xbe037b30	-0.12839961
118	0xbe504435	-0.20338519
119	0xbe42f0ba	-0.19037142
120	0xbdb14621	-0.08655954
121	0xbe9370ba	-0.2879694
122	0xbe9bcdc1	-0.30430415
123	0xbd01df22	-0.031706937
124	0xbe8659cb	-0.26240382
125	0xbe4cfcb8	-0.2001828
126	0xbc82a85d	-0.015949422
127	0xbe219866	-0.15780792

net.2.weight f4 [128, 128]
0	0x3d3d8ed3	0.046278786
1	0x3d998f5e	0.07498048
2	0xbda76b5a	-0.081747726
3	0xbc785305	-0.015156512
4	0xbcfd5523	-0.030924385
5	0x3e4e8027	0.20166074
6	0xbdd64a9f	-0.104634516
7	0xbc1ba4fb	-0.009499784
8	0xbd565ce8	-0.052334696
9	0x3de03754	0.10948053
10	0x3dd02157	0.10162609
11	0xbe3059c5	-0.17221744
12	0xbe33b4cf	-0.17549442
13	0x3d350548	0.04419449
14	0xbeb156a4	-0.34636414
15	0xbe057e9b	-0.13036577
16	0xbe22d3fd	-0.1590118
17	0xbdbea2a4	-0.09308365
18	0x3bc387fa	0.0059671374
19	0xbdb57057	-0.08859318
20	0xbe58aa81	-0.21158792
21	0xbdcacd60	-0.099024534
22	0xbe51ca14	-0.20487243
23	0x3d9354ab	0.071938835
24	0xbdb27f9b	-0.08715745
25	0xbe8205a5	-0.2539493
26	0x3cc984a8	0.024599388
27	0x3e998a9e	0.2998857
28	0xbd0d1cc1	-0.03445125
29	0xbdf41f9e	-0.11920093
30	0xbe8be1dd	-0.27320758
31	0xbda1e000	-0.07904053
32	0xbdf5acb3	-0.119958304
33	0x3d6a6dd1	0.057233635
34	0xbe5e6d33	-0.21721344
35	0xbc8d40cd	-0.017242813
36	0x3e2f5aa3	0.17124419
37	0xbdb80d7b	-0.08986946
38	0xbea35cd0	-0.31906748
39	0x3d87a64a	0.06623514
40	0xbe04c947	-0.12967406
41	0x3d5c4aaa	0.053782143
42	0x3d6d02d9	0.057864044
43	0x3c5683aa	0.013092915
44	0xbe764a8f	-0.2405188
45	0xbe08751b	-0.13325922
46	0xbe011a72	-0.12607744
47	0xbccf641d	-0.025316292
48	0x3da5ce90	0.08096039
49	0x3e1070ee	0.1410558
50	0x3ba3981a	0.004992497
51	0xbe145162	-0.1448417
52	0x3dd6049f	0.104501
53	0x3e94b23e	0.29042238
54	0x3d88719f	0.066622965
55	0xbd0f225c	-0.034944877
56	0xbe423602	-0.18965915
57	0x3dec26c4	0.115308315
58	0xbe08fb9a	-0.13377228
59	0xbe006a64	-0.12540585
60	0x3dc50ea0	0.0962193
61	0x3d90441a	0.07044239
62	0xbc8fade1	-0.017538967
63	0xbe9af2ca	-0.30263358
64	0xbdb29879	-0.08720488
65	0xbea394ec	-0.31949556
66	0x3d593659	0.053030346
67	0xbe0bd116	-0.13653979
68	0x3df0b5d5	0.11753432
69	0x3e041c18	0.12901342
70	0xbd84600e	-0.064636335
71	0xbe46cf74	-0.19415075
72	0xbe2277f5	-0.15866072
73	0xbe031eb0	-0.12804675
74	0x3cde2966	0.02711935
75	0x3e5f30a5	0.217959
76	0x3dd824fa	0.10553928
77	0xbe77c219	-0.24195136
78	0xbd32815d	-0.0435804
79	0x3d36c54a	0.044621743
80	0x3da30e5e	0.07961725
81	0x3de2a772	0.11067094
82	0x3e17cccc	0.14824218
83	0x3e40563f	0.187829
84	0xbdbc9efc	-0.09210011
85	0xbba790e1	-0.0051137065
86	0xbb5fa374	-0.0034124525
87	0xbd2f0940	-0.04273343
88	0xbe0c71f7	-0.13715349
89	0xbdffc163	-0.124880575
90	0x3d86182c	0.06547579
91	0x3c7e8b09	0.015536078
92	0xbd81948b	-0.063271604
93	0x3e3864a0	0.18007135
94	0x3dd7183b	0.105026685
95	0x3db613ca	0.08890493
96	0xbe0fc284	-0.14039046
97	0x3da4f852	0.08055176
98	0xbe93ec97	-0.2889144
99	0xbde7c9d5	-0.11317793
100	0xbdcec579	-0.10096259
101	0xbdb7175f	-0.089400046
102	0x3de168f8	0.11006349
103	0xbcd45ae1	-0.02592224
104	0x3d88cca7	0.06679659
105	0xbc4f59e9	-0.012655714
106	0xbdb3dbb6	-0.08782141
107	0x3e04ad54	0.12956744
108	0x3d837675	0.06419078
109	0x3c8fa2a0	0.0175336
110	0x3dc7350d	0.097269155
111	0xbd141255	-0.036150295
112	0x3e10ecce	0.14152834
113	0xbe6946bf	-0.22780894
114	0xbdfa886b	-0.12233051
115	0x3e153d51	0.14574172
116	0x3d973b3a	0.073843434
117	0x3cfaa6cb	0.030597111
118	0xbe6cda20	-0.23130083
119	0xbdff9849	-0.12480218
120	0xbbf9ee4e	-0.007627285
121	0x3e8b2b8c	0.2718166
122	0xbe40f31b	-0.18842737
123	0x3e0b965e	0.1363158
124	0x3e061e87	0.13097583
125	0x3e831ec9	0.25609425
126	0xbe2fcb3e	-0.17167374
127	0xbe14d507	-0.14534388
128	0x3dc47aa4	0.09593704
129	0xbd8e71b1	-0.06955279
130	0x3dd4adbf	0.10384702
131	0x3c4f6d2b	0.012660305
132	0x3d0ad957	0.033898678
133	0xbe03fe87	-0.12890063
134	0xbd5890d2	-0.052872486
135	0x3d4b9bc5	0.0497091
136	0xbe171ea1	-0.14757778
137	0xbe7ddc56	-0.24791083
138	0xbd602a88	-0.05472806
139	0x3def5247	0.11685615
140	0xbea29403	-0.3175355
141	0xbe6f52aa	-0.23371378
142	0xbdc1c2d4	-0.09460989
143	0x3cf1e8e1	0.02952999
144	0xbdabe1ff	-0.08392715
145	0x3c7a5238	0.015278392
146	0x3db8f56f	0.09031188
147	0x3c1a0be1	0.009402246
148	0x3d2c9ff8	0.042144746
149	0x3db3b301	0.08774377
150	0xbe44c49d	-0.19215627
151	0x3ca15b91	0.019696983
152	0x369fcaa4	4.7621597e-06
153	0xbe12d114	-0.1433757
154	0xbdef45ba	-0.11683221
155	0x3d8c3c70	0.06847465
156	0xbbec7b64	-0.0072168577
157	0x3ca2064d	0.019778395
158	0xbd9488bd	-0.07252643
159	0x3cccd005	0.025001535
160	0x3d8bb53e	0.068216786
161	0x3e09ea95	0.13468392
162	0x3e095b5e	0.1341376
163	0xbe51f097	-0.20501934
164	0x3e049f47	0.12951384
165	0xbc9af7f8	-0.018917069
166	0x3e9fefee	0.3123774
167	0xbdda444c	-0.10657558
168	0xbe66ef58	-0.2255224
169	0x3d569b38	0.052394122
170	0xbea9ea92	-0.33186775
171	0xbdd92c5d	-0.10604165
172	0x3d6d5197	0.05793914
173	0xbca293e6	-0.019845914
174	0xbd345669	-0.04402772
175	0x3ba1bed7	0.00493608
176	0xbe032676	-0.1280764
177	0xbe3accf5	-0.18242247
178	0x3d03b816	0.03215798
179	0xbbbbb697	-0.0057285535
180	0x3ba4d1c2	0.005029888
181	0xbe1dc403	-0.15406804
182	0x3ccae6aa	0.024768192
183	0xbe0f5c09	-0.13999952
184	0xbde623ee	-0.11237322
185	0x3d042b5b	0.03226791
186	0xbdc90503	-0.09815409
187	0xbe89e2a4	-0.26930726
188	0xbe7f302c	-0.2492072
189	0xbd462ca8	-0.04838243
190	0x3be492d9	0.0069755134
191	0x3d04dea7	0.0324389
192	0x3c0a4bb3	0.0084409
193	0xbe2cce19	-0.16875495
194	0xbd89c0e2	-0.067262426
195	0xbdf3b91b	-0.119005404
196	0xbdbfc5d1	-0.09363902
197	0xbe1f33e0	-0.15547132
198	0xbd9b5652	-0.07584824
199	0x3db82651	0.08991683
200	0xbdcb8b0d	-0.09938631
201	0x3da5cc80	0.08095646
202	0xbe42b7a8	-0.19015372
203	0xbca80b09	-0.020513074
204	0xbe5671dc	-0.20941871
205	0xbca03a6a	-0.019559104
206	0x3c0be8d0	0.008539394
207	0xbce45845	-0.027874121
208	0xbe239499	-0.15974654
209	0xbe07b7c8	-0.132537
210	0xbb92193c	-0.0044585746
211	0x3d93d60c	0.072185606
212	0x3d4cfeed	0.050047804
213	0xbdc27c34	-0.09496346
214	0x3c188355	0.009308656
215	0xbe3ad5dd	-0.18245645
216	0xbb04af66	-0.0020246147
217	0x3cd1d8a6	0.025616001
218	0xbb14d1b7	-0.0022708008
219	0xbe400675	-0.18752463
220	0x3d756404	0.059909835
221	0x3d80cf57	0.06289547
222	0x3da815fe	0.0820732
223	0xbc9e1e86	-0.019301664
224	0x3d5c1fae	0.05374115
225	0x3d37ab95	0.044841368
226	0x3d6514f6	0.055928193
227	0xbdac1152	-0.08401741
228	0xbda0efe8	-0.078582585
229	0xbde36f5a	-0.11105223
230	0xbde84f8a	-0.11343296
231	0x3d7d34d4	0.06181796
232	0xbdcc2d28	-0.0996955
233	0x3d369191	0.044572417
234	0xbd4cc901	-0.04999638
235	0xbd422793	-0.047401022
236	0xbe5c744c	-0.21528739
237	0xbe9f37f0	-0.31097364
238	0xbd9539da	-0.07286425
239	0xbe1cba6a	-0.15305486
240	0xbe9cc54b	-0.30619273
241	0xbbbc3ff6	-0.0057449294
242	0x3e2ffdde	0.17186686
243	0xbdee95be	-0.11649655
244	0xbdc150dd	-0.094392516
245	0x3d2b8d39	0.041882727
246	0xbd5d6bbe	-0.05405783
247	0xbd057a86	-0.03258755
248	0xbe7506b1	-0.23928334
249	0xbe11eae6	-0.14249763
250	0x3ceaff27	0.02868612
251	0xbe5e603b	-0.21716397
252	0x3d3f7e78	0.04675147
253	0x3de0a0d2	0.10968174
254	0x3d04731c	0.03233634
255	0xbd99f0a4	-0.07516602

net.2.bias f4 [128]
0	0xbc5fae09	-0.013652333
1	0x3ce481df	0.027893959
2	0xbe8595df	-0.26090905
3	0x3df12af7	0.11775773
4	0xbe397f84	-0.1811505
5	0x3bacd143	0.0052739694
6	0x3da66fa8	0.081267655
7	0xbb4f1012	-0.0031595272
8	0xbdf67ea0	-0.120358706
9	0x3eb814eb	0.3595346
10	0x3cd373d4	0.025812067
11	0xbe3f8891	-0.1870444
12	0xbe83cdd5	-0.25742975
13	0xbdddde6e	-0.10833441
14	0xbbbc5f63	-0.0057486757
15	0x3dbb9f32	0.091612235
16	0xbde11df7	-0.109920435
17	0x3d9aa8b4	0.07551709
18	0xbd4539ee	-0.04815095
19	0xbe4498fe	-0.19198987
20	0x3dae1d41	0.085016735
21	0xbda5ea7a	-0.081013635
22	0x3dc7b15b	0.09750625
23	0x3d2e722d	0.042589355
24	0xbd5d01f3	-0.053956937
25	0x3ce72001	0.028213503
26	0xbc805fde	-0.015670713
27	0xbcdafa09	-0.026730554
28	0x3d9a257b	0.0752668
29	0x3e319d8e	0.17345259
30	0xbdcaecba	-0.09908433
31	0xbd90a408	-0.070625365
32	0xbbf1d3cc	-0.0073799845
33	0xbb9fd556	-0.0048777265
34	0x3e073042	0.13202003
35	0x3ddd33f2	0.108009234
36	0xbd82ac61	-0.06380535
37	0x3e591f75	0.21203406
38	0xbe1e2cfd	-0.15446849
39	0xbcaf880a	-0.021427173
40	0x3db2b449	0.08725793
41	0x3e7a5b66	0.24448928
42	0xbe0cb719	-0.13741721
43	0x3d6181f5	0.055055577
44	0x3de4e202	0.1117592
45	0xbdb4d40d	-0.08829508
46	0xbe3e18fc	-0.18564218
47	0xbc5eff3f	-0.01361066
48	0xbc82ed83	-0.015982395
49	0xbd8dbf8b	-0.069212995
50	0x3da4ef42	0.08053447
51	0xbe1f630a	-0.15565124
52	0x3dacc255	0.084355034
53	0xbcb60db9	-0.02222334
54	0xbd9612ab	-0.073277794
55	0xbd9d7e52	-0.07690109
56	0x3e1eee17	0.15520512
57	0xbbed44ca	-0.0072408663
58	0x3d8600fb	0.06543156
59	0xbc7e737a	-0.015530461
60	0xbd7eb834	-0.06218739
61	0xbce18f5f	-0.027534185
62	0xbd8e7b4a	-0.06957109
63	0x3d32b617	0.043630686
64	0x3cf544ff	0.029940126
65	0xbd889b14	-0.06670204
66	0xbde1dcff	-0.1102848
67	0x3d0980d4	0.033570126
68	0x3c31f04e	0.010860516
69	0x3daaf108	0.08346754
70	0xbdc33b85	-0.09532837
71	0x3ce4be45	0.027922759
72	0x3d26cc79	0.040722344
73	0xbde823d4	-0.11334959
74	0x3dede60f	0.11616146
75	0xbdb00526	-0.08594732
76	0x3cc64a22	0.024205271
77	0x3d85ece2	0.065393224
78	0xbdbc1712	-0.09184088
79	0xbeca6d6c	-0.39536607
80	0x3e73f48b	0.23823754
81	0x3d32e51a	0.04367552
82	0x3c165895	0.009176393
83	0x3d9dc445	0.07703451
84	0xbc07dc82	-0.008292319
85	0x3e296d00	0.16545486
86	0x3e12ad2a	0.1432387
87	0xbcee41bf	-0.029084085
88	0xbdece9d6	-0.11568038
89	0x3da04adb	0.078267775
90	0x3e542cc5	0.20720203
91	0xbd995370	-0.074866176
92	0xbce68b9c	-0.028142743
93	0x3dbad1e6	0.09122066
94	0x3d488e0c	0.04896359
95	0x3e5da263	0.21643977
96	0xbdda142b	-0.10648378
97	0xbda9a3f6	-0.08283226
98	0xbca95b36	-0.020673376
99	0xbaec6f83	-0.0018038604
100	0xbe2244be	-0.15846536
101	0xbd979f34	-0.074034125
102	0x3e274546	0.1633502
103	0x3d6efe20	0.05834782
104	0xb97c73f0	-0.00024075783
105	0x3c3809d9	0.011232817
106	0xbe38311f	-0.17987488
107	0x3d935a62	0.071949735
108	0x3d0edc1c	0.03487788
109	0xbe01aea5	-0.12664278
110	0x3d143c22	0.03619016
111	0xbdce344b	-0.10068568
112	0xbd9fbeb1	-0.078000434
113	0xbc5b0862	-0.013368698
114	0x3d4bb4a5	0.049732823
115	0x3e22a27f	0.158823
116	0x3d8bcb72	0.068259135
117	0x3d7c1ccb	0.061550897
118	0x3de4a391	0.1116401
119	0x3d2c1a5e	0.042017333
120	0x3da1c909	0.078996725
121	0x3d44d70b	0.048056643
122	0xbe017e9a	-0.12645951
123	0x3e26a4c9	0.16273798
124	0xbc7248c3	-0.014787856
125	0xbb9362a3	-0.0044978424
126	0xbd5de0af	-0.054169353
127	0xba8da38d	-0.0010806188

net.4.weight f4 [3, 128]
0	0x3e0ff48a	0.14058128
1	0xbe3a00e6	-0.18164405
2	0x3cd6c7d3	0.02621833
3	0x3e3550e2	0.17706636
4	0xbb664332	-0.0035135266
5	0xbe8ecf66	-0.27892607
6	0xbdd65557	-0.10465496
7	0x3f46edc7	0.7770657
8	0xbe024cc2	-0.12724593
9	0x3f0d9fee	0.5532216
10	0xbe950645	-0.29106346
11	0xbe0e4905	-0.13895042
12	0x3e87856a	0.26468974
13	0xbcac8e66	-0.021063995
14	0xbe70fb6e	-0.23533413
15	0xbed15539	-0.40885332
16	0x3e1dd14c	0.15411872
17	0xbe67575a	-0.22591916
18	0x3eb275db	0.34855542
19	0x3d17d358	0.037066787
20	0xbeaedaf6	-0.3415143
21	0xbcf82b39	-0.030294048
22	0x3dec0012	0.11523451
23	0x3e386285	0.18006332
24	0xbf040504	-0.51570153
25	0x3d5ce39b	0.053928
26	0xbe82aeed	-0.25524083
27	0xbd55beb3	-0.052183818
28	0x3e2c290c	0.16812533
29	0x3eb3c856	0.35113782
30	0x3dba8269	0.09106905
31	0x3e65e4ec	0.22450608
32	0x3e2e835c	0.17042297
33	0xbdfc5751	-0.12321342
34	0x3eb2dca8	0.34933972
35	0xbe0d97ed	-0.13827486
36	0xbef66033	-0.4812027
37	0x3df67f1e	0.120359644
38	0x3d217e99	0.039427374
39	0x3e951dc5	0.29124275
40	0xbdd7ab3e	-0.10530709
41	0xbe86c0ce	-0.26318973
42	0x3db47ea4	0.08813217
43	0xbedaa4ba	-0.427038
44	0x3d013b7f	0.03155088
45	0x3d429a1a	0.047510244
46	0x3d8b5fc4	0.06805375
47	0xbe8f5e84	-0.28001797
48	0xbe50cb12	-0.20389965
49	0xbe5695ca	-0.20955577
50	0xbe6faae7	-0.23405038
51	0x3e19d3ac	0.15022153
52	0xbebb898c	-0.36628377
53	0xbf0291ec	-0.5100391
54	0xbbc6ac09	-0.0060629887
55	0xbeb249dc	-0.34821975
56	0x3ed3fb5e	0.41402715
57	0x3d694f3e	0.056960337
58	0xbdc64f85	-0.09683136
59	0xbd3a6e80	-0.045515537
60	0x3dbde419	0.09272022
61	0x3d533836	0.05156728
62	0xbd162931	-0.036660377
63	0xbe3b53ed	-0.18293734
64	0xbc8d21fc	-0.01722812
65	0x3c2c14a0	0.010502964
66	0xbe0a51cd	-0.13507767
67	0xbeca754f	-0.39542624
68	0x3dd8af98	0.10580367
69	0xbcfe70d3	-0.031059658
70	0x3deb5343	0.1149049
71	0xbdc7267d	-0.09724138
72	0xbe9e5abc	-0.309286
73	0xbcf4107a	-0.029793013
74	0xbe905555	-0.28190103
75	0xbcb85c60	-0.022504985
76	0x3e12725c	0.14301437
77	0x3edd8387	0.4326441
78	0xbc3c0d92	-0.011477845
79	0xbf04db15	-0.5189679
80	0x3eb5c1cd	0.3549942
81	0xbe50936f	-0.20368741
82	0xbf19662f	-0.59921545
83	0xbdb5abfd	-0.08870695
84	0x3dc4354e	0.095804796
85	0xbdea9d64	-0.11455801
86	0xbdf1fb65	-0.11815528
87	0xbeef943a	-0.46792775
88	0x3d3d1dab	0.04617087
89	0x3e6f9afa	0.23398963
90	0xbec22752	-0.37920624
91	0xbd975c22	-0.0739062
92	0x3d808cbf	0.06276845
93	0xbde5fe2c	-0.1123012
94	0x3e8e6f66	0.27819365
95	0xbeb41bc2	-0.35177428
96	0xbd552b2a	-0.052043118
97	0xbe2ab04f	-0.16668819
98	0xbda07fbb	-0.07836863
99	0xbeb7c17e	-0.3588981
100	0xbed8725d	-0.42274752
101	0x3def9ed0	0.11700213
102	0x3e1daf19	0.15398826
103	0x3dc8dbff	0.09807586
104	0xbea31df8	-0.31858802
105	0x3da589a1	0.08082891
106	0x3c94b13d	0.01815092
107	0xbe5b8618	-0.21437871
108	0x3f0791d3	0.52956885
109	0xbd05e66b	-0.032690447
110	0x3e8db2d1	0.2767549
111	0xbd951b36	-0.07280581
112	0xbd0fc2b2	-0.035097785
113	0xbeb6bba3	-0.3569003
114	0xbe5e9afc	-0.2173881
115	0xbdca1b72	-0.09868516
116	0xbe900a49	-0.28132847
117	0xbe7dc39b	-0.24781649
118	0xbf01e66e	-0.5074223
119	0x3d8b3e55	0.06798998
120	0xbe2bd7eb	-0.16781585
121	0x3e752c88	0.23942769
122	0x3e2695ca	0.16268077
123	0xbea27591	-0.3173032
124	0xbd57bfd6	-0.052673183
125	0xbe8bef89	-0.27331188
126	0xbe1d7045	-0.15374859
127	0x3dcc05b2	0.09962024
128	0xbdeaa302	-0.114568725
129	0xbbaea52c	-0.0053297486
130	0xbf191b2e	-0.598071
131	0x3ebc8072	0.36816746
132	0x3d694127	0.0569469
133	0x3dcd8a6b	0.10036167
134	0x3e315462	0.17317346
135	0xbed683fe	-0.41897577
136	0x3e839d87	0.2570612
137	0x3e4a4d93	0.19756155
138	0x3e7e048d	0.24806423
139	0xbd739ebb	-0.05947755
140	0x3db96fe2	0.09054543
141	0xbd5500b7	-0.052002635
142	0x3e32dfac	0.17468137
143	0xbddee272	-0.10883035
144	0xbe254d6c	-0.16142815
145	0xbdb72be1	-0.08943916
146	0x3e23b2c9	0.1598617
147	0x3c2fb43e	0.010724125
148	0xbef9baf7	-0.48775455
149	0xbac1f360	-0.0014797263
150	0xbe6713cf	-0.2256615
151	0x3cb048c1	0.021519067
152	0x3e0f6766	0.14004287
153	0xbd8d221c	-0.068912715
154	0xbcfb4b39	-0.030675517
155	0xbc9ba046	-0.018997323
156	0xbe03bcb2	-0.1286495
157	0xbc784c5d	-0.015154925
158	0x3ec2dedb	0.3806065
159	0xbe9c58a9	-0.30536392
160	0xbd601df2	-0.054716058
161	0x3e7290f4	0.23688108
162	0xbedf8a9e	-0.43660444
163	0xbe49d807	-0.19711314
164	0x3e201e2f	0.15636514
165	0x3dea23ba	0.114325956
166	0xbe9e75b3	-0.30949172
167	0x3df1a8ce	0.11799775
168	0x3d58040e	0.05273824
169	0xbe0d56f0	-0.13802695
170	0x3dcff58a	0.10154255
171	0x3d9c0834	0.07618752
172	0x3e4efc9c	0.2021355
173	0x3d0efb6d	0.034907747
174	0x3c7ac8d0	0.0153066665
175	0x3dc40225	0.095707215
176	0xbead023e	-0.33790773
177	0x3e59a82b	0.21255557
178	0x3dc3a976	0.095538065
179	0x3bdb7ad8	0.0066979937
180	0xbe341583	-0.17586331
181	0xbd942f2c	-0.0723556
182	0x3dfe6696	0.124219105
183	0x3ed1bdfc	0.4096526
184	0xbe80f153	-0.25184116
185	0x3e18709e	0.1488671
186	0x3edae79f	0.42754838
187	0xbc68fd62	-0.014220567
188	0xbe46e9a0	-0.19425058
189	0x3e5050dc	0.20343345
190	0x3bf36b22	0.0074285427
191	0x3d9db7c9	0.0770107
192	0xbe041365	-0.12898023
193	0xbd1513e3	-0.03639592
194	0x3e3064b6	0.17225918
195	0x3df88adf	0.121358626
196	0xbe19f809	-0.15036024
197	0xbeab58aa	-0.33466083
198	0x3e89149c	0.26773536
199	0xbd3126c0	-0.043249846
200	0xbe653748	-0.2238437
201	0x3e005dff	0.12535857
202	0x3de5db58	0.11223477
203	0xbda2b555	-0.079447426
204	0xbe26b392	-0.16279438
205	0x3d2197f4	0.039451554
206	0xbd09a760	-0.033606887
207	0x3e328325	0.1743284
208	0x3d870c0e	0.06594096
209	0x3e510256	0.20411047
210	0x3e6f0dea	0.23345152
211	0x3e63fca3	0.22264342
212	0x3e445456	0.19172797
213	0xbeb320ea	-0.3498605
214	0x3cc5fa7a	0.024167288
215	0x3e90e52f	0.28299853
216	0xbe93f396	-0.2889678
217	0xbee419de	-0.44550985
218	0xbd873eab	-0.0660375
219	0x3c265eb8	0.010154419
220	0xbe063205	-0.13105018
221	0xbe44a830	-0.19204783
222	0xbca8c868	-0.020603374
223	0xbe8cb637	-0.2748277
224	0x3ddeb0eb	0.10873588
225	0x3e6190f4	0.22027951
226	0xbe0beeb8	-0.13665283
227	0xbc3cef11	-0.011531607
228	0xbd0a66c0	-0.033789396
229	0xbdfd344f	-0.12363493
230	0xbed23121	-0.41053107
231	0xbda5226d	-0.08063207
232	0x3e74347d	0.23848148
233	0xbd925155	-0.07144419
234	0x3e45d47a	0.19319335
235	0x3e2bcf5a	0.16778317
236	0x3b1f7246	0.0024329587
237	0x3db2dd81	0.08733655
238	0xbd0f2e60	-0.034956336
239	0xbd29be5a	-0.0414413
240	0x3e0dcf26	0.13848552
241	0x3dcb2a4e	0.09920178
242	0x3e972f4a	0.29528266
243	0xbe125e8e	-0.14293882
244	0x3c0aa6fb	0.008462663
245	0xbd8479fd	-0.0646858
246	0xbd97ef42	-0.07418682
247	0x3e07ab97	0.1324905
248	0xbec6656d	-0.38749257
249	0xbde46a27	-0.111530595
250	0x3d1ce879	0.03830764
251	0x3d5d8b80	0.054088116
252	0xbc9ca325	-0.019120762
253	0x3e23e0a7	0.16003667
254	0xbc2735da	-0.01020571
255	0x3cf0d87a	0.0294001

net.4.bias f4 [3]
0	0x3d921dae	0.07134567
1	0xbd25c32c	-0.040469334
2	0xbd7b6a00	-0.061380386
