stock_label3_model.pth (torch, 91446 bytes, 6 tensors)

net.0.weight f4 [128, 29]
-0.020453785 0.04439515 0.1172511 0.013428764 -0.059448067 -0.090040684 -0.09907997 -0.046733174
0.04444484 -0.051668912 0.012826487 -0.13881129 -0.27403075 0.023259662 0.07608535 0.12143317
0.07019745 0.08272099 0.18000561 0.09958455 -0.032702 -0.043215565 0.007962687 0.19234942
-0.16443144 0.0043070987 -0.105363585 0.0606996 -0.14966215 -0.025960907 0.017277502 -0.17326446
-0.20633337 0.16852447 -0.03378826 0.15495943 0.102937505 0.21460691 -0.12561625 -0.18264839
-0.11581216 -0.09635731 0.15199675 0.016382176 0.067745924 -0.012395081 -0.12616087 0.17382644
-0.047447935 0.05860733 -0.010934932 0.0083793495 0.23052463 0.36178774 -0.11040945 -0.27086845
-0.02801898 -0.17868827 -0.060811333 0.05562258 0.0102847945 -0.12540747 0.11194775 0.059418578
-0.085508436 0.00069264486 -0.20722024 0.11910838 -0.08858689 -0.10323254 -0.10056874 0.051971305
0.10732915 0.3041433 -0.04441573 0.07304878 -0.2358059 0.031169426 -0.045221437 0.14278118
0.24646063 0.15346529 -0.23693478 -0.24445441 -0.32317463 -0.0691762 0.2539599 -0.20362417
0.030408578 -0.12209161 0.13139597 0.102192774 0.33332586 -0.10188436 0.045677584 0.13068606
-0.053606104 0.15518717 0.13748229 -0.13505545 -0.2594116 -0.20688564 0.17233616 0.19154672
0.15396781 -0.053716473 -0.075555936 0.059229873 0.05551153 0.16307773 -0.19816159 0.10924383
0.25746238 0.046675324 0.12390414 0.5648456 0.17528228 0.033753913 0.05398921 0.0079243975
0.0856149 -0.55118704 -0.23339278 0.030958641 -0.081364155 -0.052845012 0.017777847 0.22739504
0.08188837 0.0076224813 0.18099505 -0.006806577 0.15276337 -0.09747634 -0.0021117262 0.03983814
-0.042849835 -0.12895659 0.14249445 -0.23362866 -0.3493193 0.18970512 -0.12618087 -0.02563726
0.02515074 -0.13476206 -0.08736063 0.12654588 0.08240439 -0.09683848 -0.015156351 -0.09719956
-0.18169403 -0.41113472 0.07648435 -0.032348797 -0.067874864 0.29662544 0.25463355 0.1823971
0.017401211 0.07718364 -0.030895285 -0.18276615 0.024492716 0.04368775 0.036798786 -0.13684277
0.4389446 0.27256787 -0.19800475 -0.13296473 -0.0062470194 -0.15097672 0.09403834 -0.054222975
0.08419593 0.014593062 0.19628228 0.07192253 0.051580593 0.036375202 -0.3622516 -0.03631212
0.23734547 -0.050739497 0.12694827 -0.1062404 0.061729334 -0.04180448 0.08732197 -0.039956544
0.04948785 0.07655454 0.10871176 0.0242167 0.12938066 -0.08141205 -0.16633764 0.29366988
0.35094568 0.030005239 0.10808227 -0.21616091 -0.12861064 -0.010357402 -0.16567099 -0.035264473
0.27096018 -0.04992553 -0.25609574 0.11090277 -0.2285908 -0.09133743 0.09274874 -0.1864972
-0.049351916 0.038068514 -0.10725168 -0.3370648 -0.02224151 -0.17289734 0.018788487 -0.26155818
-0.32229662 0.6173925 0.110374756 -0.19798483 -0.032842614 0.12601998 -0.008325375 0.11314818
0.18242665 0.1448643 0.05114848 -0.101686925 -0.20037916 -0.14410008 0.07226724 0.029467948
-0.070193246 0.060422245 0.085570425 0.24103089 0.05493046 0.26762706 0.14208457 -0.18457797
-0.0857068 0.15648459 0.012161598 -0.15669258 -0.08497057 0.06531911 -0.19975387 -0.06169089
00000000: b28e a7bc b0d7 353d 5821 f03d 5204 5c3c
00000010: d17f 73bd 4067 b8bd 70ea cabd 496b 3fbd
00000020: cb0b 363d c8a2 53bd 3026 523c 8c24 0ebe
00000030: c24d 8cbe 0c8b be3c a3d2 9b3d f4b1 f83d
00000040: aec3 8f3d 9f69 a93d 6453 383e fcf2 cb3d
00000050: 88f2 05bd ce02 31bd ee75 023c 3ff7 443e
00000060: b760 28be 9022 8d3b ddc8 d7bd 25a0 783d
00000070: 0941 19be f8ab d4bc 8c89 8d3c 3d6c 31be
00000080: 0e49 53be ae91 2c3e 8f65 0abd afad 1e3e
00000090: e6d0 d23d eac1 5b3e 8ca1 00be 2e08 3bbe
000000a0: ed2e edbd fb56 c5bd 09a5 1b3e ea33 863c
000000b0: 60be 8a3d bd14 4bbc 5130 01be 8fff 313e
000000c0: c458 42bd 3d0e 703d 6e28 33bc 8a49 093c
000000d0: a60e 6c3e 3e3c b93e 5a1e e2bd 45af 8abe
000000e0: 0f88 e5bc 0ffa 36be 4e15 79bd 81d4 633d
000000f0: 8e81 283c d16a 00be dd44 e53d e560 733d
00000100: 0c1f afbd 9c92 353a 8b31 54be 18ef f33d
00000110: 0b6d b5bd 956b d3bd fcf6 cdbd dddf 543d
00000120: 63cf db3d acb8 9b3e 45ed 35bd 999a 953d
00000130: 1a77 71be 0657 ff3c 1d3a 39bd 3b35 123e
00000140: 2d60 7c3e 0126 1d3e 089f 72be 4252 7abe
00000150: 2577 a5be 40ac 8dbd 0807 823e db82 50be
00000160: 691b f93c 2b0b fabd aa8c 063e 724a d13d
00000170: b0a9 aa3e bfa8 d0bd 6b18 3b3d 91d2 053e
00000180: 1392 5bbd 63e9 1e3e 28c8 0c3e fa4b 0abe
00000190: 99d1 84be d4d9 53be e478 303e d324 443e
000001a0: bda9 1d3e ce05 5cbd 12bd 9abd 069b 723d
000001b0: 0f60 633d d9fd 263e dfea 4abe 3bbb df3d
000001c0: 1cd2 833e a02e 3f3d 74c1 fd3d b999 103f
000001d0: 337d 333e 8b41 0a3d ca23 5d3d 55d5 013c
000001e0: dd56 af3d 981a 0dbf 84fe 6ebe fa9c fd3c
000001f0: 40a2 a6bd 0374 58bd d9a2 913c 3fda 683e
00000200: 17b5 a73d 02c6 f93b c456 393e b509 dfbb
00000210: 006e 1c3e ada1 c7bd e364 0abb 512d 233d
00000220: 4f83 2fbd 320d 04be 11ea 113e 5a3c 6fbe
00000230: fbd9 b2be 0f42 423e 8f35 01be 3b05 d2bc
00000240: ed08 ce3c 11ff 09be 21ea b2bd 3e95 013e
00000250: a2c3 a83d 4153 c6bd 5852 78bc 9010 c7bd
00000260: 000e 3abe 4080 d2be d4a3 9c3d 2c80 04bd
00000270: fa01 8bbd 4adf 973e 545f 823e 4ec6 3a3e
00000280: fc8c 8e3c 7512 9e3d 1c18 fdbc 0d27 3bbe
00000290: f3a4 c83c edf1 323d 53ba 163d 8320 0cbe
000002a0: 59bd e03e 048e 8b3e c2c1 4abe e827 08be
000002b0: ccb3 ccbb a499 1abe 2c97 c03d e918 5ebd
000002c0: ea6e ac3d bd17 6f3c 39fe 483e 1f4c 933d
000002d0: 2c46 533d 2afe 143d 0b79 b9be 04bc 14bd
000002e0: b10a 733e 38d4 4fbd bafe 013e 9194 d9bd
000002f0: e6d7 7c3d 2d3b 2bbd dcd5 b23d 79a9 23bd
00000300: c6b3 4a3d a0c8 9c3d 45a4 de3d 1a62 c63c
00000310: 5d7c 043e 5cbb a6bd 6a54 2abe e65b 963e
00000320: 27af b33e 8ccd f53c 3d5a dd3d 4959 5dbe
00000330: 82b2 03be 18b2 29bc a8a5 29be 7b71 10bd
00000340: 4bbb 8a3e b67e 4cbd fb1e 83be fe20 e33d
00000350: b513 6abe 1e0f bbbd 0df3 bd3d 1ff9 3ebe
00000360: 3c25 4abd bbed 1b3d c5a6 dbbd c293 acbe
00000370: d433 b6bc 000c 31be 50ea 993c f4ea 85be
00000380: 1004 a5be 6f0d 1e3f 290c e23d 89bc 4abe
00000390: fa85 06bd 620b 013e 2767 08bc 3cba e73d
000003a0: 0dce 3a3e 4f57 143e 1281 513d 3c41 d0bd
000003b0: 3230 4dbe f98e 13be d900 943d c466 f13c
000003c0: 7ac1 8fbd 517d 773d 8c3f af3d cdd0 763e
000003d0: c3fe 603d 6a06 893e 9e7e 113e 0202 3dbe
000003e0: 0c87 afbd 7f3d 203e 7041 473c 0574 20be
000003f0: 0d05 aebd 07c6 853d 478c 4cbe 96af 7cbd

net.0.bias f4 [128]
0.20723131 -0.10147783 -0.0064934744 -0.010520106 -0.10512131 -0.40589133 -0.6379854 -0.24935067
0.2957087 -0.18554167 -0.398415 -0.32553416 0.047148425 -0.53242517 -0.16560209 -0.5494069
0.07353692 0.010185303 -0.19207737 -0.390778 -0.16271159 0.023626888 -0.28164467 -0.24056591
0.07394521 -0.1430711 -0.42572674 -0.39939186 -0.015783925 0.1375423 -0.20021005 -0.41743338
-0.22893775 -0.23298088 -0.48044705 0.01286214 -0.16901341 0.20688169 -0.39321938 -0.27384397
-0.22680041 -0.024562081 -0.2400171 -0.24235043 -0.20980547 0.07019799 -0.23348412 -0.30766183
-0.18673085 -0.0014884997 0.11812169 -0.33522084 -0.12111477 -0.12978964 -0.32630992 0.1138349
-0.16739888 -0.6676485 -0.041492596 0.08752416 0.02065602 0.08506656 -0.16415563 0.09423175
-0.09576196 -0.13391761 0.068708785 0.23256813 -0.1943579 -0.21400513 -0.36105075 -0.08063549
-0.39096054 -0.10461229 -0.1385746 0.16262357 -0.31609744 -0.20600785 -0.3481291 -0.38741702
0.02132238 -0.07679332 -0.40403244 -0.1365964 0.2525738 -0.5673231 -0.11125178 -0.3753185
-0.066223465 -0.17240395 0.180442 0.18956557 -0.49375832 0.04419408 -0.26849884 -0.35784155
-0.0052728346 0.0452142 0.14931966 -0.028591204 -0.12978841 0.13478737 -0.03577697 -0.33688068
-0.22995755 -0.05807369 -0.54696363 0.17857791 -0.44349077 0.13902488 -0.44694307 0.092209876
0.048722774 -0.15063457 -0.11595867 -0.1801612 -0.19208093 0.21827164 -0.41382092 -0.4312343
-0.23947106 -0.04954891 0.05488934 0.12449925 -0.1433227 -0.3792169 0.15863387 -0.27995467
00000000: 7234 543e 9cd3 cfbd 36c7 d4bb 865c 2cbc
00000010: d749 d7bd fdd0 cfbe 0353 23bf c855 7fbe
00000020: 2167 973e a3fe 3dbe 0dfd cbbe 6aac a6be
00000030: b51e 413d 044d 08bf 9893 29be eea5 0cbf
00000040: 869a 963d 42e0 263c eeaf 44be 0e14 c8be
00000050: de9d 26be 2d8d c13c bb33 90be e956 76be
00000060: 9670 973d 3b81 12be dbf8 d9be 177d ccbe
00000070: 4a4d 81bc e4d7 0c3e dd03 4dbe d4b9 d5be
00000080: a86e 6abe 8a92 6ebe 28fd f5be babb 523c
00000090: da11 2dbe cbd8 533e 0d54 c9be 4735 8cbe
000000a0: 5e3e 68be 6b36 c9bc 0bc7 75be b62a 78be
000000b0: 3fd7 56be f7c3 8f3d 7616 6fbe da85 9dbe
000000c0: 5f36 3fbe c319 c3ba c9e9 f13d 11a2 abbe
000000d0: 050b f8bd 93e7 04be 1812 a7be 4622 e93d
000000e0: 9d6a 2bbe 03eb 2abf 24f4 29bd de3f b33d
000000f0: d036 a93c 6037 ae3d 6a18 28be 93fc c03d
00000100: d91e c4bd b321 09be 31b7 8c3d 5726 6e3e
00000110: c205 47be 2924 5bbe a5db b8be 3824 a5bd
00000120: fb2b c8be f83e d6bd 80e6 0dbe cb86 263e
00000130: 86d7 a1be b9f3 52be fa3d b2be 865b c6be
00000140: 46ac ae3c d145 9dbd 57dd cebe eddf 0bbe
00000150: 5a51 813e 163c 11bf f9d7 e3bd bf29 c0be
00000160: 2ba0 87bd a98a 30be cac5 383e 7a1d 423e
00000170: e4cd fcbe da04 353d ae78 89be 0237 b7be
00000180: bec7 acbb 8632 393d 41e7 183e 1a38 eabc
00000190: 41e7 04be b305 0a3e df8a 12bd a07b acbe
000001a0: fe79 6bbe adde 6dbd cf05 0cbf 21dd 363e
000001b0: 3911 e3be 8a5c 0e3e b9d5 e4be 88d8 bc3d
000001c0: 8891 473d f33f 1abe bd7b edbd 2d7c 38be
000001d0: ddb0 44be 9a82 5f3e 56e0 d3be beca dcbe
000001e0: e737 75be ccf3 4abd a5d3 603d 76f9 fe3d
000001f0: 30c3 12be b828 c2be eb70 223e 3856 8fbe

net.2.weight f4 [128, 128]
-0.42967695 -0.1882844 0.042386275 0.05173762 -0.15437691 0.08124342 0.28818494 -0.18958612
-0.03968687 0.26350093 0.037856173 -0.06721762 0.03749922 0.070430905 0.06392123 -0.07364807
0.0105596045 -0.26775044 0.23673046 0.18683425 -0.030422378 -0.18197432 0.14179695 -0.07319781
-0.12992999 -0.08434349 -0.29409504 -0.020703359 0.17706186 -0.05751002 0.051471327 -0.43996155
0.060127687 -0.24955276 0.010834977 0.028401883 -0.065818846 -0.025229247 -0.11968687 0.08690234
-0.09497575 0.022419188 -0.5483531 -0.044506222 -0.04113164 0.009634318 -0.29383144 -0.22007297
0.11671846 0.14978321 -0.06368071 -0.27499753 -0.2730849 -0.28061074 -0.1071644 -0.12830867
0.1848597 0.25253683 0.060751993 -0.22696052 0.19865894 -0.09893829 -0.0073482706 0.04922274
-0.3720435 -0.16600789 -0.054886326 -0.013797739 0.29380718 -0.048347503 -0.17284462 0.03008721
0.12964739 -0.26893342 -0.001324543 -0.03907395 0.060979694 -0.16202421 0.03596379 -0.067880824
0.0013856117 0.014929294 -0.3791132 0.1312702 -0.020153616 0.17738387 -0.04638294 0.0072019347
0.11457078 0.04880178 -0.037718415 0.026497832 -0.07844494 0.024089474 -0.1729523 0.05145241
-0.07222117 -0.08767477 0.086793646 -0.060495447 -0.06948324 0.03485587 0.13854088 -0.26014847
-0.15577573 -0.11615351 0.055586495 0.054198716 -0.039199013 0.1162524 0.1232749 0.22767758
-0.018395742 -0.3989861 -0.19374289 0.072777085 -0.5547477 -0.108802944 -0.19350758 -0.07816525
-0.25465623 -0.035152383 0.16195783 0.06719117 0.07441668 -0.31074005 -0.0340628 0.13363707
0.05857009 -0.061696142 0.10898349 0.069831 -0.04582647 0.010765728 0.038412724 -0.38713178
-0.15350164 0.09543046 0.15095782 -0.12257048 0.08456508 0.1451941 -0.07596662 -0.11799414
-0.12614718 0.14115167 0.1576848 0.13785218 -0.036091045 0.15326744 0.06907248 -0.003298269
-0.12711316 0.22856686 -0.041359786 -0.05662373 0.058679394 -0.020979077 -0.072822616 -0.19896698
0.09006099 -0.08432366 0.10361841 -0.05886114 0.10928466 0.09035245 -0.18626796 -0.018551648
0.071069606 0.05810682 0.009721538 0.0989007 0.0067829434 0.13049868 -0.035191033 -0.09252328
-0.3651773 -0.08770708 0.029919831 -0.3092308 -0.20543213 -0.08139124 -0.17375621 0.12675883
-0.053972974 -0.0991975 0.0064742407 0.104002945 0.06154726 0.18111546 -0.16329664 0.076167956
-0.19042914 0.033291113 -0.17562574 0.04166915 -0.031902507 -0.0030377232 0.1479518 -0.30484396
0.24537005 0.1293195 -0.120649226 -0.1461479 0.11145303 0.18614519 -0.06014216 -0.024012087
-0.04540476 0.039152917 0.10704309 -0.0845892 -0.05231661 -0.251716 -0.057509523 -0.085227154
0.10054548 -0.3269911 -0.013147059 0.091583855 -0.21790834 0.0013495918 -0.21601948 -0.057843093
-0.05549743 -0.24325667 0.08842622 0.05035245 -0.106311545 -0.19822322 0.058162417 -0.21270132
0.067706145 -0.06567356 -0.0052387775 0.08167236 -0.26443425 -0.25031668 -0.3238602 0.08370643
-0.045757063 0.09300479 -0.00073444715 -0.08862904 -0.2206474 0.07310231 -0.28797117 -0.17783754
-0.07401362 -0.045278348 -0.11603142 0.0135765 0.19361149 -0.041225534 0.027291033 -0.02426021
00000000: 9efe dbbe a0cd 40be 3b9d 2d3d d4ea 533d
00000010: fb14 1ebe f362 a63d fa8c 933e dd22 42be
00000020: b38e 22bd 98e9 863e 130f 1b3d 64a9 89bd
00000030: c898 193d 143e 903d 22e9 823d cdd4 96bd
00000040: 3102 2d3c 9616 89be 7869 723e 7a51 3f3e
00000050: 5a38 f9bc 7a57 3abe 3833 113e bce8 95bd
00000060: 5e0c 05be 48bc acbd a093 96be 179a a9bc
00000070: b44f 353e a08f 6bbd 99d3 523d a442 e1be
00000080: 7348 763d c28a 7fbe 3085 313c 11ab e83c
00000090: 08cc 86bd 91ad cebc 641e f5bd dbf9 b13d
000000a0: a582 c2bd 72a8 b73c de60 0cbf 284c 36bd
000000b0: a779 28bd 42d9 1d3c 1371 96be cf5a 61be
000000c0: 170a ef3d c560 193e 086b 82bd 7acc 8cbe
000000d0: c9d1 8bbe 36ac 8fbe 0279 dbbd 5963 03be
000000e0: dc4b 3d3e 824c 813e 15d7 783d 5768 68be
000000f0: 406d 4b3e 28a0 cabd c3c9 f0bb c99d 493d
00000100: 7c7c bebe f9fd 29be 7cd0 60bd e90f 62bc
00000110: e56d 963e 0808 46bd 2efe 30be 7479 f63c
00000120: 49c2 043e a4b1 89be 4a9c adba 020c 20bd
00000130: d8c5 793d ade9 25be c44e 133d 1a05 8bbd
00000140: 6a9d b53a ff99 743c 201b c2be b26b 063e
00000150: 3219 a5bc 1ea4 353e 0afc 3dbd 35fe eb3b
00000160: 16a4 ea3d 60e4 473d a07e 1abd fb11 d93c
00000170: bea7 a0bd 4a57 c53c 681a 31be c3bf 523d
00000180: b1e8 93bd d48e b3bd dec0 b13d 13ca 77bd
00000190: 3b4d 8ebd 07c5 0e3d a9dd 0d3e 2e32 85be
000001a0: ac83 1fbe e4e1 edbd aaae 633d 79ff 5d3d
000001b0: 258f 20bd bd15 ee3d 8d77 fc3d 5024 693e
000001c0: abb2 96bc e847 ccbe 8964 46be 270c 953d
000001d0: f203 0ebf 14d4 debd da26 46be 1a15 a0bd
000001e0: 4d62 82be f2fb 0fbd 46d8 253e 869b 893d
000001f0: c667 983d 5219 9fbe 6f85 0bbd 28d8 083e
00000200: 31e7 6f3d 18b5 7cbd bc32 df3d 8e03 8f3d
00000210: 89b4 3bbd bc62 303c a956 1d3d 2336 c6be
00000220: 892f 1dbe 0c71 c33d b094 1a3e 3b06 fbbd
00000230: 7530 ad3d c3ad 143e 6394 9bbd e9a6 f1bd
00000240: ba2c 01be 108a 103e 2078 213e 1f29 0d3e
00000250: 34d4 13bd 24f2 1c3e df75 8d3d c527 58bb
00000260: f429 02be 6e0d 6a3e e168 29bd 49ee 67bd
00000270: ce59 703d 50dc abbc 0624 95bd 00be 4bbe
00000280: e571 b83d e2b1 acbd e435 d43d 6118 71bd
00000290: a3d0 df3d b50a b93d 07bd 3ebe a0f9 97bc
000002a0: f18c 913d 6b01 6e3d 1647 1f3c 738c ca3d
000002b0: 7443 de3b 72a1 053e 7924 10bd d87c bdbd
000002c0: 85f8 babe c59f b3bd 6f1a f53c 8053 9ebe
000002d0: cd5c 52be 73b0 a6bd 26ed 31be 11cd 013e
000002e0: c412 5dbd 0f28 cbbd de25 d43b 7fff d43d
000002f0: fb18 7c3d 5576 393e 3c37 27be f2fd 9b3d
00000300: dbff 42be 435c 083d 3cd7 33be 45ad 2a3d
00000310: 34ac 02bd 8a14 47bb ad80 173e 8214 9cbe
00000320: 4942 7b3e 556c 043e f116 f7bd cca7 15be
00000330: 7c41 e43d d89c 3e3e a057 76bd ffb4 c4bc
00000340: 57fa 39bd cf5e 203d 6839 db3d 1a3d adbd
00000350: f149 56bd ebe0 80be 1b8f 6bbd 938b aebd
00000360: caea cd3d 616b a7be c366 57bc 5190 bb3d
00000370: 5d23 5fbe c9e4 b03a 3634 5dbe e1ec 6cbd
00000380: 4651 63bd 4718 79be ce18 b53d 5f3e 4e3d
00000390: deb9 d9bd 07fb 4abe b73b 6e3d 60ce 59be
000003a0: 85a9 8a3d dc7f 86bd 0daa abbb d743 a73d
000003b0: ed63 87be 8229 80be 01d1 a5be 476e ab3d
000003c0: c26b 3bbd 4c79 be3d ea87 40ba 2483 b5bd
000003d0: 64f1 61be aab6 953d f570 93be 0b1b 36be
000003e0: 7494 97bd ca75 39bd e2a1 edbd f86f 5e3c
000003f0: 1742 463e 1bdc 28bd 7291 df3c 59bd c6bc

net.2.bias f4 [128]
0.035170123 -0.026177794 -0.039001957 -0.16639687 -0.1865287 0.14491698 -0.0058143507 -0.06813106
0.099926755 -0.44904962 -0.044867408 0.16913344 -0.20314671 0.038749855 0.06939041 0.12307366
0.018221287 0.18558364 -0.22350046 -0.092601866 0.15341918 0.07825256 -0.0628599 -0.058993835
0.1420855 -0.27227545 -0.09609219 0.24318829 -0.028881274 0.13042748 0.019194998 0.00020880184
0.17787638 0.13089432 0.24214754 -0.032859832 0.14591818 0.23511411 -0.31859902 -0.013172468
0.01304294 0.14065379 -0.0071010957 0.18578026 0.18548232 0.031085238 0.18339218 0.20210628
0.15098666 -0.08817763 0.17089324 0.1571077 -0.03031388 -0.025717981 0.18623832 -0.047115047
0.13838221 0.00017935422 0.052302632 0.031079581 -0.2263254 -0.10435756 0.05080409 -0.24569288
0.22565295 0.09111686 0.232184 -0.046422537 0.025171997 0.03399231 -0.17286086 0.0758924
-0.056517895 -0.067252815 0.0132673 0.15564366 0.04995858 0.0022595695 0.076453276 -0.1026391
0.2942852 0.043050315 0.09213375 -0.06702815 0.25712815 0.13067397 0.07126297 -0.24937105
0.07569611 0.14917336 -0.022997146 -0.0074491207 -0.111371286 0.2052412 -0.16058066 -0.16886702
0.014080249 0.15858133 -0.18001285 -0.20884256 0.11369751 0.010671502 0.17353134 -0.06939056
0.09297206 0.049731024 -0.058756873 -0.11488897 0.009452616 -0.06335299 -0.089355186 0.14651437
-0.11773115 0.21886657 0.01110282 0.045643173 0.23531152 -0.08392269 -0.05776915 0.07282998
0.11759389 0.049104698 -0.017231764 0.20842075 0.012071789 -0.0974781 0.14865756 -0.023730304
00000000: 8c0e 103d d072 d6bc 84c0 1fbd f163 2abe
00000010: 6101 3fbe 1e65 143e 4f86 bebb 4c88 8bbd
00000020: 66a6 cc3d d5e9 e5be e3c6 37bd 5131 2d3e
00000030: b105 50be 2bb8 1e3d 8f1c 8e3d 0b0e fc3d
00000040: cf44 953c a309 3e3e 4edd 64be 0ca6 bdbd
00000050: eb19 1d3e e142 a03d b1bc 80bd 85a3 71bd
00000060: dc7e 113e b067 8bbe fbcb c4bd 5a06 793e
00000070: 6c98 ecbc c88e 053e d43e 9d3c d1f1 5a39
00000080: 3a25 363e 2909 063e 86f5 773e 0898 06bd
00000090: 936b 153e c1c1 703e 691f a3be 56d1 57bc
000000a0: 0eb2 553c 8c07 103e 4fb0 e8bb 2e3d 3e3e
000000b0: 14ef 3d3e 78a6 fe3c 29cb 3b3e f3f4 4e3e
000000c0: 3f9c 1a3e 7996 b4bd a3fe 2e3e d7e0 203e
000000d0: d054 f8bc 84ae d2bc 42b5 3e3e b5fb 40bd
000000e0: 11b4 0d3e 0811 3c39 493b 563d 9b9a fe3c
000000f0: d8c1 67be 6bb9 d5bd f317 503d ea96 7bbe
00000100: 9111 673e 7a9b ba3d a4c1 6d3e 8f25 3ebd
00000110: 8135 ce3c 853b 0b3d 7002 31be 7a6d 9b3d
00000120: 4f7f 67bd d8bb 89bd 175f 593c 0d61 1f3e
00000130: 5ea1 4c3d 4915 143b 8993 9c3d 7334 d2bd
00000140: 8dac 963e 8755 303d 9fb0 bc3d 0e46 89bd
00000150: 4da6 833e 66cf 053e 52f2 913d 205b 7fbe
00000160: 9006 9b3d e7c0 183e 8364 bcbc c117 f4bb
00000170: a116 e4bd c02a 523e 426f 24be 7aeb 2cbe
00000180: d8b0 663c 2563 223e 4a55 38be d3da 55be
00000190: 3dda e83d 86d7 2e3c 33b2 313e a31c 8ebd
000001a0: 2368 be3d c2b2 4b3d 0cab 70bd e94a ebbd
000001b0: 25df 1a3c 36bf 81bd daff b6bd dd07 163e
000001c0: 071d f1bd 8f1e 603e 9ae8 353c 56f4 3a3d
000001d0: 81f5 703e a9df abbd 589f 6cbd e227 953d
000001e0: 11d5 f03d 0222 493d a129 8dbc 406c 553e
000001f0: c1c8 453c 99a2 c7bd b039 183e 0e66 c2bc

net.4.weight f4 [3, 128]
-0.50788844 -0.17865579 0.32762888 0.24914195 -0.3987753 -0.188775 -0.14128903 0.10640299
0.2288958 0.3100335 -0.036907483 0.008000283 0.5371735 -0.031509083 0.26356855 0.0713261
0.0016289811 -0.02530466 0.13816254 -0.03022403 0.054530475 -0.18228582 -0.03492834 0.5082745
0.29278603 0.08761078 0.109615035 0.027244367 -0.30338743 -0.1659254 -0.3827064 0.06594653
0.050190266 -0.08058462 0.09057062 -0.26362514 0.15894839 0.12552065 0.30673262 0.05926625
-0.33468768 -0.14039224 0.039026618 -0.46802238 -0.20851994 -0.20395428 0.27728927 -0.14127111
-0.00042965382 -0.3878259 -0.0687527 0.043137122 -0.5868595 -0.16452289 -0.12385832 -0.054667164
0.36183468 -0.24012585 -0.020689707 0.0019736784 0.18853217 -0.032589752 -0.011110322 0.48283648
0.4509144 0.41325822 0.049212128 -0.38463506 -0.38520554 -0.04704905 -0.03894747 -0.14536782
-0.0837186 0.021571754 -0.15813234 -0.058532994 -0.1341993 0.055799942 -0.031917866 0.14532135
-0.008967638 0.047331825 -0.010901466 -0.3991019 -0.016394598 0.07263179 -0.08396852 0.31229004
-0.020187417 -0.34625182 0.51331383 -0.23209926 -0.028435709 -0.05904702 0.3148751 -0.51758385
0.037735183 0.005959119 -0.49198726 0.14534035 -0.135301 -0.28346977 -0.06595494 -0.0025570586
-0.175702 0.014725975 0.24698855 0.038942177 -0.50649315 -0.34204796 -0.0023637095 0.050261103
-0.005783035 0.040619798 -0.30655813 -0.37521526 0.023672527 -0.019069592 -0.03729815 -0.0581676
-0.25656855 0.014605173 0.042120036 -0.043412566 0.5907784 0.19384883 -0.025152879 -0.08659465
0.12157856 0.18846507 -0.16548742 -0.24859115 0.081964396 0.19098596 0.23986627 -0.45816636
0.009200981 -0.7835727 -0.07995269 0.04767328 -0.45029265 0.0020202796 -0.5534913 0.017800035
0.21012324 0.058444608 -0.23322025 -0.02643357 0.057559557 -0.001318023 -0.0029706054 -0.27601647
-0.022043409 0.13743 0.03711537 0.07676536 0.105353944 0.1710888 0.23955742 0.07175978
0.054785926 0.0015605703 0.22378653 0.3626805 0.12635891 0.092056096 -0.29802328 -0.31175593
0.06920739 0.117841884 -0.08104565 -0.2525413 0.13278483 0.05179192 0.07060299 0.10841976
0.0067190267 -0.101012334 -0.10830755 0.117415495 0.16449648 0.1482251 0.08972935 -0.065885715
-0.06980754 0.19145837 0.03298257 -0.045760784 0.14888445 -0.035330214 -0.01959523 -0.054970536
-0.4099354 -0.36114395 0.05924134 -0.24328712 -0.16277389 0.11535575 -0.16508088 0.058583144
-0.05682565 0.0117459735 0.121931866 0.088123985 -0.0548839 0.1757178 0.19469392 0.2136574
0.18790388 0.08815317 0.22907859 0.23188315 0.1399472 0.0667417 0.5205388 -0.2443495
0.041740768 0.12644322 -0.19338614 0.05472386 -0.033505343 0.063151196 -0.4709015 -0.12606195
-0.052812167 0.0336775 0.19653927 -0.38924342 0.024151267 0.14021452 0.053585116 -0.043040488
0.08850891 -0.069195546 0.111362845 -0.07025374 -0.3353007 0.307788 -0.006853622 0.003532075
-0.025821252 0.073505156 -0.00092354487 0.21034624 0.033237252 -0.04455007 -0.04115798 0.03567078
-0.77001196 0.06762319 -0.06295638 0.044955544 -0.31787717 -0.41313663 0.064994626 -0.04196291
00000000: fa04 02bf 8bf1 36be f9be a73e 111f 7f3e
00000010: 472c ccbe 3c4e 41be 12ae 10be d0e9 d93d
00000020: a963 6a3e b6bc 9e3e 4d2c 17bd 9e13 033c
00000030: 3484 093f ab0f 01bd 75f2 863e 6b13 923d
00000040: 8983 d53a b84b cfbc 7b7a 0d3e 6398 f7bc
00000050: 595b 5f3d 22a9 3abe 0511 0fbd 471e 023f
00000060: 0de8 953e 486d b33d d97d e03d 942f df3c
00000070: 9955 9bbe 59e8 29be 18f2 c3be f90e 873d
00000080: 4f94 4d3d 8d09 a5bd 177d b93d e0f9 86be
00000090: 5ec3 223e 7c88 003e 0f0c 9d3e 2bc1 723d
000000a0: 2f5c abbe fcc2 0fbe 60da 1f3d a1a0 efbe
000000b0: 4086 55be 64d9 50be dcf8 8d3e 60a9 10be
000000c0: 2943 e1b9 1e91 c6be 37ce 8cbd 8db0 303d
000000d0: 6d3c 16bf b078 28be 6ea9 fdbd adea 5fbd
000000e0: 6542 b93e 8de3 75be 767d a9bc d458 013b
000000f0: 940e 413e d57c 05bd 1108 36bc 5836 f73e
00000100: 41de e63e 9596 d33e a892 493d e3ee c4be
00000110: a939 c5be 81b6 40bd 6287 1fbd 4ddb 14be
00000120: a874 abbd 3fb7 b03c 72ed 21be 4bc0 6fbd
00000130: 8b6b 09be 7b8e 643d 4fbc 02bd 1fcf 143e
00000140: 00ed 12bc 04df 413d 109c 32bc 1657 ccbe
00000150: f74d 86bc fabf 943d b0f7 abbd 7be4 9f3e
00000160: 1560 a5bc eb47 b1be 8968 033f 6eab 6dbe
00000170: 01f2 e8bc 4adb 71bd 4f37 a13e 6080 04bf
00000180: 3590 1a3d b744 c33b c1e5 fbbe 1ad4 143e
00000190: 588c 0abe f322 91be 6213 87bd 5394 27bb
000001a0: 3aeb 33be 3745 713c 91ea 7c3e d581 1f3d
000001b0: 89a9 01bf e920 afbe 77e8 1abb 96de 4d3d
000001c0: 9d7f bdbb f260 263d 30f5 9cbe 371c c0be
000001d0: e3ec c13c d537 9cbc f2c5 18bd 2641 6ebd
000001e0: f45c 83be 894a 6f3c 0f86 2c3d 60d1 31bd
000001f0: 413d 173f 4f80 463e 690d cebc 8958 b1bd
00000200: 2efe f83d fdfc 403e 8975 29be ae8e 7ebe
00000210: f3dc a73d d391 433e 819f 753e c894 eabe
00000220: b6bf 163c 3898 48bf 3cbe a3bd 0f45 433d
00000230: c28c e6be ab66 043b 9bb1 0dbf 61d1 913c
00000240: 8c2a 573e 9d63 6f3d 4ad1 6ebe 378b d8bc
00000250: 92c3 6b3d 83c1 acba 7dae 42bb 0852 8dbe
00000260: 6194 b4bc 73ba 0c3e 4906 183d 2837 9d3d
00000270: cfc3 d73d e731 2f3e 8a4e 753e cbf6 923d
00000280: 3567 603d 0d8c cc3a 4c28 653e 42b1 b93e
00000290: 3b64 013e e887 bc3d 8296 98be 799e 9fbe
000002a0: 9bbc 8d3d 1657 f13d 43fb a5bd 184d 81be
000002b0: bff8 073e c423 543d 4d98 903d 2e0b de3d
000002c0: 482b dc3b 8edf cebd 59d0 ddbd 8977 f03d
000002d0: c471 283e 52c8 173e 05c4 b73d 17ef 86bd
000002e0: 41f7 8ebd aa0d 443e bb18 073d a96f 3bbd
000002f0: 2a75 183e 6ab6 10bd 2d86 a0bc c928 61bd
00000300: 0ee3 d1be dce7 b8be 0ca7 723d 4220 79be
00000310: 33ae 26be a33f ec3d f60a 29be e1f4 6f3d
00000320: 03c2 68bd 2f72 403c 6ab7 f93d 597a b43d
00000330: f1cd 60bd 5eef 333e d85d 473e 01c9 5a3e
00000340: e069 403e a689 b43d 9493 6a3e c772 6d3e
00000350: 524e 0f3e dfaf 883d 0842 053f c136 7abe
00000360: 5ef8 2a3d 557a 013e 0407 46be 2026 603d
00000370: e63c 09bd 6a55 813d 001a f1be 6216 01be
00000380: 9251 58bd 6bf1 093d 9741 493e ea4a c7be
00000390: e1d8 c53c 6594 0f3e 117c 5b3d 394b 30bd
000003a0: 2944 b53d 65b6 8dbd 3412 e43d 31e1 8fbd
000003b0: 89ac abbe 6496 9d3e 5994 e0bb 637a 673b
000003c0: 1787 d3bc df89 963d 0c1a 72ba 0165 573e
000003d0: c923 083d 227a 36bd 4595 28bd 861b 123d
000003e0: 811f 45bf 077e 8a3d 46ef 80bd 4e23 383d
000003f0: ccc0 a2be a586 d3be e71b 853d 4de1 2bbd

net.4.bias f4 [3]
-0.15714173 0.13456695 -0.19278733
00000000: c3e9 20be ebcb 093e 0b6a 45be
