stock_label7_model.pth (torch, 90934 bytes, 6 tensors)

net.0.weight f4 [128, 29]
0	0xbdee587b	-0.1163797
1	0x3d849081	0.064728744
2	0x3c5e38de	0.013563363
3	0xbdcd7369	-0.10031778
4	0x3e189ab9	0.14902772
5	0xbe39c8a4	-0.18142945
6	0xbe105d17	-0.14098011
7	0xbd0608e1	-0.03272331
8	0x3d503da5	0.05084004
9	0x3d96e29a	0.073674396
10	0xbe15dc00	-0.14634705
11	0x3e423401	0.1896515
12	0x3dcc11dd	0.09964345
13	0xbe3ae18e	-0.18250105
14	0x3e068c48	0.1313945
15	0xbddd2879	-0.10798735
16	0x3e43d3cc	0.19123763
17	0x3e1ee448	0.1551677
18	0x3dabdd3f	0.08391809
19	0x3de7cc8a	0.113183096
20	0x3e0f7016	0.14007601
21	0xbdc3b894	-0.0955669
22	0xbeb27ea0	-0.34862232
23	0xbd924f8d	-0.07144079
24	0x3ec3e988	0.38264108
25	0xbe51fe86	-0.20507249
26	0x3d50a1da	0.050935604
27	0xbd9b4ee9	-0.0758341
28	0x3bd769d6	0.006573896
29	0xbc00b711	-0.007856146
30	0xbd5dca13	-0.05414779
31	0x3d04df15	0.03243931
32	0x3dce349b	0.100686274
33	0x3e040c21	0.12895252
34	0x3b09fd6e	0.0021055597
35	0xbe7138dd	-0.23556848
36	0x3cb91cc3	0.022596722
37	0xbe770193	-0.24121694
38	0xbe1e204f	-0.15442012
39	0xbded2321	-0.11578966
40	0xbd6b86c0	-0.057501554
41	0x3e862813	0.2620245
42	0x3c2128e1	0.009836406
43	0xbd851692	-0.064984456
44	0x3ee547ac	0.44781244
45	0xbdab4381	-0.08362485
46	0xbd229595	-0.039693434
47	0x3b87f3dc	0.0041489433
48	0xbdd97f3f	-0.106199734
49	0xbd3812f3	-0.044939946
50	0xbd5f5484	-0.05452396
51	0xbf012439	-0.50445896
52	0xbee6ffd0	-0.45117044
53	0xbe7159f0	-0.23569465
54	0xbe369b65	-0.17832716
55	0x3dd89246	0.105747744
56	0xbc4a185c	-0.012334909
57	0x3e4fe1e2	0.20301011
58	0x3e16ba6e	0.14719555
59	0xbb4343ce	-0.0029795053
60	0x3dd5065d	0.10401604
61	0xbd1c24c0	-0.038120985
62	0xbe79b1ce	-0.24384233
63	0xbd64a9e7	-0.055826094
64	0x3bb52161	0.0055276607
65	0x3db7ca27	0.089741044
66	0x3de202d8	0.11035699
67	0x3e16586b	0.14682166
68	0xbe049096	-0.1294578
69	0xbe93f1f7	-0.28895542
70	0x3e1ce3f2	0.15321329
71	0xbe21ff66	-0.15820083
72	0xbdb716d6	-0.089399025
73	0xbd07db6c	-0.03316824
74	0xbe1ee3c2	-0.1551657
75	0x3d35124e	0.04420691
76	0xbd98e126	-0.07464819
77	0xbd250a1a	-0.040292837
78	0xbd117bf8	-0.035518616
79	0x3ddacb9c	0.10683367
80	0xbee59fd0	-0.4484849
81	0xbe075426	-0.13215694
82	0x3ca15064	0.019691654
83	0x3e423232	0.1896446
84	0x3d4c384f	0.049858388
85	0xbda5292b	-0.08064493
86	0x3e3cb899	0.18429793
87	0x3e16cbcf	0.14726184
88	0xbe0eed36	-0.13957676
89	0x3e22313d	0.15839095
90	0x3e1ecd5e	0.15508029
91	0x3e7c3d06	0.24632654
92	0xbdf0c127	-0.11755591
93	0x3e1f7c81	0.15574838
94	0x3e255f7c	0.16149706
95	0xbea19560	-0.31559277
96	0xbd8e9aa8	-0.06963092
97	0x3e52ceef	0.20586751
98	0xbe30af73	-0.17254429
99	0x3e571a35	0.21006091
100	0x3e8cc062	0.27490526
101	0xbdb8a3ad	-0.09015594
102	0xbf00d9bd	-0.5033224
103	0x3de2abb0	0.11067903
104	0xbda1a876	-0.078934595
105	0x3e28684c	0.16446036
106	0xbd953d8c	-0.0728713
107	0xbd99e8ad	-0.075150825
108	0x3db776e2	0.08958222
109	0x3e108a02	0.14115146
110	0xbdb91083	-0.090363525
111	0xbcf83d6c	-0.030302726
112	0xbea0602c	-0.31323373
113	0x3c54e989	0.012995132
114	0x3c9d76e5	0.019221732
115	0x3de8d2f4	0.11368361
116	0x3cea7400	0.028619766
117	0x3e519f9e	0.20471045
118	0x3db983b9	0.09058327
119	0x3da9da67	0.0829361
120	0x3d4e3852	0.05034668
121	0xbd7b7460	-0.06139028
122	0x3e6b0dae	0.22954437
123	0x3d1c691f	0.03818619
124	0x3e61a01e	0.22033736
125	0xbdec3119	-0.11532802
126	0xbe2eb171	-0.17059876
127	0xbe0c62a7	-0.13709508
128	0x3e54d6b1	0.20785023
129	0xbd82c832	-0.063858405
130	0xbdc91e87	-0.09820276
131	0x3d7fabbd	0.06241964
132	0x3e1ba214	0.15198547
133	0xbe11a2d6	-0.14222273
134	0xbe2ee4ef	-0.17079519
135	0x3d9a3a68	0.07530671
136	0xbdc3c728	-0.095594704
137	0x3e22df51	0.15905501
138	0xbe8a68bc	-0.2703303
139	0x3e96aab1	0.29427102
140	0x3eb26278	0.3484075
141	0xbe9bf30d	-0.3045887
142	0xbceef579	-0.029169785
143	0x3d8aed25	0.06783513
144	0xbde0a25b	-0.10968467
145	0xbdc84e09	-0.09780509
146	0xbd2a2804	-0.041542068
147	0xbcadfcc2	-0.021238688
148	0x3aa68def	0.0012707094
149	0xbd85d7c2	-0.06535293
150	0x3e3e43df	0.18580578
151	0x3e1345ce	0.14382097
152	0x3d4f3ab9	0.05059311
153	0xbdc7a65c	-0.097485274
154	0x3dc4e378	0.09613699
155	0xbe81eb0c	-0.2537464
156	0xbeb84aaa	-0.35994464
157	0xbc85e1b0	-0.016342968
158	0x3d3c3d7f	0.045957085
159	0x3e12e47e	0.14344975
160	0x3f01fbe5	0.50774986
161	0x3dc8732c	0.09787592
162	0x3d92455f	0.07142138
163	0x3eac0ac3	0.3360196
164	0xbd6e3fc6	-0.058166288
165	0xbdd8c9da	-0.10585375
166	0xbd9cd9d6	-0.076587364
167	0xbdd0e564	-0.10200003
168	0xbe890078	-0.2675817
169	0xbe954f9d	-0.29162303
170	0x3e1b503e	0.15167329
171	0x3e2f8dd4	0.17143947
172	0xbb946763	-0.004528926
173	0xbec4dcb1	-0.38449624
174	0x3d3d6c31	0.046245757
175	0x3c629bf3	0.0138311265
176	0xbd447a8d	-0.047968436
177	0xbdfdd515	-0.12394158
178	0xbeb7fee7	-0.35936663
179	0xbe5fc07a	-0.21850768
180	0xbe107f4e	-0.14111063
181	0xbe0750fc	-0.13214487
182	0x3e82cd20	0.25547123
183	0xbe4e1ba2	-0.20127729
184	0xbd97203d	-0.07379196
185	0xbe5b6d1d	-0.21428342
186	0x3e52d0fd	0.20587535
187	0xbc9a477b	-0.018832913
188	0x3e245f96	0.16052088
189	0xbdc4a889	-0.09602458
190	0xbe5b3f18	-0.21410787
191	0x3dc42502	0.09577371
192	0xbcc42081	-0.02394128
193	0x3abfef40	0.0014643446
194	0xbdb5bfb7	-0.08874457
195	0xbe4bded9	-0.19909228
196	0xbcb92af8	-0.022603497
197	0x3dfe1bd0	0.124076486
198	0xbe7be6c0	-0.24599743
199	0xbda0b950	-0.078478456
200	0x3de11e2f	0.10992085
201	0xbda3d78e	-0.08000098
202	0x3e5732ed	0.2101552
203	0x3dd80afd	0.10548971
204	0x3e4d542d	0.20051642
205	0xbdf57ed2	-0.1198708
206	0x3dc0e984	0.094195396
207	0xbd9c3af4	-0.07628432
208	0x3c85d7c8	0.016338244
209	0x3dfd2fcb	0.123626314
210	0x3e4b6fd3	0.19866876
211	0xbda9cfc6	-0.08291583
212	0xbcf7f9e5	-0.030270526
213	0xbbfcba1a	-0.0077126147
214	0x3dbe062b	0.0927852
215	0x3e7786c8	0.24172509
216	0x3e308c7a	0.17241088
217	0x3e8dcc35	0.2769486
218	0x3e60d615	0.21956666
219	0x3df79758	0.120894134
220	0xbda8cbf8	-0.08242029
221	0x3eeacdbe	0.45860094
222	0x3e43a569	0.19106068
223	0x3e167033	0.14691238
224	0xbe1bb126	-0.15204296
225	0xbe100e05	-0.14067848
226	0x3e165500	0.14680862
227	0x3e7d7b91	0.24754168
228	0xbe1f4fe0	-0.15557814
229	0xbd99f73e	-0.07517861
230	0xbd3c69ae	-0.04599922
231	0x3e7b58c3	0.24545579
232	0xbdc37869	-0.09544451
233	0xbe0d4a60	-0.13797903
234	0xbdd0291a	-0.101640895
235	0xbdca7242	-0.09885074
236	0x3b8ac4aa	0.00423487
237	0x3d317052	0.043320008
238	0xbc817c43	-0.015806323
239	0xbe5294b8	-0.20564544
240	0xbe38299b	-0.17984621
241	0xbcb64f66	-0.022254657
242	0x3e390d7f	0.18071555
243	0xbd62c29a	-0.055361368
244	0x3d4edcb5	0.05050345
245	0x3c842792	0.01613215
246	0x3df82374	0.12116137
247	0x3d4b639b	0.049655538
248	0xbdd9f474	-0.10642329
249	0xbd188850	-0.037239373
250	0x3d617dd7	0.05505165
251	0xbe5b7cbd	-0.21434303
252	0xbe7b2eeb	-0.24529617
253	0xbd6fe530	-0.05856818
254	0x3ead0dec	0.33799684
255	0x3c60b674	0.013715375

net.0.bias f4 [128]
0	0xbe8d72b4	-0.27626574
1	0xbe4a33d8	-0.1974634
2	0xb92ab7d8	-0.0001628095
3	0xbe8f5961	-0.27997878
4	0xbe7f62d6	-0.24940047
5	0xbe3c9a99	-0.1841835
6	0xbeb0f148	-0.34559083
7	0xbeb106dc	-0.34575546
8	0xbea46ddd	-0.3211507
9	0xbecc1e08	-0.39866662
10	0xbd95550b	-0.07291611
11	0xbc9c9819	-0.019115495
12	0xbedfe5c2	-0.4372998
13	0xbd3993cd	-0.04530697
14	0xbecae123	-0.3962489
15	0xbe3440a7	-0.17602788
16	0xbe143592	-0.1447356
17	0xbf019edb	-0.5063302
18	0xbe6a7dbe	-0.2289953
19	0xbcf34895	-0.029697696
20	0xbe9ba0d8	-0.30396152
21	0xbdb3a771	-0.08772171
22	0xbe8522e0	-0.2600317
23	0xbdfc94dd	-0.12333081
24	0xbe1ae890	-0.15127778
25	0xbe48fb93	-0.19627218
26	0xbe8721d9	-0.2639301
27	0x3d09e8b3	0.033669185
28	0xbda26e97	-0.079312496
29	0xbdbdedc2	-0.09273864
30	0xbd5eb33d	-0.054370154
31	0xbe133377	-0.14375101
32	0xbee871f0	-0.45399427
33	0x3e1ac706	0.15114984
34	0xbe161840	-0.14657688
35	0x3bb020cf	0.005375005
36	0xbd60be75	-0.054869134
37	0x3d1ee5d6	0.038793407
38	0xbdb72a31	-0.08943594
39	0xbe8e8a85	-0.27840057
40	0xbca6520c	-0.020302795
41	0xbe1ff9a5	-0.15622576
42	0xbe0f8846	-0.14016828
43	0x3dff21e1	0.12457634
44	0xbe9f28fe	-0.31085962
45	0xbde327b0	-0.11091554
46	0xbe7a19aa	-0.24423853
47	0xbee90eb2	-0.45519024
48	0xbe624b8e	-0.22099134
49	0xbd0c58c7	-0.034264352
50	0xbd94a21b	-0.07257482
51	0x3dc69f7d	0.09698389
52	0xbdb732d6	-0.08945243
53	0x3de0d2d3	0.109777115
54	0xbd936459	-0.07196874
55	0xbe4e1a3c	-0.20127195
56	0xbe34e457	-0.1766523
57	0xbdbc64f3	-0.09198942
58	0xbdca14f8	-0.09867281
59	0xbe0017c8	-0.12509072
60	0xbdb70802	-0.08937074
61	0xbdbaef5c	-0.091276854
62	0xbe820b7e	-0.25399393
63	0xbdeb915a	-0.11502333
64	0x3dc932c1	0.09824134
65	0xbe3be24f	-0.18348049
66	0xbd262be3	-0.040569197
67	0xbe17e29a	-0.14832535
68	0xbd6f5ca6	-0.058437966
69	0xbef362ec	-0.4753641
70	0x3e056daf	0.13030122
71	0x3b896917	0.004193436
72	0xbe1349a8	-0.14383566
73	0x3ddcc750	0.10780203
74	0xbe71b4cc	-0.23604125
75	0x3d5e8a21	0.05433095
76	0xba572707	-0.00082074146
77	0x3d3f414d	0.046693135
78	0x3d9f9cfb	0.077936135
79	0xbeccaa6e	-0.39973778
80	0xbdcba27a	-0.09943099
81	0xbea4e9a6	-0.3220951
82	0x3dcd4b81	0.10024167
83	0xbe56a9cc	-0.2096321
84	0xbe7dfffd	-0.24804683
85	0xbdc8569b	-0.09782144
86	0xbe2f404b	-0.1711437
87	0xbe825d7a	-0.25461942
88	0x3cb48340	0.022035241
89	0xbe85b707	-0.261162
90	0xbe7b4641	-0.24538518
91	0xbbaec6c8	-0.005333755
92	0xbdcfe7ca	-0.10151632
93	0xbeb19008	-0.346802
94	0xbe1ea78b	-0.154936
95	0xbe4e5e94	-0.20153266
96	0xbcfa0ca4	-0.030523606
97	0xbdc358e3	-0.09538438
98	0xbeec4cfb	-0.4615248
99	0xbd75efc5	-0.060043115
100	0xbe4f2a5a	-0.20231
101	0xbe596bf6	-0.2123259
102	0xbd204dc7	-0.039136674
103	0xbeb6660a	-0.35624725
104	0xbdc17d51	-0.0944773
105	0xbe0ec7e3	-0.13943438
106	0xbeb33d39	-0.35007647
107	0x3dc307e2	0.09522988
108	0xbe8f730b	-0.28017458
109	0xbe08aca5	-0.13347109
110	0xbdbbf8f3	-0.09178343
111	0xbf089cee	-0.53364456
112	0xbe9f644f	-0.31131217
113	0xbf096d49	-0.5368238
114	0xbedc764d	-0.43059006
115	0xbe4abdda	-0.19798985
116	0xbc414dc8	-0.01179833
117	0xbe49739b	-0.19673006
118	0x39b78c29	0.00035008907
119	0x3b0e0392	0.0021669609
120	0xbeb8d86e	-0.36102623
121	0xbe075a90	-0.1321814
122	0xbe93fc6c	-0.2890352
123	0xbd187fc8	-0.037231237
124	0xbb319c9f	-0.002710141
125	0xbccbc01b	-0.024871876
126	0x3c6e0f11	0.014529959
127	0xbdac2cec	-0.08407006

net.2.weight f4 [128, 128]
0	0xbd116d7a	-0.035504796
1	0x3cd08975	0.02545617
2	0x3d966a56	0.07344501
3	0xbc559e23	-0.013038191
4	0xbbb92008	-0.0056495704
5	0x3d7745d4	0.060369328
6	0xbd3914b0	-0.045185745
7	0xbcb15c42	-0.021650437
8	0xbc528acb	-0.012850474
9	0xbd11b24f	-0.03557044
10	0xbd1a0028	-0.037597805
11	0x3bb9b757	0.0056676078
12	0x3d282144	0.04104735
13	0x3d6c809d	0.057739843
14	0x3ccff94f	0.025387434
15	0x3caebe59	0.021331
16	0x3d22523a	0.0396292
17	0x3a7ee2ea	0.0009723144
18	0xbdb5f534	-0.088846594
19	0xbdb8e716	-0.09028451
20	0x3b94c57a	0.0045401426
21	0x3ceaebb7	0.02867685
22	0xbd9a853f	-0.07544946
23	0xbd073659	-0.033010814
24	0xbd5e27bb	-0.05423711
25	0xbd9f5a9e	-0.07780956
26	0xbcca61f6	-0.024704915
27	0x3d8849b8	0.06654686
28	0xbda85cb3	-0.08220806
29	0x3d69a856	0.057045303
30	0xbd871a72	-0.06596841
31	0xbd747c6d	-0.059688974
32	0x3cec245c	0.028825931
33	0xbd8712da	-0.065953925
34	0xbd3895a9	-0.045064602
35	0x3ca112e9	0.019662337
36	0x3c1c5fbb	0.009544308
37	0xbda6df7a	-0.081480935
38	0xbc9f5336	-0.019448858
39	0xbd9a999b	-0.07548829
40	0xbda4777e	-0.08030604
41	0xbc353a40	-0.011061251
42	0xbb4ac363	-0.0030939213
43	0xba48d8fa	-0.00076617266
44	0xbc851dfa	-0.016249646
45	0x3bcbfa64	0.0062249172
46	0x3d64c7ec	0.055854723
47	0xbd965c31	-0.07341803
48	0xbc876fa6	-0.01653273
49	0xbc7130c7	-0.014721102
50	0x3cc972bf	0.024590848
51	0xbdfa3202	-0.122165695
52	0xbb81e221	-0.0039637242
53	0xbdad90bd	-0.08474872
54	0xbdb373cd	-0.087623216
55	0xbd8791d2	-0.0661961
56	0xbdd40d0b	-0.1035405
57	0xbe08ada4	-0.13347489
58	0x3c033af2	0.008009659
59	0xbcdbd4c8	-0.02683486
60	0xbdf69653	-0.12040391
61	0xbd6dc93b	-0.058053236
62	0xbdbe87a0	-0.09303212
63	0xbdbca75c	-0.09211609
64	0x3d6e10fd	0.05812167
65	0x3c752b2e	0.014963908
66	0x3cb06ca0	0.021536171
67	0x3cece6b1	0.028918596
68	0xbb847111	-0.004041799
69	0xbdd66d72	-0.10470094
70	0x3c326576	0.010888448
71	0xbde40cdb	-0.111352645
72	0xbc95e8d3	-0.018299496
73	0xbdb58c9c	-0.0886471
74	0xbce88976	-0.028385859
75	0x3c98a8ca	0.018635172
76	0x3d14106b	0.03614847
77	0x3d48167a	0.04884956
78	0xbcf22f7d	-0.02956366
79	0xbde6b0ca	-0.112641886
80	0x3b9e930c	0.0048393067
81	0xbda3637a	-0.07977958
82	0xbe02a9e2	-0.12760118
83	0x3d24f9b6	0.040277205
84	0xbcb8c358	-0.022554085
85	0xbc1be07b	-0.0095139695
86	0x3bec4b9a	0.007211161
87	0xbda1bad8	-0.07896966
88	0x3cb9bfc4	0.022674449
89	0x3d5db1f3	0.054124784
90	0x3ce0ccd4	0.02744142
91	0xbd4e4de5	-0.050367255
92	0xbda0f0df	-0.078584425
93	0xbcab6401	-0.020921709
94	0xbc748af8	-0.014925711
95	0xbb3092fe	-0.0026943083
96	0xbd10e4cb	-0.035374444
97	0xbb99739c	-0.004682971
98	0xbc9e2aa4	-0.019307442
99	0x3d854e8e	0.06509124
100	0x3c896862	0.016773406
101	0xbdd68750	-0.104750276
102	0x3c96c8e4	0.018406339
103	0xba52be55	-0.0008039226
104	0x3ce22276	0.027604323
105	0xbc1953ce	-0.0093583595
106	0xbb006b6e	-0.0019595283
107	0xbca5b2e0	-0.020226896
108	0xbdbc3f54	-0.091917664
109	0xbc8286e4	-0.015933461
110	0x3d6810a0	0.05665648
111	0x3d0e5b35	0.03475495
112	0xbd85b5a7	-0.06528788
113	0xbda42013	-0.0801393
114	0xbd94c858	-0.07264775
115	0x3d8bf21d	0.06833289
116	0xbdb28f74	-0.08718768
117	0xbb3ee23b	-0.0029126543
118	0xbdb034d5	-0.08603827
119	0xbd9fa6ba	-0.077954724
120	0xbccb089c	-0.024784379
121	0x3b03cb2f	0.002011012
122	0xbd617b54	-0.055049255
123	0x3d1236f4	0.03569694
124	0xb9ef4b00	-0.00045641512
125	0xbd9f25a3	-0.077708505
126	0xbd4596cc	-0.048239514
127	0xbd4962c3	-0.049166452
128	0xbc5b6723	-0.013391289
129	0xbeae320c	-0.34022558
130	0xbd93df46	-0.072203204
131	0xbe080d9f	-0.13286446
132	0xbe6460d6	-0.22302565
133	0xbe1cbb73	-0.15305881
134	0x3daea0e4	0.08526781
135	0xbe61e0a1	-0.22058345
136	0xbc774c06	-0.015093809
137	0xbe1c4c94	-0.15263587
138	0x3e82ce55	0.25548044
139	0x3d79602b	0.06088273
140	0x3c67c9c5	0.014147227
141	0x3cc6e675	0.024279812
142	0x3dacd794	0.08439556
143	0x3da5e528	0.08100349
144	0xbd8e1526	-0.069376275
145	0xbe8da53b	-0.27665123
146	0x3e199df2	0.15001658
147	0xbc08d63f	-0.0083518615
148	0xbe1fd509	-0.1560861
149	0xbe802522	-0.2502833
150	0x3e89363d	0.26799193
151	0xbdd5faeb	-0.104482494
152	0x3dc682ec	0.0969294
153	0xbe4f7d00	-0.20262527
154	0x3c3615e2	0.011113616
155	0xbe19edc4	-0.15032107
156	0xbe62b378	-0.22138774
157	0xbe30256e	-0.17201778
158	0x3d0ebadd	0.034846175
159	0x3e8b33fc	0.27188098
160	0x3d8e665d	0.06953118
161	0xbd3b21ca	-0.04568652
162	0x3e1848d6	0.14871535
163	0xbd0a7ee9	-0.033812437
164	0x3e871d89	0.2638972
165	0x3d89f90d	0.06736956
166	0xbe7e2ef3	-0.24822597
167	0xbd960ed2	-0.073270455
168	0x3b2ee54f	0.0026686972
169	0xbe71108c	-0.23541468
170	0x3e8dddca	0.27708274
171	0xbd584562	-0.052800544
172	0xbcba63f8	-0.022752747
173	0x3bf4d29b	0.007471395
174	0xbe45b60d	-0.19307728
175	0xbe966453	-0.29373416
176	0x3d646e7f	0.05576944
177	0x3e9522b5	0.29128042
178	0x3d056756	0.032569252
179	0x3cb28f29	0.02179678
180	0xbd3d0795	-0.04614981
181	0xbd83d1b3	-0.06436481
182	0xbe10e788	-0.14150822
183	0x3d90b297	0.07065313
184	0x3d939990	0.07207024
185	0x3dc1de2c	0.09466204
186	0xbda761fe	-0.081729874
187	0x3c81e218	0.01585488
188	0xbd08c0df	-0.03338706
189	0xbddde32b	-0.108343445
190	0x3dfbad40	0.12288904
191	0x3d756594	0.059911326
192	0x3d1ca21f	0.03824055
193	0x3bb66484	0.0055661816
194	0xbe8a8171	-0.2705188
195	0x3dc5245f	0.09626078
196	0x3d2a6532	0.041600414
197	0xbef38d3d	-0.47568694
198	0x3b8f5266	0.0043738363
199	0xbd49e9f9	-0.0492954
200	0xbebbd2ba	-0.3668421
201	0xbe2f09c2	-0.17093566
202	0xbd4dc55b	-0.05023704
203	0xbd93717d	-0.071993805
204	0xbca94599	-0.02066307
205	0xbe7895f6	-0.24275956
206	0xbdd0bd43	-0.10192349
207	0x3d8a4081	0.067505844
208	0xbe7d47c3	-0.24734406
209	0xbe8bcffd	-0.2730712
210	0xbe84df1b	-0.25951466
211	0xbd4dcee1	-0.050246123
212	0x3d1f9007	0.038955715
213	0xbe35ff38	-0.1777314
214	0x3e092fba	0.13397112
215	0x3ce60ce2	0.028082315
216	0x3e081cb5	0.13292201
217	0x3da9e344	0.082953006
218	0xbe6cc2c7	-0.23121177
219	0xbca43e11	-0.020049127
220	0xbcec9ef6	-0.028884392
221	0xbdcbf3bc	-0.09958598
222	0xbb8cb46b	-0.0042939684
223	0xbda71cb1	-0.08159769
224	0xbe08bd23	-0.133534
225	0x3de2d586	0.110758826
226	0xbd32e846	-0.043678544
227	0xbe444a71	-0.19169022
228	0xbe1d6fba	-0.15374652
229	0x3d5fd9c1	0.054651026
230	0x3cee40a8	0.029083565
231	0x3c99ee34	0.018790342
232	0x3db72728	0.08943015
233	0x3da4e16d	0.08050809
234	0xbd2b1585	-0.04176857
235	0x3d72016c	0.059083387
236	0xbcd2e36a	-0.025743205
237	0xbed8d122	-0.42347056
238	0xbd8bc6db	-0.06825038
239	0x3e151627	0.14559232
240	0x3e228724	0.15871865
241	0xbd002d61	-0.031293277
242	0x3e3a0fda	0.1817011
243	0xbec428b6	-0.3831231
244	0x3d000de5	0.03126325
245	0xbe833a70	-0.25630522
246	0xbe502dcf	-0.20329975
247	0xbdd8f094	-0.10592762
248	0x3daf8791	0.08570779
249	0x3e238ca9	0.15971626
250	0xbc1dfbac	-0.009642523
251	0xbe4db584	-0.20088774
252	0xbe1a7678	-0.15084255
253	0x3daa28f7	0.08308595
254	0x3d777e94	0.06042345
255	0x3c20dfb9	0.009818965

net.2.bias f4 [128]
0	0xbe025cd5	-0.12730725
1	0xbd0ef714	-0.0349036
2	0x3df07981	0.11741925
3	0xbd84f3f5	-0.064918436
4	0xbe1ef594	-0.15523368
5	0x3e2506a0	0.16115808
6	0x3e1edf63	0.15514903
7	0x3e12bc1b	0.14329569
8	0x3db0944d	0.08622036
9	0x3d9a6ec8	0.07540661
10	0xbde32f8e	-0.11093055
11	0x3c611212	0.013737218
12	0x3de7e209	0.1132241
13	0x3d9659f1	0.07341374
14	0xbd8eb155	-0.06967417
15	0x3d0ede3c	0.034879908
16	0xbdb58197	-0.08862608
17	0xbe265f34	-0.16247255
18	0x3da59ba7	0.08086329
19	0xbcb57158	-0.022148773
20	0x3e0b56f6	0.13607392
21	0x3d217da0	0.039426446
22	0xbd03ca31	-0.032175247
23	0xbdcaa3ba	-0.098945096
24	0xbdacc41a	-0.08435841
25	0x3d39a4b0	0.045323074
26	0xbc1b96bc	-0.009496387
27	0x3c3452d7	0.011006079
28	0xbe1c6290	-0.15271974
29	0xbe49e66c	-0.19716805
30	0xbe19446c	-0.14967507
31	0xbc1ec7aa	-0.009691158
32	0x3b615433	0.0034382462
33	0xbe8449f3	-0.2583767
34	0x3de6593e	0.1124749
35	0x3a88d84f	0.0010440442
36	0x3e09d24e	0.13459131
37	0xbe1444f9	-0.14479436
38	0x3cc3936a	0.023874003
39	0x3e1d8695	0.1538337
40	0xbe1533e0	-0.1457057
41	0x3e3eb5b4	0.18624002
42	0x3e2411ca	0.16022411
43	0x3ce4988e	0.027904775
44	0xbc8044df	-0.01565784
45	0xbc127f96	-0.008941552
46	0xbdc404a9	-0.09571201
47	0x3df75bda	0.12078066
48	0xbe07a11f	-0.13245057
49	0xbe1b3ea3	-0.15160613
50	0x3d4eda3f	0.050501104
51	0x3cc2ef6c	0.023795806
52	0x3d9a99d4	0.07548872
53	0x3cb4c59c	0.022066884
54	0x3d3715ed	0.044698644
55	0x3e0d783e	0.138154
56	0xbe3517db	-0.17684881
57	0x3de7ed21	0.113245256
58	0x3e1fcd62	0.15605691
59	0x3daf59ef	0.08562075
60	0xbed3ba8f	-0.4135327
61	0x3e6fa736	0.2340363
62	0xbd4915a4	-0.049092904
63	0x3de10dfa	0.10988994
64	0x3cc686ff	0.024234293
65	0x3ce90607	0.028445257
66	0xbebdd9c3	-0.37080202
67	0xbd496c48	-0.04917553
68	0x3c007c40	0.0078421235
69	0x3ddcfab4	0.10790005
70	0xbc69e2d5	-0.014275272
71	0xbde8ee55	-0.11373583
72	0x3d89546b	0.067055546
73	0x3e64d895	0.22348244
74	0x3c8223e5	0.015886256
75	0x3d839eff	0.064268105
76	0xbd39fd86	-0.045407794
77	0x3d890bf5	0.06691734
78	0x3d029a32	0.031885333
79	0x3e0ec588	0.1394254
80	0xbd17fd1f	-0.03710663
81	0xbdc5cb0c	-0.09657869
82	0xbd94b36b	-0.07260784
83	0x3d35d784	0.044394985
84	0x3d075e80	0.033049107
85	0xbe202f99	-0.15643157
86	0xbdb7fbf2	-0.08983602
87	0xbd420f25	-0.047377724
88	0x3e2bf5dd	0.16793008
89	0x3e1a3343	0.15058617
90	0x3d88655b	0.06659957
91	0x3b42a85d	0.0029702403
92	0xbdd2dfeb	-0.10296615
93	0x3e106a3b	0.14103024
94	0x3c063023	0.008190188
95	0xba94dc3d	-0.001135714
96	0x3e34d46f	0.17659162
97	0x3e1428e7	0.14468728
98	0x3e1799b7	0.14804731
99	0xbcc154ca	-0.0236
100	0xbcb268d3	-0.0217785
101	0xbdc38006	-0.09545903
102	0x3deacb62	0.114645734
103	0xbdf4ddfe	-0.11956404
104	0x3de6fd94	0.11278835
105	0xbe0e9951	-0.13925673
106	0xbd8c9bd9	-0.06865663
107	0xbdbf909c	-0.09353754
108	0x3d881e4f	0.06646406
109	0x3e07c682	0.13259318
110	0x3c0431b8	0.0080684945
111	0x3c409b98	0.011755846
112	0x3cdc8018	0.026916549
113	0xbe384e15	-0.17998536
114	0x3d3a7ad4	0.045527294
115	0xbec3a64a	-0.38212806
116	0x3df493c2	0.11942245
117	0x3d93e4bd	0.07221363
118	0xbd615aab	-0.05501811
119	0xbe194d0c	-0.14970797
120	0xbe253e88	-0.16137135
121	0x3d11aa3b	0.035562735
122	0x3df49131	0.119417556
123	0xbc9d8ea9	-0.019233065
124	0x3e4001fd	0.18750758
125	0xbe09ba2a	-0.13449922
126	0x3d2d1d6d	0.04226439
127	0x3df5cfe6	0.12002544

net.4.weight f4 [3, 128]
0	0x3c229de4	0.009925339
1	0xbdb32bbc	-0.08748576
2	0x3eaaa458	0.3332851
3	0xbc37b0e3	-0.011211607
4	0x3d79d03b	0.0609896
5	0x3db56f11	0.08859075
6	0x3ed13133	0.4085785
7	0xbdf1c790	-0.11805642
8	0x3e03fb38	0.12888801
9	0xbe4d41d7	-0.20044647
10	0xbe81907d	-0.25305548
11	0xbdad3171	-0.08456696
12	0xbe89c3b4	-0.26907122
13	0xbd9dbef3	-0.07702436
14	0xbc2f6b54	-0.010706741
15	0x3ddc3874	0.10752955
16	0x3e99f5f2	0.30070454
17	0x3d3a2dfa	0.045454003
18	0xba1e315a	-0.00060345756
19	0x3d40bc69	0.047054682
20	0xbf028452	-0.50983155
21	0x3f064fde	0.5246562
22	0xbd8b54ee	-0.068033084
23	0x3e89ece1	0.26938537
24	0xbd8a7c9d	-0.06762049
25	0x3e5efb77	0.21775614
26	0x3ed2f62b	0.41203436
27	0xbe5f402d	-0.21801825
28	0x3eae9970	0.3410144
29	0x3ec0afe8	0.37634206
30	0xbed91b72	-0.42403752
31	0x3d0d80d7	0.0345467
32	0x3e157808	0.1459657
33	0x3ee5eb64	0.4490615
34	0xbe8dab80	-0.27669907
35	0x3df14c6b	0.11782154
36	0xbe517332	-0.204541
37	0x3cb2a8b3	0.021808958
38	0xbe61e86a	-0.22061315
39	0xbc9a7750	-0.01885572
40	0xbdafc672	-0.08582772
41	0xbeafdb27	-0.34346887
42	0x3e274c75	0.1633776
43	0xbd8fc8e2	-0.07020737
44	0xbd21d026	-0.039505146
45	0xbe5f10b7	-0.2178372
46	0xbcce58d6	-0.025188845
47	0x3eb4ec66	0.35336608
48	0xbe2ecf41	-0.17071249
49	0xbe40518b	-0.18781106
50	0x3eef8583	0.4678155
51	0x3dfa3c87	0.12218576
52	0xbeb01940	-0.34394264
53	0xbe376c1b	-0.17912333
54	0xbf07dea4	-0.530741
55	0xbdd62cbf	-0.104577534
56	0xbe7b659c	-0.2455048
57	0x3e084feb	0.13311736
58	0xbe73bc9c	-0.23802418
59	0x3d1e4903	0.03864385
60	0xbf3164ce	-0.6929444
61	0x3e9a29b3	0.3010994
62	0xbe4f7fdd	-0.2026362
63	0xbd9605ec	-0.07325348
64	0xbe4e6774	-0.20156652
65	0xbea293ae	-0.31753296
66	0xbf192b2f	-0.5983152
67	0xbb7e8313	-0.003883545
68	0xbdb413a1	-0.087928064
69	0x3e17698c	0.14786357
70	0x3e004c00	0.12528992
71	0xbd6297c3	-0.055320513
72	0x3db4a19b	0.08819886
73	0xbe9a83ff	-0.3017883
74	0xbe6761c4	-0.22595888
75	0xbeecb138	-0.46228957
76	0xbf2032d4	-0.6257756
77	0xbed3fc3a	-0.4140337
78	0x3c8dcefc	0.017310612
79	0xbecffa5b	-0.40620694
80	0xbdf13050	-0.11776793
81	0x3db4cd1e	0.088281855
82	0x3cd619a3	0.026135271
83	0xbf13444d	-0.57526094
84	0x3e21142e	0.15730354
85	0x3de73392	0.11289133
86	0x3cedd1b7	0.029030664
87	0xbccd2a44	-0.025044568
88	0x3d691889	0.056908164
89	0xbe9dd510	-0.30826616
90	0xbe2cc9f0	-0.16873908
91	0x3de8d8d2	0.1136948
92	0xbda9b61b	-0.08286687
93	0xbca6b7e8	-0.020351365
94	0xbe2582f7	-0.1616324
95	0xbd02d679	-0.03194282
96	0x3d840c94	0.064477116
97	0x3d7b8680	0.061407566
98	0x3e8ea0d4	0.27857077
99	0xbe3d44a7	-0.1848322
100	0xbdf41730	-0.11918485
101	0xbe569d6a	-0.20958486
102	0xbea794bd	-0.32730666
103	0xbd11cbfe	-0.035594933
104	0x3e166c88	0.14689839
105	0xbdeca145	-0.11554197
106	0x3d3db465	0.046314616
107	0xbcb6112e	-0.022224989
108	0xbec76c40	-0.38949776
109	0x3e7feb6f	0.24992155
110	0x3e335dcf	0.17516254
111	0x3d87595b	0.0660884
112	0xbe8040d3	-0.25049457
113	0xbf0540b9	-0.52051884
114	0xbd8581e2	-0.06518914
115	0x3e07369f	0.1320443
116	0xbe31fdfb	-0.17382042
117	0x3e142701	0.14468004
118	0xbe4d9ae9	-0.20078625
119	0x3e505e43	0.20348458
120	0xbe1b7f3d	-0.15185256
121	0xbdae311b	-0.0850546
122	0xbd5c6a70	-0.053812444
123	0xbe356bf5	-0.17716964
124	0x3f040298	0.5156646
125	0xbeaf51e2	-0.3424216
126	0x3d33cd38	0.043896884
127	0x3e5d9568	0.21639025
128	0x3b970e24	0.00460984
129	0xbe37d13b	-0.17950909
130	0x3c80de10	0.015730888
131	0xbd4f1f76	-0.050567113
132	0x3d64118a	0.05568079
133	0xbd88118a	-0.0664397
134	0x3d868892	0.065690175
135	0xbe79e6b8	-0.24404418
136	0xbe05cd11	-0.13066508
137	0x3c8ee6da	0.017444063
138	0x3d7135c9	0.058889184
139	0xbe7272cf	-0.23676609
140	0x3dd9eeb9	0.10641236
141	0x3dad794a	0.084704
142	0x3cd3ee22	0.025870387
143	0xbecdd29f	-0.40199754
144	0x3e921baf	0.28536746
145	0xbea3e2cb	-0.32008967
146	0xbcad3ff9	-0.021148669
147	0x3e96f076	0.29480332
148	0xbe273c19	-0.16331519
149	0x3d172891	0.03690392
150	0x3dcc330d	0.09970675
151	0xbdbc7688	-0.092022955
152	0x3e6cdc60	0.23130941
153	0x3e740a5c	0.23832077
154	0xbeed43dc	-0.46340835
155	0xbd1f6e64	-0.038923636
156	0xbf1a53f3	-0.60284346
157	0x3d8f678c	0.07002172
158	0xbefa1b2b	-0.48848853
159	0x3d458c1a	0.048229314
160	0x3d804437	0.06263011
161	0xbec7893e	-0.38971895
162	0xbd8caefd	-0.06869314
163	0x3d7e8d5f	0.06214654
164	0x3e001336	0.12507328
165	0x3ebce155	0.36890665
166	0x3df1b91e	0.118028864
167	0xbe998797	-0.2998626
168	0x3e75dbd9	0.24009646
169	0xbdf8ce8f	-0.12148773
170	0x3ee6d0df	0.4508123
171	0x3d8d9e31	0.06914938
172	0x3c5dd386	0.013539201
173	0x3da42681	0.080151565
174	0xbd9f1591	-0.07767785
175	0xbe008b6d	-0.12553187
176	0xbc9e0b0f	-0.019292383
177	0x3e370814	0.17874175
178	0xbe863ad7	-0.26216766
179	0xbdd66b28	-0.10469657
180	0x3dc94e60	0.09829402
181	0x3e49bfa7	0.19702016
182	0xbe08db56	-0.1336492
183	0xbe851bb5	-0.259977
184	0xbd810935	-0.06300584
185	0xbd40cb2d	-0.047068764
186	0x3e511d8a	0.20421425
187	0xbeb00dfa	-0.34385663
188	0xbbdc5849	-0.0067243916
189	0xbcf3fc55	-0.029783407
190	0x3dc67617	0.096904926
191	0x3e7690ae	0.24078628
192	0x3d8e6635	0.06953088
193	0xbeaef5f2	-0.34172016
194	0x3d3f2c78	0.046673268
195	0xbdcea0cd	-0.10089264
196	0x3e045afb	0.12925331
197	0x3e24e0c4	0.16101366
198	0xbd0a3b5d	-0.03374802
199	0xbd4ef05e	-0.0505222
200	0x3e0b4f79	0.13604535
201	0x3ceb9de1	0.028761806
202	0x3d37da9c	0.044886217
203	0x3ddb245f	0.107002966
204	0xbd9e0d49	-0.07717378
205	0xbd393d91	-0.04522473
206	0xbe7dd70e	-0.24789068
207	0xbdb4cdb4	-0.08828297
208	0x3bd17ac5	0.006392809
209	0xbd9d353e	-0.07676171
210	0x3e8a54bf	0.2701778
211	0xbd35e6a7	-0.04440942
212	0xbed51fe8	-0.41625905
213	0x3d3e1c9b	0.046414
214	0x3e9c125e	0.30482763
215	0x3b9bbbcc	0.0047526117
216	0x3daec30a	0.085332945
217	0x3e6958e2	0.22787812
218	0x3e961556	0.29313153
219	0xbec72c9b	-0.3890122
220	0x3f0c4868	0.54797983
221	0x3dd9bec7	0.10632091
222	0x3dc8e4cb	0.09809264
223	0xbd997dda	-0.074947074
224	0xbe5a4ae8	-0.21317637
225	0xbd65f6f7	-0.056143727
226	0x3cc0510e	0.02347615
227	0xbcde7cee	-0.02715918
228	0xbd1f80b0	-0.038941085
229	0xbe5eecdb	-0.2177004
230	0x3d5e6c40	0.054302454
231	0xbd353001	-0.044235233
232	0x3d934bdb	0.07192203
233	0x3e7da979	0.2477168
234	0xbd61bbc6	-0.055110715
235	0xbe8dab43	-0.27669725
236	0x3ed67732	0.41887814
237	0xbdfefb54	-0.12450281
238	0xbe3c5552	-0.18391922
239	0x3e0f3d07	0.13988124
240	0xbd2f91c9	-0.04286364
241	0x3e944297	0.28957054
242	0x3e960081	0.2929726
243	0x3e5815ba	0.21102038
244	0x3d9ac919	0.075578876
245	0xbd8a8580	-0.06763744
246	0x3e2b1eac	0.16710919
247	0xbe41202d	-0.1885993
248	0xbeb00270	-0.3437686
249	0x3d8fb4d5	0.07016913
250	0xbe713f6b	-0.23559348
251	0xbc8c7e79	-0.01715015
252	0x3e3659b2	0.17807654
253	0xbdd41bda	-0.10356875
254	0xbe2467b2	-0.16055182
255	0x3de2391e	0.110460505

net.4.bias f4 [3]
0	0x3da777f6	0.081771776
1	0xbc867e28	-0.016417578
2	0xbd9f2906	-0.077714965
