stock_label7_model.pth (torch, 90934 bytes, 6 tensors)

net.0.weight f4 [128, 29]
000000 5e ff 52 3d 0c 20 e2 bc ad 74 38 3d 0e ad 39 3c
       0.05151307 -0.027603172 0.045033146 0.011332763
000010 fe ec 1f 3e 62 ca cb bd db eb 16 bd 85 f5 a7 bd
       0.15617749 -0.09950711 -0.036846023 -0.08201126
000020 5e 7a 9d bd 48 59 b7 bd 0e 4a e4 bd 3c 55 12 3e
       -0.07689355 -0.08952576 -0.11146937 0.14290327
000030 ef 73 1f 3e c7 e5 42 bd 3c 42 8b bd ec 14 61 3e
       0.15571569 -0.047582414 -0.067997426 0.21980637
000040 96 34 2c 3d 79 7e 1d be 79 7c 85 bd 6d 06 97 bd
       0.042042337 -0.15380277 -0.06517882 -0.073742725
000050 58 75 97 3d aa 8b db bd 50 35 fc 3d 7c fa e9 be
       0.073954284 -0.10719998 0.12314856 -0.45698917
000060 c7 57 8b 3d c4 c3 df 3e 51 62 98 be 59 0f 75 bd
       0.068038516 0.43704045 -0.2976251 -0.05982909
000070 13 28 30 be 5c 21 22 be cd 00 01 be fb c9 1e be
       -0.17202787 -0.15833038 -0.12597962 -0.15506737
000080 e6 7e a2 bd 87 21 86 be 04 6b 95 3e d9 c8 21 3c
       -0.0793436 -0.26197454 0.2918321 0.009874546
000090 83 26 86 be 4b 9b 01 be 68 a4 58 be f9 18 1c 3e
       -0.26201257 -0.12656896 -0.21156466 0.15243901
0000a0 84 94 88 3c 62 b0 16 bf ef fa a3 3d 40 bf ad bc
       0.01667238 -0.5886289 0.08006846 -0.02120936
0000b0 52 83 50 3d 64 df 41 be d3 6f dd 3d a6 1b 16 be
       0.050906487 -0.18932873 0.108123444 -0.14658985
0000c0 c0 58 7d be 0c aa 70 be 4c 73 7a 3c 6e c8 b7 3b
       -0.24740887 -0.23502368 0.015286278 0.00560861
0000d0 99 a9 ca 3d a4 ad 01 3d 9e 89 b7 3d 14 09 12 be
       0.098956294 0.031659737 0.08961795 -0.14261276
0000e0 07 9d ef ba 57 7c 1d 3e 05 ad 75 bc f9 db 3f bb
       -0.0018281051 0.15379463 -0.014994864 -0.00292754
0000f0 58 f8 be bd 9b 06 e8 bd 27 53 7b be 45 2c 84 3e
       -0.093247116 -0.11329385 -0.24543439 0.25815025
000100 26 1e 60 3e 48 f1 2b 3d 54 3d 85 be b8 b0 9d 3c
       0.218865 0.04197815 -0.26023352 0.019249305
000110 92 3b 37 be 32 cf b7 be f8 4c b1 3e 3a 75 cd bd
       -0.17893818 -0.35900265 0.34629035 -0.10032125
000120 aa 96 8d 3d ba f9 c8 bd b2 8a 15 bd d4 9c 02 be
       0.069135025 -0.098132566 -0.036509223 -0.12755138
000130 ee 71 6b 3e f8 a3 3b 3e 38 1a 04 3e 72 94 e6 bd
       0.2299268 0.18324268 0.12900627 -0.112587824
000140 09 db 83 be bb 7a 8e 3d 81 0b 00 3d f1 e0 ee bd
       -0.25753048 0.06957003 0.03126097 -0.11663998
000150 ce a8 8b be 76 1b a5 3c e2 62 85 bd 5a dc 2b be
       -0.27277225 0.020154696 -0.06513001 -0.16783276
000160 a1 b8 38 be d2 11 66 be 4d e6 f2 bd fa 49 a2 be
       -0.1803918 -0.22467735 -0.11860333 -0.31697065
000170 cd 41 4c 3e 5f 09 86 be 97 7e ec bc 62 5c 20 3d
       0.19946976 -0.26179025 -0.028868956 0.039150603
000180 b7 b9 6c be 48 94 f6 bd 48 a1 cf 3d 96 47 7d 3e
       -0.2311772 -0.12040001 0.10138184 0.24734339
000190 04 7d 82 be 94 b6 42 be 51 7d 8a bd 94 e4 12 be
       -0.25486004 -0.1901496 -0.067621835 -0.14345008
0001a0 74 db fc bd 68 7b 93 bc dc 41 13 be 18 a9 81 3b
       -0.12346545 -0.01800318 -0.14380592 0.003956925
0001b0 07 0f 3a be 1a 28 e4 3e 3b 59 f2 bd b9 cd 9e 3d
       -0.18169795 0.44561845 -0.118334256 0.07754082
0001c0 46 ea ba 3b d8 c9 3d ba 7a 82 a1 bd 08 6c 1e 3d
       0.005704197 -0.0007239855 -0.078862146 0.038677245
0001d0 cc 94 7f bd a2 23 92 3d fe a6 ef bd b1 24 1a 3e
       -0.062397763 0.07135703 -0.11701773 0.15053059
0001e0 68 6d 22 bd 9e 77 cd be 51 75 82 3e f0 6e 28 be
       -0.03965512 -0.40130323 0.2548013 -0.1644857
0001f0 24 0a d6 3d cd e6 fb bd ad 4b 4a 3d ec 71 6b bd
       0.10451153 -0.12299881 0.049388576 -0.05748169
000200 0b 49 a3 bd 76 3e 73 3e 73 93 69 3d eb 14 d1 bc
       -0.07972916 0.23754296 0.057025384 -0.02552267
000210 6d 56 2d 3e 7c 00 c8 bc 33 f2 37 be 12 2b 15 bd
       0.169275 -0.024414293 -0.17963485 -0.03641803
000220 34 b8 0c 3e fd a8 ab bc b3 ff 80 be 40 a7 4e 3e
       0.13742143 -0.020954603 -0.25195083 0.20180988
000230 82 f5 9e 3d 84 dd f5 bd 44 c0 64 bb 58 27 01 3e
       0.07761671 -0.120051414 -0.0034904638 0.12612665
000240 ea 54 94 be bb c9 26 3e 36 1a 15 3e e9 c1 64 3d
       -0.28971034 0.16287892 0.1456078 0.05584899
000250 9f cb 2f 3e b0 9a 82 be a2 49 cb 3d e8 4d cd 3b
       0.17167519 -0.25508642 0.09926154 0.0062653907
000260 58 40 d2 3c 3c 73 54 3e 3b fb 35 3e 60 6e ba bd
       0.025665447 0.20747083 0.17771618 -0.091030836
000270 cc 9d 9b 3e b4 ae 9a be b2 77 82 3d 95 c6 c6 be
       0.30393827 -0.30211413 0.06370486 -0.3882338
000280 76 0c 43 3e ae 85 60 3e 2f d1 06 be 3c 79 79 3e
       0.19047722 0.21925995 -0.13165735 0.24362653
000290 39 b0 ec bd a3 cb 51 3e 2c 47 14 bd 5a 48 cb be
       -0.11557049 0.20487837 -0.036200687 -0.39703637
0002a0 86 0a 85 bd 6e ff 73 3e 10 91 b0 3d cf bc 90 3e
       -0.06496148 0.23827907 0.086214185 0.2826905
0002b0 24 4e b1 bd 61 7f 06 be cd 2a 9c bd 70 f6 0e be
       -0.08657482 -0.13134529 -0.07625351 -0.13961196
0002c0 93 83 ac 3d ed 50 08 3e 16 95 41 3e a9 29 1f bf
       0.08423533 0.1331212 0.18904528 -0.62172943
0002d0 a9 8c 6b 3e d2 f2 fa bd df 79 ac 3d b0 0b e0 bc
       0.23002876 -0.122533455 0.084216826 -0.027349323
0002e0 28 69 2f be 56 de 13 be b5 f0 4e 3e f1 09 db 3d
       -0.17129958 -0.14440283 0.2020901 0.106952555
0002f0 70 ed 18 3e f2 5e 76 3d ce 64 a1 3d 32 63 2d be
       0.14934325 0.06014914 0.07880555 -0.16932371
000300 11 d0 1b 3e 37 70 18 be 74 4d ad bd b6 90 93 bd
       0.1521609 -0.14886557 -0.08462039 -0.07205336
000310 3f 02 2e be a5 46 47 be 54 59 97 3d df b3 52 3e
       -0.16993044 -0.19460543 0.07390085 0.20576428
000320 49 b8 f0 3b ee d2 fe bd 4c c6 8d 3d f2 0f 32 3d
       0.0073461873 -0.124425754 0.06922588 0.043472238
000330 19 b5 01 bd 18 96 42 be 81 f2 8a bd d9 f0 86 3e
       -0.03166685 -0.19002569 -0.06784535 0.26355627
000340 f9 65 d8 be b0 6e 46 3e 7e 50 15 3e af ef 86 be
       -0.422653 0.19378161 0.14581487 -0.2635474
000350 52 5c 82 3c 5c a0 24 be 16 2f a7 be a7 e6 3d bd
       0.015913162 -0.16076797 -0.3265311 -0.046362545
000360 6d d8 80 bd 7d 84 53 be dd eb 53 be 02 09 d3 3d
       -0.0629128 -0.20656009 -0.20695443 0.103044525
000370 c4 71 f4 3d a6 a5 f1 3d 96 e7 86 3d a3 55 c1 bc
       0.119357616 0.11799173 0.0658714 -0.023600405
000380 4a ee 9e 3d a0 d7 08 3c 88 27 69 3d 17 d2 9b bd
       0.07760294 0.00835219 0.056922466 -0.07608431
000390 ef 72 b6 3e ea 22 fc 3d 33 45 31 bd 5c 12 83 3e
       0.35634562 0.12311347 -0.043278884 0.25599945
0003a0 10 6f 30 3e 6e 55 13 bb 27 53 bd 3d 49 d9 1d be
       0.17229867 -0.002248134 0.09244376 -0.15414919
0003b0 25 7a 1b 3e 2b 49 d6 be b1 88 d4 bd 5b 82 42 3d
       0.15183313 -0.41852698 -0.10377634 0.047487598
0003c0 ef ad 71 be 62 88 b2 3d 0d 33 de bd 5a a9 3c 3e
       -0.23601507 0.08717419 -0.10849581 0.18423977
0003d0 c2 eb 22 bc 5d c7 5c bd 10 7e aa 3d 47 4b 54 3d
       -0.009943904 -0.053901065 0.08324826 0.051829603
0003e0 c4 55 78 bd 56 36 d0 3d 6d 5e 53 bd 12 45 a1 3d
       -0.060628667 0.10166614 -0.051603723 0.07874502
0003f0 39 29 6f 3d 39 26 31 3e a1 f6 7c be fa a3 b4 be
       0.058388922 0.17299737 -0.24703456 -0.35281354

net.0.bias f4 [128]
000000 0a d5 06 be d3 56 c5 bd 7b 84 1a be 54 14 3a 3d
       -0.13167205 -0.09635701 -0.150896 0.045429543
000010 65 b1 58 3e ea 0a 3d be b6 1b cc be 03 dc 81 3d
       0.2116142 -0.18461195 -0.39864892 0.06340792
000020 90 80 07 be be 40 08 bf 85 2f a2 3d 57 77 ef bd
       -0.13232636 -0.5322379 0.0791922 -0.11692684
000030 22 ba 47 be ee 0e 1a be 96 2d 49 3e 24 12 bf be
       -0.19504598 -0.15044758 0.19646296 -0.37318528
000040 7e 49 62 3d 32 27 ec 3d 4a 41 0e be 66 c8 7b be
       0.05524587 0.115309134 -0.13892093 -0.24588165
000050 d1 49 89 be fc 0a a1 bd 3d 78 04 3e 2c 67 fb 3d
       -0.2681413 -0.07863423 0.12936492 0.12275538
000060 1f 54 2b bd 9c 8d 84 bd ce e0 d9 be 1e e4 85 bc
       -0.04182827 -0.06472322 -0.42554325 -0.016344126
000070 8a 47 c8 3c 2a e0 fc 3c ff 56 48 be 17 9a a2 3d
       0.024448175 0.030868609 -0.19564436 0.079395466
000080 51 15 45 3d ac 0c 51 be 41 eb 1c be a9 3f 73 be
       0.048116032 -0.2041499 -0.15324117 -0.23754753
000090 bd 26 33 be 6c da cb bc 57 e5 fb be a4 c4 70 be
       -0.17495246 -0.024884425 -0.4919841 -0.23512512
0000a0 d9 a8 32 3c c1 e3 41 be f5 76 90 bc 3d f3 87 be
       0.010904514 -0.18934537 -0.017634848 -0.26552764
0000b0 33 9c 8c 3d 43 87 38 be ad b1 5b be 2e b8 e9 bd
       0.0686573 -0.18020348 -0.21454497 -0.114120826
0000c0 ba cd f9 bd d5 54 9d be e4 d8 a0 bd c5 c5 6b be
       -0.12197442 -0.30728784 -0.078538686 -0.23024662
0000d0 72 19 18 be a2 5a 85 be f5 ac 8d 3d 6f 40 1b bd
       -0.14853457 -0.2604571 0.069177546 -0.037903246
0000e0 23 91 05 be 00 ce a5 bd 12 93 26 be 63 8e 35 bd
       -0.13043647 -0.08095932 -0.1626704 -0.044325244
0000f0 85 ff 77 be ae f6 57 3d 87 1d a3 bd 25 ae 71 3d
       -0.24218567 0.052725486 -0.07964616 0.059003968
000100 6c ea 9e be c4 37 77 bd d4 90 a0 be 54 8c e6 3d
       -0.31038225 -0.060355917 -0.31360495 0.11257234
000110 5d 64 16 bf 38 a9 b2 be 97 e0 ce 3b e3 dc 89 3d
       -0.5874689 -0.3489473 0.0063133943 0.06731584
000120 c0 b8 18 bd 29 23 98 be da 39 5a be be b5 a4 bd
       -0.037285566 -0.29714325 -0.21311131 -0.08042477
000130 0e c1 d6 be b3 42 82 3d 27 7f bf be 8b ef 4d be
       -0.41944164 0.06360378 -0.37401697 -0.2011091
000140 2a d8 dc be 17 2f 91 be 31 a7 2b bd aa 3d 37 be
       -0.4313367 -0.2835624 -0.041907493 -0.17894617
000150 78 fe 27 be 12 3d 3f bf 01 42 eb 3d c2 d6 08 3d
       -0.16405666 -0.7470256 0.114871986 0.033407934
000160 f5 0a d3 be 03 fe 9d be 1b 83 8b 3c f2 76 13 be
       -0.41219297 -0.30857858 0.01703029 -0.14400843
000170 a2 8c 5c be ce 33 96 be 70 d5 50 bd db f2 93 bd
       -0.21538022 -0.293364 -0.0509848 -0.072240554
000180 e6 85 fd bd 8e cc 94 bd 43 96 80 be a1 dd 74 be
       -0.12379055 -0.07265578 -0.2511464 -0.2391267
000190 5a 33 a2 be 6a 50 dc bd da ff ee bd 41 27 ff bd
       -0.31679803 -0.10757525 -0.116698936 -0.12458659
0001a0 c6 74 5c be 7c 39 21 be 4d 86 bf be d0 06 08 3e
       -0.2152892 -0.15744585 -0.3740715 0.13283849
0001b0 8c e9 ba bd 31 46 c0 3d 4c 8e 9e be ec 9b 50 3c
       -0.09126577 0.09388388 -0.3096794 0.012732487
0001c0 12 6f 42 be 78 77 2c be 90 e6 b8 be aa c8 3d be
       -0.18987682 -0.16842449 -0.36113405 -0.18533579
0001d0 ed d3 58 be 54 4b 9a 3d 9b ca bf be fa 58 98 be
       -0.21174593 0.07533899 -0.37459263 -0.29755384
0001e0 4d e6 7d bc db fa 1d be 72 81 9f bd cb a8 ac bc
       -0.0154968025 -0.15427725 -0.077883616 -0.02107658
0001f0 c3 75 81 be 50 bb 3a be ec a3 2c bd b8 47 a5 bc
       -0.25285158 -0.18235517 -0.042148516 -0.0201758

net.2.weight f4 [128, 128]
000000 28 ac 38 3e 0c 12 84 be b8 a2 47 be 98 9a 1f be
       0.18034422 -0.2579502 -0.19495666 -0.15586317
000010 b8 7f 3d be 1f 62 6f 3c 2f 64 87 3d 71 4b 81 3e
       -0.18505752 0.014610796 0.066109054 0.2525287
000020 6e 0e 30 3e 92 2a 04 bf 08 b7 a5 be 80 ee f3 38
       0.17193004 -0.5162746 -0.32366204 0.00011631567
000030 54 3a 1c 3e a8 a8 8c 3e f5 cd b7 bc 00 9d 95 bd
       0.15256625 0.27472425 -0.022437075 -0.07305336
000040 f7 e2 32 3d 2d 9c b5 bc 55 63 06 bd dc 49 79 bc
       0.04367348 -0.022169197 -0.032809574 -0.015215363
000050 55 da c6 bd 33 13 69 bd 60 cd 51 be b2 06 c3 3d
       -0.09709612 -0.056903075 -0.204885 0.095227614
000060 41 d6 22 3d b8 d1 1b bd 38 c2 5a be 2d 30 fc 3d
       0.03975511 -0.0380418 -0.21363151 0.12313876
000070 bf e9 20 3e 1b db 89 3c 4c 7f 8f be 27 af 03 be
       0.15714167 0.01682811 -0.28026807 -0.12859784
000080 ae df 97 bd 9b 86 aa 3d 04 0e fb bd bc b3 14 bd
       -0.074157104 0.08326455 -0.12258533 -0.03630422
000090 a8 d4 e9 be 34 27 4d 3d 40 85 6b 3c 41 22 72 be
       -0.45670056 0.050086215 0.014375031 -0.2364588
0000a0 5c dd c0 be be 4d 4a 3d 49 31 ff 3c a6 21 22 be
       -0.37668884 0.049390547 0.03115143 -0.15833148
0000b0 34 c6 2b bd cc 05 cf 3d 24 2d 18 3d 27 de d0 3d
       -0.041937068 0.101085275 0.037152424 0.10198622
0000c0 3b 89 3d 3e c8 58 0e bc 42 90 fb bd 0c 55 be bd
       0.1850938 -0.008688159 -0.12283374 -0.09293565
0000d0 87 25 ae 3d 72 30 8b bd 63 bb 99 bd b0 62 5b 3d
       0.085032515 -0.067963496 -0.07506444 0.053560913
0000e0 86 ee 8b be fb 4f bb bc 85 76 ea be de 3a 33 be
       -0.27330416 -0.022865286 -0.45793548 -0.17502925
0000f0 ec 1a cd bd ea db fd bd db 83 cb bb 8d 4f b0 be
       -0.100149006 -0.12395461 -0.0062107868 -0.34435692
000100 c8 9a 62 be b2 ab db bd 9e 1e 9a 3d 37 dc ba 3d
       -0.22129357 -0.10726108 0.07525371 0.09124034
000110 0d 7b 9a 3d f7 15 9a 3d 5d 2c e5 bd 53 e2 9b bd
       0.07543001 0.07523721 -0.11190102 -0.07611527
000120 49 a9 26 be 11 a8 bc 3d 01 a3 28 be 67 5d 41 be
       -0.16275515 0.092117436 -0.16468431 -0.18883286
000130 c1 94 0a be a3 af 09 3d 32 d9 34 3e 98 62 f4 bd
       -0.13533308 0.033614766 0.17660978 -0.11932868
000140 f0 86 96 bb ea 13 38 3e ec 74 c5 bd d3 67 03 bf
       -0.0045937225 0.17976347 -0.09641442 -0.513303
000150 9e cc 05 3e 06 f6 ab 3c ed 27 2c 3e 2a eb 61 bd
       0.13066337 0.020991337 0.16812105 -0.05515591
000160 7d 05 8e bd 0b 35 0d be 5c d9 cb 3d cb 93 e6 be
       -0.069346406 -0.13789766 0.099535674 -0.45034632
000170 e7 e1 73 bd 95 52 6e 3e a0 8c 28 3e e2 d7 83 be
       -0.05954161 0.2327369 0.16459894 -0.25750643
000180 21 47 c2 bd 9d 97 b7 bd 6f 4f 56 3c 3f a5 a6 be
       -0.09486223 -0.08964465 0.013080462 -0.32547948
000190 79 ac 5a be c0 50 13 bc ac 3d ab 3d fa 21 66 bd
       -0.21354856 -0.00899142 0.08361372 -0.056184746
0001a0 cd c2 06 3c 62 24 6a be c0 9e 7a be 6a 5b e8 bc
       0.008225155 -0.22865441 -0.24474621 -0.028363902
0001b0 90 d7 0b bd 7e ad 44 be 5e 6e 47 bd 49 74 49 bd
       -0.034141123 -0.19206807 -0.04868924 -0.049183164
0001c0 b7 68 a7 bc db f6 ed 3d f4 3e 0a 3d 7c 6f 1b be
       -0.020435674 0.116193496 0.033751443 -0.15179247
0001d0 43 93 e8 bd b0 88 21 be b3 31 b6 be 50 d0 47 be
       -0.11356213 -0.15774798 -0.35584792 -0.19513059
0001e0 54 59 78 be 3b 3c 66 bd 6b cc 15 3e 93 9c 97 3d
       -0.24252826 -0.056209784 0.1462876 0.07402911
0001f0 3f e1 87 be 77 de ed bd 08 8e 95 3e cd 08 a9 3d
       -0.26539037 -0.116146974 0.29209924 0.08253632
000200 ee a7 35 3d 98 6f 26 3b 14 1d 54 be 4d df c6 3d
       0.044349603 0.0025396105 -0.20714217 0.0971056
000210 5b e5 08 be cf 92 a1 be 58 21 ff bc e7 e0 e0 3d
       -0.13368742 -0.3155732 -0.03114383 0.10980397
000220 a8 55 1a 3e 4b 8e c1 bd 03 b7 f5 bd d6 5d 8b 3d
       0.15071738 -0.09450968 -0.11997797 0.06805007
000230 36 e4 0c be 26 98 08 bd e0 7b 85 bd a3 0f 7c bd
       -0.1375893 -0.033348225 -0.06517768 -0.06153835
000240 04 cb 41 bd 74 df 27 3e f0 65 51 3d 20 e9 1c 3d
       -0.04731275 0.16393834 0.051122606 0.038308263
000250 f7 6e 4f 3d da 95 ea bc 83 55 1d 3e c9 49 ef bd
       0.050642934 -0.028635908 0.15364651 -0.11683995
000260 1e 46 b5 3c f5 68 7e bc c8 62 cd 3d 21 60 5c 3d
       0.022128161 -0.015527953 0.10028607 0.053802613
000270 eb 77 11 3e 42 72 1d bd 88 e6 b4 3d 88 7a 8b ba
       0.14205901 -0.038439043 0.08833033 -0.0010641376
000280 8b ec 25 3c a3 1c 56 be fe 51 8c 3c 45 69 49 3d
       0.010127197 -0.20909362 0.01712894 0.04917266
000290 cb d1 26 bd 4e f6 c4 bc 9f 7d 3c be 9e 83 cc bc
       -0.040727418 -0.024043228 -0.18407296 -0.024965104
0002a0 57 50 f4 bd ac 2f 2f 3d 6b 17 5a 3e 14 5d 2d 3d
       -0.11929386 0.042770073 0.21297996 0.042325094
0002b0 dd 77 19 bd 0b 16 d2 bd c4 ab b1 bb 0d ef fd bc
       -0.037467826 -0.102581106 -0.0054220874 -0.030997777
0002c0 cf f8 7c bd 8c 25 27 3c 51 0b 46 be 72 40 08 3e
       -0.06176072 0.010201823 -0.19340254 0.13305834
0002d0 0d ae 09 3e 48 08 f5 bd ac 87 18 3e f3 da e3 bd
       0.13445301 -0.1196447 0.14895505 -0.111257456
0002e0 0d df f1 bd 00 d5 59 3c 3e c4 8e bc f8 a3 b1 bd
       -0.11810122 0.013295412 -0.01742756 -0.08673853
0002f0 cc c1 a7 be 5a bc 9e bd 8c 86 03 be fb 3e 43 3d
       -0.32765043 -0.07750769 -0.12844294 0.047667485
000300 29 d3 85 bd 67 62 7c be 16 ed 53 bd 05 ef 17 bd
       -0.06534416 -0.24646913 -0.051739775 -0.03709318
000310 66 63 01 be 69 d3 34 bd b0 b6 fd 3d f1 73 6e 3d
       -0.12635574 -0.04414693 0.123883605 0.05821604
000320 86 2c 48 bd 67 9e 1c be 6d 54 ed bd 62 a2 84 3b
       -0.048870586 -0.152948 -0.115883686 0.004047678
000330 48 c4 19 be 88 44 09 3e b7 56 ca 3c 7c 30 55 be
       -0.15016282 0.13405049 0.024699552 -0.20819277
000340 dc dc 84 3e 4c b9 c5 3a a3 66 1d bd 2a 51 36 bd
       0.25949752 0.001508513 -0.03842796 -0.044510998
000350 43 11 22 bc f4 34 10 bd 10 3d 56 bc 7d 93 4c 3d
       -0.009891811 -0.03520675 -0.013076082 0.049945343
000360 a2 7c a2 3d 0f bd 94 be 5c c5 d7 bd 74 93 d4 bd
       0.07933928 -0.2905049 -0.1053569 -0.10379687
000370 44 5e 65 3c ef 9e ce be 94 1a bc 3d f5 9e 1c be
       0.013999525 -0.40355632 0.09184757 -0.15295012
000380 d9 28 f2 3d ff f9 83 3d cd fc 8d bd ea 8a 79 be
       0.11824197 0.06444167 -0.069329835 -0.24369398
000390 b9 85 54 bc db ca 9d bd 62 48 b4 3d 27 e9 dc 3c
       -0.012971335 -0.07704707 0.088028684 0.026966644
0003a0 ca ad 41 bc c9 2e 73 3d 56 24 7f be ed 92 6e 3d
       -0.01182122 0.05937079 -0.24916205 0.058245588
0003b0 3e d7 0f 3d 47 c3 ce be e3 a5 b2 3d 89 f7 25 be
       0.03511738 -0.4038336 0.08723047 -0.16207708
0003c0 78 29 e9 3d 59 68 c7 3d 48 10 8d bd 1a fb e4 3d
       0.11384863 0.097366996 -0.06887871 0.11180706
0003d0 7b 84 33 be ad a5 b7 3d 5b d5 38 be 2b 36 8c 3d
       -0.17531006 0.08967147 -0.18050139 0.06846269
0003e0 31 59 f3 bc 40 cf 1c be 5f 2d 80 bd 91 16 61 3d
       -0.029705616 -0.15313435 -0.06258654 0.05495316
0003f0 d4 de 19 be 97 22 87 bd fb 1e c2 bd 57 0d 5c bc
       -0.15026408 -0.06598394 -0.09478565 -0.013430915

net.2.bias f4 [128]
000000 f5 cc 28 bd 03 8d 85 3a 80 27 82 bc c0 d3 c7 3d
       -0.041211087 0.001018912 -0.015887976 0.09757185
000010 2c 56 3c 3e 56 85 f8 ba d4 68 cb 3a fa f8 69 3e
       0.18392247 -0.0018960636 0.0015518912 0.22848883
000020 75 51 a1 3d 2a 70 cf bc 4c ec d2 3d e4 af ed 3d
       0.07876865 -0.025322039 0.10298976 0.11605814
000030 35 3b b2 3d 87 78 32 bd 02 fb 92 3d 36 ce 46 3d
       0.08702699 -0.043571975 0.07176782 0.0485365
000040 24 c9 e4 3d ba 73 57 be 9e 1a fa 3b e8 25 d7 3d
       0.11171177 -0.2104024 0.0076325675 0.10505277
000050 4e ac 82 3d bf 72 dc 3d 30 72 92 bc dc 8e 36 be
       0.06380521 0.107640736 -0.017876714 -0.17827934
000060 20 b5 8c bd a0 ef ad 3d 0b 3f 7c bd 29 6a 84 be
       -0.06870484 0.084929705 -0.06158356 -0.25862244
000070 92 bf a9 bd c3 29 29 3b c3 88 8c bc 88 4b 9d bd
       -0.08288492 0.0025812245 -0.017155057 -0.07680422
000080 96 dd 0d 3d 6c 1a 4d 3d 50 ea 21 3d 25 1d d1 3c
       0.03463515 0.050074026 0.0395301 0.025526593
000090 c5 b2 6a bd aa 7f 73 3e cc 2f a2 3d d5 58 20 be
       -0.057299394 0.23779169 0.07919273 -0.15658887
0000a0 ac 23 31 3e c0 43 92 3d d4 e9 45 3e 0e aa bb 3d
       0.17298764 0.071418285 0.1932748 0.09163295
0000b0 e2 2c 80 3d d9 cb 8a be 8a f3 52 be e9 e4 5d 3d
       0.06258561 -0.27108648 -0.20600715 0.054173384
0000c0 ec 0e 1b b9 f8 b0 aa 3d f1 20 bf bd cb 1f ef bc
       -0.00014787511 0.08334535 -0.09332455 -0.029189965
0000d0 4d ba 55 bd e9 e5 db 3d 3a 4b e4 3d b2 5e 6a be
       -0.052179623 0.10737211 0.11147161 -0.22887686
0000e0 ce aa a7 3d 90 df f0 bd ec 31 0d bd 62 91 0b bd
       0.08186875 -0.11761391 -0.034471437 -0.034074195
0000f0 2b 9f ff bc a2 9d 57 bd 86 c2 0c 3e 34 65 ba 3d
       -0.031203827 -0.052640565 0.1374608 0.09101334
000100 28 fb 87 3d 68 d0 87 3d 07 9a 31 3d b2 02 3a be
       0.06639701 0.06631547 0.043359783 -0.1816509
000110 9d 89 90 bd 72 4e c2 bd fd a9 af 3d 37 d3 f5 bd
       -0.07057498 -0.094876185 0.085773446 -0.12003177
000120 d7 c6 0c 3e 4a 38 40 bd 85 9d bc 3b 38 5b fd bd
       0.13747726 -0.04692868 0.0057560825 -0.12370914
000130 e9 b8 cb bc f6 65 4e ba 3f ba aa bd fe 94 91 3d
       -0.024868445 -0.000787347 -0.08336305 0.07108496
000140 bc 42 a9 3d 13 26 1b 3e 75 5d 57 be 99 22 42 3e
       0.08264682 0.15151243 -0.21031745 0.1895851
000150 c1 96 d1 3c 62 2e 26 be 47 79 1b 3e d8 77 1e 3e
       0.02558458 -0.16228631 0.15182982 0.15475404
000160 1e 7d 45 3e 06 ea 65 3c 35 4f cf bd cb 86 8e 3d
       0.1928601 0.014032846 -0.101225294 0.069593035
000170 f1 87 23 3e ac 27 35 bd aa 4a f5 bd 6d fe 6d bd
       0.15969826 -0.044227287 -0.11977132 -0.058103967
000180 a2 f1 2b be 84 6d 7c 3d 60 a2 e1 be fb e8 14 3e
       -0.16791394 0.06162788 -0.44069195 0.14542
000190 63 ee 15 bd 26 20 ef bd 3e d9 84 3c 5e 3e ae 3d
       -0.036604296 -0.11676054 0.01621687 0.08507989
0001a0 09 6d 2f 3d 5d 69 7c 3e f9 a1 87 3c de f0 97 3c
       0.042828593 0.24649568 0.016556727 0.018547472
0001b0 b9 e0 ce 3c ce 79 a2 3c 1e b8 6e bd 04 c1 db bd
       0.02525364 0.019833472 -0.058281057 -0.10730174
0001c0 3d 5b 88 3d 30 ff 49 bd e7 15 a9 bd 39 e4 99 bb
       0.06658027 -0.04931563 -0.08256131 -0.0046963957
0001d0 a8 d3 a0 3d e2 fd be 3c de a4 a6 bd b7 67 d4 3d
       0.0785287 0.02331442 -0.08136915 0.103713445
0001e0 0f b3 0e be 3f bc 9e 3d 4d 5a 07 3d 56 0d ca 3d
       -0.13935493 0.07750749 0.033045102 0.09865825
0001f0 56 20 16 be 12 aa 72 3d ab 70 d8 bd 6a 76 e2 bd
       -0.14660773 0.059244223 -0.10568365 -0.11057742

net.4.weight f4 [3, 128]
000000 43 78 17 be 27 98 47 3b 4f 14 d9 3d 2c 00 5c bf
       -0.1479197 0.003045568 0.10599577 -0.8593776
000010 1f 8f 35 be 54 e1 68 3e 64 db ab be d9 a4 bc bd
       -0.17730378 0.22742206 -0.3356582 -0.0921113
000020 1d 87 08 be 42 60 44 3d b6 c9 ef bd b5 df de 3d
       -0.13332792 0.04794336 -0.11708395 0.108825125
000030 72 3e 57 be 9d a9 2b be d7 f1 dc bd bd b3 5f be
       -0.21019915 -0.16763921 -0.10788315 -0.21845908
000040 ce 7a 9b be b4 31 28 3e 02 ef a6 3e ea c6 35 bf
       -0.3036713 0.1642521 0.32604223 -0.71006644
000050 27 74 48 be 8a 74 6f bd 85 d6 cf 3b 86 b2 48 3e
       -0.19575559 -0.05846075 0.0063427114 0.19599351
000060 9c ff 57 bc ba 7a 31 bf ed d1 34 3e 26 6a c2 3e
       -0.013183501 -0.6932789 0.17658205 0.3797161
000070 03 a0 dd 3e 6c 5a 81 bd b1 bb e2 be d0 99 35 3d
       0.43286142 -0.06316075 -0.44283822 0.04433614
000080 d1 a3 76 be 86 cd 7d 3e 45 b7 8c 3e 7b da b5 bb
       -0.24085928 0.24785432 0.27483574 -0.0055497265
000090 97 86 df be 36 39 2e 3d 9c 03 19 be 2b ef 05 be
       -0.4365737 0.04253503 -0.14942783 -0.13079517
0000a0 d4 c7 25 be 7c 48 7e 3d b4 42 1e 3f b8 cb 6f 3e
       -0.1618951 0.062080845 0.6182053 0.23417556
0000b0 94 58 cd bb a5 aa a1 3e 24 12 84 3e 2a 95 62 be
       -0.006266663 0.31575504 0.2579509 -0.22127214
0000c0 68 c5 3d 3e 48 8d 89 be c1 d2 64 3d 1b ce 4b 3d
       0.18532336 -0.26865602 0.055865053 0.049757104
0000d0 37 96 44 bc 69 5f 02 3e b2 44 b8 be 00 79 dd be
       -0.011998705 0.12731709 -0.3598991 -0.43256378
0000e0 6e 3c 68 3e fd ea fc bc bc 8e 93 3e fe f0 9f bd
       0.22679302 -0.03087377 0.28819835 -0.078096375
0000f0 02 bb d4 bc b9 8b a7 3c 4a c7 b6 bd f7 b5 bd 3e
       -0.025968079 0.020452367 -0.0892473 0.3705289
000100 c3 50 85 3c 2c 86 40 be b3 08 03 3d eb 7b 31 bc
       0.016273862 -0.18801183 0.031990718 -0.010832767
000110 20 db a3 bd 4a 00 c0 3d eb 5e 22 3e 6d c5 0c bd
       -0.08000779 0.09375055 0.15856521 -0.034367967
000120 03 dd b0 be 7e 29 74 3d f4 c1 18 be 13 88 80 3e
       -0.3454362 0.059609883 -0.14917737 0.25103816
000130 b3 21 09 3e 7b fa 95 be 36 66 a5 be 50 bd 15 bd
       0.13391761 -0.29292664 -0.32304543 -0.036557496
000140 52 e6 10 3e be 25 a7 be 40 3c 30 be 63 90 da be
       0.1415036 -0.32645983 -0.17210484 -0.42688283
000150 69 a2 b7 bc 95 20 6a 3e bb 06 75 3e 96 9d 49 3e
       -0.02241631 0.22863992 0.23928349 0.1968902
000160 5d 65 00 bd c0 7b 37 3e 31 5c a5 be d9 27 e7 bd
       -0.031346668 0.179183 -0.322969 -0.11286897
000170 d9 2d 80 3e 4a 21 d3 bc 18 7d d0 be 46 b5 09 bf
       0.2503498 -0.02577271 -0.4072044 -0.53792226
000180 d7 39 90 3e 58 db 4e be a4 8c 72 3d 59 a9 72 be
       0.28169128 -0.2020086 0.059216157 -0.23697414
000190 3d f1 e5 be f0 e7 a3 3d 16 10 8b 3c b4 4f 89 be
       -0.44910613 0.08003223 0.016975444 -0.2681862
0001a0 9d 3c 90 be 8c be cb 3e d8 c0 81 3e ef 01 60 be
       -0.28171244 0.39793813 0.2534244 -0.21875738
0001b0 3f df b2 be 49 86 7b bd b2 33 c6 3d d3 8b fc 3c
       -0.34935948 -0.06140736 0.09677829 0.030828392
0001c0 95 d9 cb 3e c6 37 53 3c 22 09 a5 3e 40 5c cc 3e
       0.3981444 0.012891715 0.3223353 0.3991413
0001d0 70 06 7d 3e c9 34 81 3c 12 39 6e bc a4 af cd be
       0.24709487 0.01577224 -0.014539974 -0.40173066
0001e0 b4 53 6c be 7a a3 bf bd 81 6a 8e 3e 07 ac 2a be
       -0.23078805 -0.093573526 0.2781563 -0.16667186
0001f0 85 fb 63 be 60 14 a0 be ef 63 4b 3d ed f2 07 bf
       -0.22263916 -0.31265545 0.04965585 -0.5310505
000200 4c 10 e0 3e 18 d0 00 be e7 4d 54 3e 02 7a 75 be
       0.43762434 -0.12579381 0.20732842 -0.23972324
000210 45 ea 13 3f 16 7c e3 be 21 bc 08 3d d6 d8 34 be
       0.5777934 -0.44430608 0.03338254 -0.17660841
000220 96 8e 46 be 07 d4 76 3d d4 77 08 3e 22 a0 cd bd
       -0.1939033 0.0602608 0.13326961 -0.100403085
000230 39 16 de 3e df dc 80 be e5 65 1d bd ab 78 02 bd
       0.4337633 -0.2516851 -0.038427252 -0.03185336
000240 e6 f6 37 3e 29 2c 98 3e 8e db 72 3c f9 91 28 3e
       0.17965278 0.29721192 0.014822854 0.16461934
000250 bd be 6e 3e ea fa 5a 3c 95 39 3a bd 01 b9 8d be
       0.23314948 0.013365487 -0.04546507 -0.2768021
000260 84 cf 90 be 84 8e 8c bd 63 6d d0 bd 79 a3 8e be
       -0.28283322 -0.0686312 -0.10177114 -0.27859095
000270 49 f5 27 3e df 90 de bc 02 c0 90 bc f1 30 24 bc
       0.16402163 -0.02716869 -0.017669681 -0.010021434
000280 97 3f 2d 3e f0 f5 ee 3e ca 0f e7 bd bf e6 4b 3c
       0.16918789 0.4667201 -0.112823084 0.012445151
000290 74 1d ff bd 5e 41 dd be 88 6a 2b 3e 66 e9 e3 bd
       -0.124567896 -0.43213934 0.16739857 -0.111285016
0002a0 34 70 c1 3d 66 bd 95 be f3 bf bb be d4 b3 3d 3e
       0.09445229 -0.29246062 -0.36669883 0.1852563
0002b0 e4 89 57 3e 5f ca 7a 3e dd 79 40 3e fb e5 87 3d
       0.21048695 0.24491261 0.18796487 0.06635662
0002c0 a0 bb 9e 3e 4f 66 2f be b3 d0 2b bf 92 fb 24 bc
       0.31002522 -0.17128871 -0.67115325 -0.010069745
0002d0 e6 4d 38 bd a9 3b 83 be 16 e1 92 3e 32 ab 47 bd
       -0.044996165 -0.25631455 0.28687352 -0.04874725
0002e0 1d 27 5e 3e 03 d0 3a 3d aa ee f8 3b 2b 64 7d 3e
       0.21694608 0.04560853 0.0075968103 0.24745242
0002f0 b4 45 89 3b 15 c8 02 be 82 cc 96 be 94 af c8 bd
       0.0041892175 -0.12771638 -0.29452902 -0.09799114
000300 de 5b d5 be 23 69 06 bd ac 42 b2 3d 28 90 72 be
       -0.41671652 -0.03281511 0.08704123 -0.23687804
000310 bb bc 0d 3b 91 60 15 bd 68 3a b5 3d c6 78 63 bc
       0.0021627385 -0.036469046 0.08849031 -0.013883775
000320 ce 13 dc 3d b5 75 ee be 51 d4 62 3d 7d 35 0f be
       0.10745965 -0.46574178 0.055378262 -0.13985248
000330 f2 ab c9 ba 1c c9 ed 3d 1d d9 08 3f 33 b0 ad 3d
       -0.0015386327 0.11610624 0.5345629 0.08480873
000340 97 0d b0 bd 1c 9f 49 3b 21 47 73 3e 1f a1 71 be
       -0.08596342 0.0030765003 0.23757602 -0.23596619
000350 ff 1f 1e 3e b5 4a f2 3d f4 05 9f be 27 9d 8e 3d
       0.15441893 0.118306555 -0.3105923 0.06963568
000360 2d 99 62 3e b7 ac 31 bd 46 af b0 3c a4 6c 23 be
       0.22128744 -0.043377604 0.021567952 -0.15959412
000370 ac 85 08 3e 97 e3 34 bd bd 74 3c bd ad 62 54 3d
       0.13332242 -0.04416236 -0.046009768 0.051851917
000380 23 75 83 be c8 b7 2c bd 67 69 a6 3e ef 09 d6 3d
       -0.25675306 -0.042167455 0.3250229 0.104511134
000390 42 13 38 bc f2 5b 88 3e a4 e3 da 3d 33 75 50 3d
       -0.01123506 0.2663265 0.1068795 0.05089302
0003a0 77 19 eb bd ed b9 d6 bc 7c d0 0c bc 03 91 6c be
       -0.114794664 -0.026211703 -0.008594628 -0.23102193
0003b0 24 53 84 3e 78 8b 88 3e 88 a5 4d be cf 81 1f be
       0.2584468 0.26668906 -0.20082676 -0.15576862
0003c0 a9 c8 6f 3d ef c0 bb be dd a0 92 be c3 e9 9e be
       0.058540974 -0.36670634 -0.28638354 -0.3103772
0003d0 ac 47 05 be b5 73 07 bd 50 0c fb bc cc 94 6a 3d
       -0.13015622 -0.03306933 -0.03064552 0.05727081
0003e0 03 76 4d 3e 78 0e 00 3e 58 9f 86 be 64 ed 8b 3d
       0.20064549 0.1250552 -0.26293445 0.06832388
0003f0 b6 29 74 3e d7 a2 df bd 64 50 96 3d a6 77 4c bd
       0.23844036 -0.10919731 0.07339552 -0.049918793

net.4.bias f4 [3]
000000 9b 09 b4 3d 4f 7c 29 bd 32 6f c9 bd
       0.087908946 -0.041378316 -0.09835662
