stock_label7_model.pth (torch, 90934 bytes, 6 tensors)

net.0.weight f4 [128, 29]
00000000: 84fe 4b3d 7984 50bd c72e 9d3d 0302 c1bc
00000010: 21ad d83d 0ecd 223d 3610 333e 0f0d 5ebe
00000020: 79a2 a03e 7d88 2dbe fa8b e0bd a03a 4dbe
00000030: c46b 9ebe 39fb aebd fde5 da3c e258 2e3e
00000040: 91a1 6cbe fa2a d9bc 52bc 5abe 74e0 a23d
00000050: 4d87 983d 6803 f23d 8e4f b0be 2b2d 2f3e
00000060: 3dc1 2abd 3f76 dc3d 53f8 0d3f ec3c 2b3d
00000070: e8d3 27be 7612 81be efad 6fbe 699b c8bd
00000080: 24fa b7bc 9159 383d 4ae0 2d3e 16d5 41bc
00000090: 40e2 6d3d 0365 383d 732a 5cbe 028b b53c
000000a0: 01da 99bc 76ea 343e 1940 ec3d 5f18 793d
000000b0: 1191 b2bc abdb b93c 05fd 63be 509c 36be
000000c0: ddd0 4c3d 9298 8fbe e5c5 08be 17c3 473e
000000d0: 049b fbbd 9a6e 9cbd 14fc 103e dc2f 233e
000000e0: d935 84bd 2dec b1bd d686 223d 11d2 7dbe
000000f0: c644 d3bd 5d94 abbd 7e06 ca3c 57ef f7bd
00000100: 3869 72be 1f3c 0abe 973d 5abc 7c41 c3bc
00000110: 1830 d4bd b8a1 073e b2fd 513e 8aa8 463d
00000120: 1da0 323e 6e0d 48be 5d19 55be 9682 69be
00000130: 94ed dd3e 6ea0 423d 7dab c6bd 966c 88be
00000140: 24cf 46bd d5fe ce3b 7cc1 b4bd dba0 45be
00000150: ed62 743e 236a 50bd 4ecc c4be 1a34 ecbc
00000160: 261d a4be 9606 18be a682 90be f320 e3bd
00000170: 3c78 50be ea98 a53d 1abd 90be 2327 23be
00000180: 2b04 93be 75dd 4fbd 4a09 37be bc8e 643e
00000190: 08b6 cf3d da04 4abe 13e4 a33d 5068 6fbe
000001a0: 35eb 13bd 7855 6a3e 1a04 04be 6df0 3d3d
000001b0: ca94 673a d5a6 e53e 7bb8 6dbe 5346 67bd
000001c0: 533d 383e 6ffc d8bd b304 39bd dc60 fe3d
000001d0: bc49 cebd 61e1 4a3e 9081 d03d 2980 0fbe
000001e0: 91d2 b53e 0a84 0a3e 641a 933d 0577 7abd
000001f0: f4ef a03e 4c9d 683d 4875 b33d 08a6 00be
00000200: ad4c c1bd 4d21 44be 31e8 cd3d 76f8 a23e
00000210: 3957 a7bc f8ad e7bd 0ff9 843e 0893 d73d
00000220: 0400 9dbd 7da8 613e 61c2 d0bd 256d 893e
00000230: 5ab8 ec3d 5491 aa3d 5442 bbbe 0942 bdbd
00000240: b3b1 6e3e 5486 3a3b 0677 13bd 99b2 6ebd
00000250: 0c39 26be d8ee 09be 3ea1 5b3e 862c 163e
00000260: b492 063e 7a3a 303e 944a 243d 2669 cabd
00000270: fda3 ad3e 2101 763e 05e9 d43d e0fa 44bc
00000280: a590 adbd f33e f4bd be9b 273e 9393 55be
00000290: 8b5a 033e 2137 0f3d 2ac2 04be 9db3 b4be
000002a0: 6fc3 abbe bc5d 313c 4968 873e 4da9 173e
000002b0: 0c5a 1e3d 846a 61bd 1e85 273c 1696 093e
000002c0: e3d2 dcbd 5c0c 3d3e ec5e f1bd 11e5 2dbe
000002d0: a062 8dbe e45e aa3d dd59 21bf 3279 d63a
000002e0: 85ce 793b 8b11 4ebd 5eff 88bc 3630 5abe
000002f0: 9887 42bd e6ff c93d aa43 d23c dc48 a9ba
00000300: 7991 5c3e f93c e5bc 80c7 2a3e 7cbe a9bd
00000310: 4ed3 10bf 76b7 56be 3bb7 4b3d 8c9e d63d
00000320: 72fc cfbd d5f3 b6bb 6429 efbd 7e64 2e3e
00000330: e57e 46be db03 7f3d 302c 9e3a afda 32be
00000340: 8a67 51be 9673 953d 79e8 3dbe c9ee 533b
00000350: edd6 063e a00b 4b3e 759a 493e ae6a 1b3e
00000360: 5492 16be 87a2 f4bd 9c46 013e c590 49be
00000370: d41f e83d 0016 313e 81da 103e d6b1 f43c
00000380: 13f0 423d 57ad 563e 1c2d 8ebe 6f77 5c3e
00000390: 2881 1d3e df67 01be 12e6 4cbe dceb 91bd
000003a0: 236d 8b3c 14d9 3bbe b1a6 ae3d 07ff 9f3c
000003b0: 9fb9 863e 3981 1abe df72 e03c ee7c 083e
000003c0: cfc7 4b3d b399 343d 84bd 6b3e db62 a53e
000003d0: c968 aa3c ce2e ef3d 10ce 76be 2574 823d
000003e0: 96e1 733d 752a d63d fce1 7cbe e500 133d
000003f0: 4cce 0c3e d6bf 55be 73a4 713e c2da a5be
0.049803272 -0.050907586 0.07674938 -0.02356053 0.10579897 0.039746337 0.17486653 -0.21684669
0.31373957 -0.16946597 -0.109641984 -0.20041895 -0.30941594 -0.08544011 0.026720995 0.17026094
-0.23108508 -0.02650975 -0.21360901 0.07952967 0.074476816 0.11817056 -0.34435695 0.17107074
-0.041688193 0.10764741 0.5545704 0.041806147 -0.1638943 -0.25209397 -0.23406194 -0.09795267
-0.022458144 0.045007292 0.1698009 -0.011830589 0.058077097 0.045018207 -0.21500568 0.02216101
-0.01878071 0.17667565 0.11535663 0.060814258 -0.021797689 0.022687754 -0.22264488 -0.17833066
0.050003875 -0.2804609 -0.13356741 0.19508015 -0.12285426 -0.07638283 0.1415866 0.15936226
-0.06455583 -0.08687625 0.03967937 -0.24787165 -0.10315852 -0.083779074 0.024661299 -0.12106197
-0.2367295 -0.13499497 -0.013320348 -0.023834936 -0.10360736 0.13245285 0.20506933 0.048500575
0.17443891 -0.19536373 -0.20810457 -0.22803721 0.4334532 0.04751628 -0.097006775 -0.26645344
-0.04853739 0.0063169994 -0.08825967 -0.19299643 0.23865862 -0.05088247 -0.38437122 -0.028833438
-0.32053488 -0.14846262 -0.28224677 -0.11090269 -0.20358366 0.08085807 -0.28269273 -0.15932898
-0.28714117 -0.050748307 -0.17874637 0.22320074 0.101421416 -0.19728413 0.08002486 -0.23379636
-0.036112983 0.22884166 -0.1289219 0.046371866 0.0008834122 0.44853845 -0.23214905 -0.05646355
0.17992143 -0.10595023 -0.045170497 0.12420818 -0.100726575 0.19812538 0.10180962 -0.14013733
0.35512212 0.13526931 0.07182768 -0.061148662 0.3143307 0.056790635 0.08762604 -0.12563336
-0.09438453 -0.19153328 0.100540526 0.31830186 -0.020427333 -0.11312479 0.25971267 0.10526091
-0.076660186 0.2203693 -0.10193325 0.26841083 0.115586 0.083285004 -0.36574042 -0.09241111
0.23309974 0.0028461413 -0.03600218 -0.058275793 -0.16232699 -0.13470018 0.21448228 0.14665422
0.131419 0.17209807 0.040110186 -0.09883337 0.33914176 0.24023868 0.103960074 -0.012022704
-0.084748544 -0.11926069 0.16368005 -0.20857076 0.12827508 0.034964684 -0.12964693 -0.35293284
-0.33547541 0.010825571 0.2644675 0.14810677 0.038660094 -0.05503322 0.010224609 0.1343616
-0.10782411 0.18461746 -0.11785683 -0.16981913 -0.27614307 0.0831888 -0.63027745 0.0016363023
0.003811748 -0.0503097 -0.016723331 -0.21307454 -0.047492594 0.09863262 0.02566703 -0.001291539
0.21539868 -0.027983176 0.16677666 -0.08288285 -0.56572425 -0.20968422 0.04973529 0.10479459
-0.10155572 -0.0055832663 -0.116778165 0.17030522 -0.19384344 0.062259536 0.0012067612 -0.17466234
-0.20449653 0.07297437 -0.18545713 0.0032338372 0.13167925 0.19828653 0.19687827 0.15177414
-0.14704257 -0.11945062 0.12624592 -0.19684131 0.11334196 0.17293549 0.14145853 0.029869955
0.047592234 0.20964561 -0.2776879 0.21529935 0.153813 -0.1263728 -0.2000964 -0.07125065
0.017019814 -0.18344527 0.085278876 0.019530786 0.26313493 -0.15088357 0.027398525 0.13328907
0.0497511 0.04409189 0.23021513 0.32301983 0.020801919 0.11678849 -0.24102044 0.06369809
0.059541307 0.10457317 -0.24695581 0.035889525 0.13750571 -0.20873961 0.23597889 -0.3239346

net.0.bias f4 [128]
00000000: 8d74 6bbe 37a1 cabe e4a7 c4be 511f bc3d
00000010: 0131 90be 0730 95be 0860 0dbd e61e 61bd
00000020: 0f49 b5be 5ea4 f8bd 6d92 a33d bdf6 8bbe
00000030: 1e3e e73b 8b32 61bd 52c1 88be 049e 30bd
00000040: 33b1 b9be 0362 ce3d 1063 e6be 35db 3c3d
00000050: 8d14 4fbe b69c 9dbe f923 07be cc2e 85be
00000060: 803f 273d e165 7c3e 0f0f 5bbe 9c57 0e3e
00000070: f2f1 b0bd cf82 53be 668b 3dbe 11a4 823e
00000080: c458 80bd fe5b 343e 74d7 41be 2d33 b0bd
00000090: be67 443e 8aa9 c33c ede6 cd3d 7c1e 2cbe
000000a0: fd61 90be afbd a23d f60f d5be 1619 94be
000000b0: c253 05bf b5e0 9cbe 6df1 8abe 4b3d cebd
000000c0: e1dd 34be da91 acbd a9ab d3bd 48de 9dbd
000000d0: 269e 9ebe ae75 25bd 90ed 81be 10a0 bebe
000000e0: b21d c1bd 2adc dbbd 901d 6ebc 92a5 713c
000000f0: 15b0 61be 68e4 06bf 7e78 a7be 6312 913c
00000100: d588 8bbe 741b 0d3e 9658 373d 709e 59be
00000110: 8058 6dbe a65e 923c 6d69 f8bd 2458 e9bd
00000120: c55a 1bbe 5833 11be 8a30 24be 1996 debd
00000130: 3829 b7be d8b5 d1bb 0636 173e c8d2 303c
00000140: 755c 243c 93d8 04be d360 7cbe 2d9a 56be
00000150: e241 f03c 84a6 17be 0591 ee3d d0f4 103d
00000160: b4b9 573e f5e9 a6bd e6cf fb3c dc7d f7bd
00000170: d01e e7bc 2f07 89be 8dbd 0ebe 9225 2f3e
00000180: 5eb2 093e f906 f8be 19f0 613d 6dca 5e3e
00000190: 9e7c e0be 957a 18be 4ac5 1b3d 3c91 a03b
000001a0: 5435 a9be f94c f63d ee4a 9cbe 18f5 c0be
000001b0: 9397 383e f488 533e 39cc e8bd 1bf4 70be
000001c0: ebf4 0abe ac00 52be c2af 4d3e 36aa 423e
000001d0: 2c5e 66be 2e4f 1bbe ab04 00be 05fb 023e
000001e0: 4b2b 98be f8ef 8abd 586b a13b 04e3 55be
000001f0: 8f71 863d 6004 84bd 4de3 21be 47bf 59be
-0.2299368 -0.39576122 -0.3840934 0.09185661 -0.28162387 -0.29138204 -0.03451541 -0.054961108
-0.35407302 -0.121407256 0.07986913 -0.27336684 0.0070569655 -0.054979842 -0.26709992 -0.043119445
-0.36268005 0.10077288 -0.44997454 0.04610749 -0.20222683 -0.30783623 -0.13197316 -0.26012266
0.040832043 0.24648239 -0.21392463 0.13900608 -0.086398974 -0.20655368 -0.18510208 0.25515798
-0.06266931 0.17613217 -0.18929845 -0.08603511 0.191802 0.023884553 0.10053811 -0.16808504
-0.2819976 0.079463355 -0.4161374 -0.2892539 -0.5208093 -0.30640188 -0.27137318 -0.100702845
-0.17662765 -0.084262565 -0.10335476 -0.077084124 -0.30980033 -0.04039543 -0.25376558 -0.37231493
-0.09429492 -0.10735352 -0.014533415 0.014748948 -0.22039826 -0.5269227 -0.32709116 0.017708963
-0.27252832 0.13780004 0.044762217 -0.21251845 -0.23178291 0.017867398 -0.12129483 -0.113937646
-0.15171345 -0.14179742 -0.16034141 -0.108684726 -0.35773635 -0.0063998513 0.14766702 0.010792442
0.010031809 -0.12973242 -0.2464631 -0.20957251 0.02932829 -0.14809614 0.11648754 0.03538972
0.21066934 -0.081500925 0.030738782 -0.12084553 -0.028212935 -0.26763293 -0.13939495 0.17104176
0.13446948 -0.4844282 0.055160616 0.21756907 -0.43845075 -0.14890511 0.038029946 0.004900126
-0.330485 0.120264 -0.30525917 -0.37686992 0.18026571 0.20657712 -0.113670774 -0.23530619
-0.13569991 -0.20508069 0.20086578 0.19010243 -0.22496861 -0.15166923 -0.1250178 0.12791069
-0.2972053 -0.06784052 0.0049261265 -0.20887381 0.06564628 -0.06446147 -0.15809365 -0.21264373

net.2.weight f4 [128, 128]
00000000: 1c3f 43bf af75 b33c 6f5b efbe 9ce3 bdbb
00000010: cc05 b53e 6235 473c bfff cc3b fd03 23be
00000020: edcb c3bd ab38 6d3c df2a f1be c267 02be
00000030: cd70 813b 79db 8f3b 1f92 333e 286f 7bbe
00000040: f5b2 0bbe ddb6 29bb ecf4 1cbd 6a62 02be
00000050: 7a25 d8bc 02dc 8ebc be4e a8be 826f 333d
00000060: 696a d0be 1f3b b73d 7210 3f3d 110b efbd
00000070: 3b28 28bf 3e31 853e 9a5a 603d d0d8 06bf
00000080: 8bc4 0b3d a896 8ebe 7d3b 9c3d 72ce c6bc
00000090: 4c9c bbbe b5fe 743d 89c3 3dbd 4704 823d
000000a0: bb30 8d3c 0f0e b23d 3877 18bc 6135 ec3c
000000b0: fa45 0ebe 9baa 3c3d 180d e43d 9b54 e83d
000000c0: 7b84 c0be df79 4f3e 5bdc f73b 6a9b e63d
000000d0: 751b f1be 6055 b8be a4f8 cabe 6f7d 7bbe
000000e0: 988a b8bd 5308 a8be 6c35 883d a0d5 01be
000000f0: b98d a2be 23b4 02bd 8827 31be a648 da3c
00000100: 78a3 46be d960 07be fee1 1d3e 1f03 7fbe
00000110: 2939 b8bd 4a07 473e f0c5 61be dcd2 4f3c
00000120: 9e71 0c3e 8676 cd3d d33e fabe 4ba2 51be
00000130: 4f40 a2be 2f27 10be 4397 0cbe 6a18 0f3e
00000140: 4462 54bd 20a1 553d c490 b83d 856f ee3d
00000150: 06de b6bd c622 47be 8877 1bbd 1ab0 52be
00000160: 5e76 03bf 8aea 82be c215 44bb c112 f7bc
00000170: 763e 8fbe a311 7bbe 8fe5 cabe a048 923e
00000180: c370 debd 5ddb b8be 4000 8cbd b0ab b73a
00000190: 6cf9 26bc f59b df3d 7a3c 2f3e 9306 fa3d
000001a0: e4a1 213e 1df7 d93c c7aa 20be 0e02 b5bd
000001b0: aa7b 40bd 4f1e 3bbe fd8f dfbe ca11 d13c
000001c0: 7bfd 473d dd27 93be d173 94bd f399 c83c
000001d0: 5dc2 163d 8112 ae3c b1cd 93bd c43a 63be
000001e0: 5d93 99bd 01bf b3be 6011 4cbd 4408 a63e
000001f0: f0bf 27be 6e73 823e f55b 9e3d 3ba2 6dbc
00000200: a146 4c3d 6128 b33c 80e4 7dbd 0b71 5abc
00000210: 4029 52be 4281 0bbe e0b9 3f3e d89e 4c3d
00000220: 24a1 53be 0c59 57bd b58b 0e3e 4c9f 8a3d
00000230: 3d17 d83d 6c8f 20be ef92 c73c 001a 923d
00000240: e590 3cbc cd96 0cbd 6b05 9bbd 4867 193d
00000250: 9166 173e b75a a33c cd30 3cbe 972b 2cbe
00000260: f782 53bc d0bc e13d 63cf db3d a671 d93d
00000270: 59e2 f43d 4896 d2bb 9fc8 303e 05d4 9cbc
00000280: 9584 4e3d e4dc 3e3c 9d06 6cbd af1f 6ebc
00000290: e5f0 c7bc 79fb cb3c 9a67 58bd 2dd7 e7bd
000002a0: 74cf c03c bb21 d6bd 474d de3c 4b77 00bd
000002b0: e966 ecbe d3fb 3cbe be2e 94be 0ee9 a6be
000002c0: 702a 663d 296a acbd efe4 a03d 8ae9 4b3d
000002d0: 6a0d 3b3c 6ff7 ffbc b990 e9bc 573a 60bd
000002e0: b6b3 80bd 5d4f b43d 44fd 243e 9dfd 8fbd
000002f0: 622c 353e d3f6 043e f796 c5bd 7e53 043e
00000300: 9235 8c3c dd13 8cbd 788f 35bd 32d1 103e
00000310: a8b2 043e a540 5c3c 98c2 513d 5772 433e
00000320: 738c b83d 91bd 6e3d 238f 67bd a341 c5bc
00000330: 0bbe 573c 5eb7 f5bc 90da b73d 47cb c9bd
00000340: 630d 4cbd 5ef1 f2bd 19fe 1e3e b366 313e
00000350: 70d2 113e b79c adbd f9c6 c4bc 245d dfbd
00000360: 3e78 123e 237e d03d 11d1 fc3d a576 b03c
00000370: 555a 83bd abd5 03be 3017 82bd 81d6 fc3d
00000380: 8aa1 d43d d6ea 833e dfbe 873b 5944 273e
00000390: 7d6f ff3b d9c1 4d3e f7f3 e2bd 568d 9abe
000003a0: 6564 10bd 0d9f dcbc 952b 243e 55f3 5cbe
000003b0: c91d 363e 0736 de3d 6b52 d03d 705d cebd
000003c0: ed7e 8bbd e8e3 3b3e 1329 06bd f3ba 2dbe
000003d0: b896 683d b881 5a3c 3474 783e 9f2d 163e
000003e0: 0746 26be d6fb 3d3d 9125 343c 27fc 203e
000003f0: f975 d2bc a4b1 47be 0d8b 04be e504 71bb
-0.7626817 0.021906702 -0.46749446 -0.0057949554 0.35355985 0.012158724 0.0062560732 -0.1591949
-0.0956038 0.014478843 -0.4710302 -0.12734893 0.0039502145 0.004390177 0.1753621 -0.24554121
-0.13642485 -0.0025896349 -0.038319513 -0.12732854 -0.026385058 -0.017438892 -0.32872576 0.043807514
-0.40706185 0.08946823 0.046646543 -0.116720326 -0.65686387 0.2601413 0.054773904 -0.5267458
0.034122985 -0.27849317 0.07628534 -0.024268363 -0.36642683 0.05981322 -0.046329055 0.06348472
0.01723515 0.08694088 -0.009305768 0.028834047 -0.13893881 0.04606114 0.1113531 0.11344262
-0.37601075 0.20261334 0.00756411 0.11260112 -0.4709126 -0.36002636 -0.39642823 -0.24559568
-0.0901081 -0.3281885 0.066508144 -0.12679148 -0.3174875 -0.031910073 -0.17300236 0.02664597
-0.19398296 -0.13220538 0.1541824 -0.24903534 -0.089952774 0.19436374 -0.22048163 0.01268455
0.13715217 0.10032372 -0.48876056 -0.20472066 -0.3168969 -0.14077447 -0.13729577 0.13974157
-0.051851526 0.052155614 0.09011987 0.116423644 -0.08929066 -0.19446859 -0.03795579 -0.2057499
-0.5135249 -0.25569564 -0.0029920195 -0.03016031 -0.2797734 -0.24518447 -0.39628264 0.28571033
-0.10861351 -0.3610486 -0.06835985 0.0014012959 -0.010191303 0.10918418 0.17112914 0.12208285
0.15784413 0.02660709 -0.15690146 -0.088382825 -0.046992935 -0.1827328 -0.43664542 0.025521178
0.048825722 -0.2874135 -0.07248653 0.024487471 0.036806453 0.021249058 -0.07216967 -0.22190386
-0.074988104 -0.35106662 -0.049821258 0.3242818 -0.16381812 0.2547869 0.07732383 -0.014504011
0.049872044 0.02186984 -0.061985493 -0.013332616 -0.20523548 -0.13623527 0.1872325 0.049956173
-0.20666939 -0.052575156 0.13920482 0.06768665 0.10551307 -0.15679711 0.024362056 0.07133865
-0.011509155 -0.034323502 -0.07569393 0.037452012 0.1478522 0.019940717 -0.18377991 -0.16813503
-0.012909642 0.11022341 0.10732915 0.1061738 0.11957235 -0.0064266063 0.17264031 -0.019144068
0.05041941 0.011649344 -0.057623494 -0.014533921 -0.02440686 0.024900185 -0.052833177 -0.113203384
0.023536421 -0.10455652 0.027136458 -0.031363767 -0.46172264 -0.18455438 -0.2894191 -0.32599682
0.056192815 -0.08418686 0.078561656 0.049783267 0.011416772 -0.031245915 -0.028511392 -0.054743137
-0.06284277 0.088042 0.16112238 -0.07030795 0.17692712 0.12984781 -0.09647935 0.12922475
0.017115388 -0.06839726 -0.044326276 0.14142302 0.12958777 0.013443147 0.05121097 0.19086586
0.090111636 0.058286253 -0.05653299 -0.02407915 0.013167868 -0.029994663 0.08977234 -0.09853225
-0.049817454 -0.118624434 0.15526618 0.17324333 0.14240432 -0.084771566 -0.024020659 -0.10906437
0.14303681 0.10180309 0.12344564 0.02154095 -0.06413714 -0.12874477 -0.06352079 0.12345601
0.10382374 0.25765103 0.0041426267 0.16334666 0.007795273 0.20093478 -0.11081689 -0.30185956
-0.035251994 -0.02693131 0.1603225 -0.21577199 0.177848 0.10850149 0.1017197 -0.100764155
-0.068113185 0.18348658 -0.032754015 -0.16965847 0.05678436 0.013336591 0.24263078 0.1466584
-0.16237651 0.046382748 0.010995285 0.15721188 -0.02569102 -0.19501358 -0.12943669 -0.00367766

net.2.bias f4 [128]
00000000: e9b8 4dbc c7da d93c 4849 d7bd 2caf 14bb
00000010: 7063 31bd fbcd 71be 50cc f93d f36d 083d
00000020: bf83 aebd 6b1e 4d3e 441a 533c db5c 063d
00000030: 3fc5 273d 5031 26bd 1407 2d3e ece6 71bd
00000040: 8ed4 a2bc c73e 5c3d ebdf a33d 06d0 ca3c
00000050: 5ad6 083e ffaf cf3d 342a e03d 0a02 1bbc
00000060: d593 543e 134c 903e 2f6b c13d caee 98bd
00000070: fa55 c1bd af84 35bd 0a32 9a3d 6efd b9bd
00000080: 5533 423e 9125 f9bc 03c7 913d 9e1a cb3c
00000090: b1c3 893e 47b0 99bd faf0 27be 09c1 fabd
000000a0: f7d2 053e 1a54 3d3e 01a9 f6bc fab2 813e
000000b0: 6c53 e3bd 10a6 163e c416 813d d736 103d
000000c0: dfb5 debc ba67 7c3d 2701 773d 8fef a13c
000000d0: b9fa 87be cebd 183e 05b7 df3d 51a6 903d
000000e0: 4203 4abe fd27 383d 6088 1dbe 913d cf3d
000000f0: 52f4 e63d 2fbc 483e 68e1 733e fd22 9dbd
00000100: ec50 02be b4f9 133e 07a1 c83a 2c00 823d
00000110: 21b6 433e e387 153e adcb 70be b2e9 9b3d
00000120: 3d32 b6bd 599a 5e3e a5ae 5a3e c933 3d3c
00000130: 2715 a0be a616 12bd ae30 233e 5d48 5abb
00000140: ad38 f7bb b12e de3d 1848 5bbb da41 ea3c
00000150: ff95 9ebd 194f bc3d 9400 ac3d 583c 4bbc
00000160: ce5e c9bd c0e7 853d b28e 8e3c f816 7f3e
00000170: 7871 13be e5d9 38be e1ab fa3c d6fc d8bd
00000180: 18ee f3bd 18d9 5fbc cac9 4b3d 4e27 70bd
00000190: 3da2 c0bc 617f 113e 9d7e 4a3e 37fe eebd
000001a0: 860d f33c c5bf 393a 4c10 7a3d f30d da3d
000001b0: 2d2a 3dbd 5494 25bd 50b6 37bd 075d ba3d
000001c0: 96cb 42bd 271e 703c 9797 ea3d 9158 09bd
000001d0: 5d98 40be 8631 bfbd b751 073e 1e2f 473d
000001e0: ab8b dbbd 57f1 edbb 64a3 eabd 61d3 003e
000001f0: 7a7d 35bd cdca e63d f6f6 68be 85a9 86bd
-0.012556293 0.026593579 -0.10512024 -0.0022687418 -0.04330772 -0.23613732 0.12197173 0.03330798
-0.08521222 0.20031135 0.01288468 0.032803398 0.040959593 -0.04057437 0.16897231 -0.059058115
-0.019876745 0.053770807 0.08001693 0.024757396 0.13363019 0.101409905 0.109455496 -0.009460935
0.20759518 0.2818304 0.09444272 -0.074674204 -0.09440227 -0.04431599 0.075290754 -0.09081541
0.18964894 -0.03041342 0.071180366 0.024792966 0.26907113 -0.07504325 -0.16400519 -0.1224385
0.13068758 0.18489113 -0.030109884 0.2533186 -0.11099896 0.14711785 0.0630317 0.03520855
-0.027186332 0.06162236 0.060303833 0.01976755 -0.26558474 0.14916155 0.1092358 0.07062972
-0.19727805 0.04496001 -0.15384054 0.10119165 0.11277069 0.19603036 0.23816454 -0.07672689
-0.12726182 0.14450723 0.0015306779 0.06347689 0.19112445 0.14602618 -0.23515196 0.07612933
-0.08896301 0.21738566 0.21355684 0.011547991 -0.31266138 -0.03566613 0.15936539 -0.0033307292
-0.007544598 0.108487494 -0.003345972 0.028595854 -0.07743453 0.09194774 0.08398548 -0.012404524
-0.09832536 0.065383434 0.017402027 0.24911106 -0.14398754 -0.1805187 0.030599536 -0.105951
-0.11910647 -0.013662599 0.049752988 -0.058631234 -0.023514861 0.14208747 0.19774862 -0.116695814
0.029669534 0.0007085766 0.0610507 0.10647192 -0.0461828 -0.04042466 -0.0448516 0.09099775
-0.047557436 0.014655626 0.11454695 -0.03353173 -0.18808122 -0.09335618 0.13214765 0.04862892
-0.10719999 -0.007261436 -0.114569455 0.12580635 -0.044309117 0.1126915 -0.22750458 -0.06575302

net.4.weight f4 [3, 128]
00000000: 8c10 ecbe 0cfb babd 16f0 723e 41cb 40bd
00000010: 2d12 423e 546b 573e 5ffb acbe 724a 983d
00000020: 899a 643d 066e b63d a87b 65bd 89e7 01bd
00000030: 1f2a acbc cd16 bc3d bd3a d43c 0489 a53c
00000040: 6c83 22bd 7c84 613e 6ac9 82bd 0785 b23e
00000050: ded4 b2bd f674 35bc 3a42 963d d7ea 89be
00000060: 1351 323d d172 323e df80 b8bd 32e1 313d
00000070: ca15 ccbd 27b4 fa3e dc63 103d 83f9 003f
00000080: d984 54bf c948 9cbe 9b8e 1ebf 3ebb 183e
00000090: 4896 03bd 2615 93bd 143d a7be 32ba 853e
000000a0: 0609 97be bf83 08be 75cd 923d 3fd8 893b
000000b0: 4706 003e 8261 e4bd e198 b4bd fd37 4e3d
000000c0: 46ca 163f e510 c3be fdd4 52bd 8f9f 3c3c
000000d0: 4886 1cbf 0994 83bc ce91 89be bb0f 0abf
000000e0: 5b84 be3e 15e1 323e 73e5 c0be 81aa d13e
000000f0: 30d6 053d bbb7 d9bd 6d91 033d b0ce abbe
00000100: c1f4 ed3b 1ce5 69bd be32 90be 2ff9 2fbe
00000110: 9eed f63d 71f7 5abd aab3 02bf 7712 383d
00000120: c3f2 623e 4cf6 d93d 31b1 e4bb 25ef 113f
00000130: e069 943e 2dcd ef3e 616c 0f3e 98b4 1abd
00000140: df92 973e c9c4 c23d d197 663c 6ce3 a2be
00000150: 2673 423e 48da ec3c b966 d1bc c6ca ba3e
00000160: 4adf 6d3d 340e 88be df6f 9ebe 257e 54bd
00000170: 8a2a d63e 064c 42bf 04c1 aebd 9b67 003c
00000180: b370 e23e 91de 06bc c788 a73e edb3 d9bd
00000190: 0ea7 b8bd 06ad c83d 728f 2ebe fe95 2e3d
000001a0: 4fb2 8cbe 2624 cabe 47c6 d53c 1eab 23be
000001b0: ba98 ba3d 5cfc 65bd ab46 63bc 9d0e 643d
000001c0: a3f1 183e 4712 59be 40bf 03be bec8 86bd
000001d0: a98d 8abe 62e7 3c3e 3dcf ebbc c893 98be
000001e0: 1e41 19bc aa60 b3be 27fc 303d 2b8d 803c
000001f0: 6d07 5e3d 4acf 1bbe f54a 1a3e 590d 0cbd
00000200: b769 aabe ff72 b33d 5604 023d 9e90 0d3e
00000210: dc87 b4be ba2b 8dbd a054 ca3d b9b9 d1bc
00000220: c5d1 863e f44b f03d 6595 ccbe 3c33 56bd
00000230: 0dd0 a2bc e973 223e d127 7b3d 9872 8cbc
00000240: 5bf9 32bd ffa8 2a3e b720 75bd c221 803d
00000250: 789b 873d d30c a33d 101c debe aa07 973e
00000260: 513c d53e cbbd 3a3d 6ab9 7f3c 7299 5b3d
00000270: 72e7 5dbd 6e4b 8bbe 4abb ae3d f352 f1be
00000280: 700d 22be f4b9 81be 60da bcbd 260e 1c3e
00000290: 848a a9bb f1d4 88bc af31 9dbe 96b5 cabe
000002a0: 19ef 1f3e 1394 253e 9d5c 8cbd ebd2 843e
000002b0: 09ed febd f33a edbc 8799 c83d 9c17 82bc
000002c0: d481 f2be 838c 723e 0cd3 0d3e c917 a93d
000002d0: 8dd1 25be 2ca7 af3d 4b0f 14bd 3499 bc3e
000002e0: 2684 d6be a178 9a3d fe28 003f 5711 86bd
000002f0: 2141 923c e046 c83c 44c5 db3d cf5d 823e
00000300: cee3 5a3d b3fb 34bd b0de 4a3e 0bf7 493d
00000310: 72dd 973d 256d 943d 24ae c13d a761 4d3e
00000320: 218f 0ebf 8d76 913d ac3f 1d3d f660 aabe
00000330: 8e41 4abe 5860 e5be 803c 243d 6d20 92bd
00000340: 96ce 8ebd 1d30 993d 8409 43be 524b 1e3e
00000350: 7f3f 8cbd 31d6 e33c d793 793d e467 30bd
00000360: 5741 b8bc 14a7 343e c3a3 a83e f6ae 5f3d
00000370: ffd4 e8be caaf 62be 3ff7 6f3b bc47 05bd
00000380: cb71 72be ec93 82bc ba1e 9abe 57a0 8bbe
00000390: bea0 7fbd 7a08 913d 418c 4d3e 8c45 21bc
000003a0: 6146 d13d 1784 e33e a678 073d c579 e5be
000003b0: c4f7 99be e0b3 3fbd 418a 4f3c 0705 4d3e
000003c0: dfa5 8dbe b2ba c2be 7966 a13d 2b34 4cbd
000003d0: e3b3 cbbe 3571 0abe 8a16 873c c20c a2bd
000003e0: 9c1e 0b3d 8ed3 973d 3cac 3a3d 746b 133c
000003f0: 050a 6bbb d4cc 343e ebf6 c0be 0ff9 72bc
-0.46106374 -0.09129915 0.23724398 -0.047068838 0.18952246 0.21037036 -0.3378553 0.07436074
0.05581144 0.08907704 -0.05602613 -0.03171495 -0.021016179 0.091840364 0.025906915 0.020206936
-0.039676115 0.22023195 -0.06386073 0.34867117 -0.087320074 -0.011075249 0.073368505 -0.2693698
0.04353435 0.17426611 -0.09008955 0.043427654 -0.099650934 0.4896557 0.035251483 0.50380725
-0.8301521 -0.3052428 -0.6193635 0.14915177 -0.03212574 -0.07181768 -0.32663786 0.26118618
-0.29499072 -0.13331507 0.07168094 0.0042066867 0.12502395 -0.11151411 -0.08818222 0.050346363
0.58902395 -0.38098827 -0.051472653 0.011512651 -0.61142397 -0.0160618 -0.26869053 -0.5393025
0.37210354 0.17468674 -0.37675056 0.40950397 0.03267497 -0.10630747 0.03212111 -0.33556128
0.007261843 -0.05710326 -0.28163713 -0.171849 0.12057041 -0.053458635 -0.51055396 0.044939484
0.22162919 0.106426805 -0.0069791307 0.5700553 0.28987026 0.46836224 0.14006187 -0.037769884
0.2960424 0.0951019 0.014074282 -0.31814134 0.18989238 0.028912678 -0.025561677 0.3648283
0.058074273 -0.26573336 -0.30944726 -0.051878113 0.4182933 -0.7589725 -0.085329086 0.0078372015
0.44226608 -0.008231775 0.3272154 -0.10630021 -0.09016238 0.097986266 -0.17046908 0.042623512
-0.2747979 -0.39480704 0.026095523 -0.15983245 0.091111615 -0.05614887 -0.013871829 0.055678
0.14935927 -0.21198379 -0.12865925 -0.06581257 -0.27061203 0.1844764 -0.028785342 -0.29800248
-0.009353904 -0.35034686 0.04320922 0.015692314 0.0542063 -0.15215793 0.15067656 -0.034192417
-0.3328378 0.08762168 0.031742416 0.13824698 -0.35259902 -0.06893106 0.09879422 -0.025601255
0.26331916 0.11733237 -0.3995773 -0.052294955 -0.019874597 0.15864529 0.06131727 -0.017144486
-0.043694835 0.1666603 -0.059845652 0.06256439 0.0662145 0.079614304 -0.43380785 0.29498035
0.4164758 0.045591157 0.015608171 0.053613134 -0.0541758 -0.27205986 0.08531816 -0.47133598
-0.15825438 -0.25337183 -0.09221339 0.15239772 -0.005173983 -0.0167031 -0.30701968 -0.39591664
0.15618552 0.16169767 -0.06853602 0.25942168 -0.124475546 -0.028958773 0.09794908 -0.015880398
-0.47364676 0.23686413 0.13850039 0.0825649 -0.16193219 0.085768074 -0.036147397 0.36835635
-0.41897696 0.075425394 0.5006255 -0.06546276 0.017853322 0.024447858 0.10730985 0.25462195
0.053439908 -0.04418535 0.19811511 0.049307864 0.07415284 0.0724738 0.09457043 0.20056783
-0.5568715 0.0710269 0.0383908 -0.332771 -0.1975157 -0.44800067 0.04009676 -0.07135091
-0.06972997 0.0747988 -0.19046599 0.1545842 -0.068480484 0.027812095 0.060932007 -0.043067828
-0.022492094 0.1764186 0.3293744 0.054610215 -0.45475003 -0.2213737 0.0036615876 -0.032539114
-0.23676221 -0.015939675 -0.30101568 -0.27270767 -0.062409155 0.07081695 0.20073034 -0.009843241
0.10218502 0.44436714 0.033074044 -0.44819465 -0.30071843 -0.0468024 0.01266724 0.20021449
-0.27665612 -0.38033062 0.07880873 -0.04985444 -0.3978568 -0.13519748 0.01649024 -0.079125896
0.03396474 0.07413398 0.04557441 0.008997787 -0.0035864126 0.1765626 -0.37688383 -0.014829888

net.4.bias f4 [3]
00000000: f18e 88bd 21b9 8e3e d31e 38be
-0.06667889 0.27875617 -0.17980509
