stock_label3_model.pth (torch, 91289 bytes, 6 tensors)

net.0.weight f4 [128, 28]
0.08432505 -0.22429742 0.029780114 -0.16122015 -0.39737317 0.1813841 -0.016439974 -0.12152679
-0.04159474 -0.12921272 -0.19040625 0.267607 0.114317745 -0.05767187 -0.24277867 -0.20086439
-0.26329964 -0.005857943 -0.08671648 -0.23300023 -0.08325117 -0.16538833 0.52377594 -0.054242197
-0.08219406 -0.040383007 0.011462803 -0.07807051 -0.17283353 0.09985336 -0.10032632 0.14224726
0.04463835 -0.5340643 0.18031597 -0.14528458 0.08703706 0.09856376 0.07284942 -0.0732667
0.12767544 0.14137745 0.16908509 -0.3868519 0.16259953 -0.1795586 0.2945185 0.1366623
0.027986405 -0.14969112 -0.12318913 -0.119649395 -0.16964805 0.14534938 0.11920176 -0.0004108782
-0.19670959 -0.16768667 -0.011516775 -0.15592796 0.017412247 -0.23967864 0.007903586 -0.16124183
-0.025699493 -0.19465373 -0.15620343 -0.17571117 -0.06600882 -0.07840375 -0.04546336 0.29572973
-0.2045572 0.11975803 0.086803794 -0.19645463 -0.11521831 -0.20084842 0.18439656 0.30598655
-0.047433276 0.03257372 -0.39652663 -0.38385868 0.067846745 0.09494157 0.059635207 -0.055581074
0.10241347 0.041130416 -0.024971941 -0.01606376 0.1132067 -0.1610844 -0.16164705 -0.38021007
0.22080329 0.05210105 0.12210896 -0.12372499 -0.028821275 -0.16694723 -0.013970591 -0.085688174
-0.1673718 0.118281595 -0.13100015 0.23484983 -0.46177462 0.07033039 0.070411876 0.2827251
0.06227183 -0.16800156 0.095316574 -0.18988308 0.12862763 -0.2127459 0.10199748 -0.038503338
-0.31556094 -0.18515949 -0.1224604 -0.07829934 -0.11993572 0.02768037 -0.27126497 -0.19902332
0.12899768 -0.18283415 0.20336701 0.017861808 0.12260787 0.07170224 -0.6587539 0.061532624
0.252717 0.030516623 0.21297769 -0.14044864 0.04062948 -0.06993365 -0.077283904 0.030859893
-0.6305347 0.028548347 0.008821401 0.008603628 -0.10691136 -0.1909492 0.28124198 0.07230803
0.16207053 -0.26654896 -0.19597544 0.062598474 0.042850755 0.13353884 -0.023537293 -0.19205852
0.022574775 0.08341763 0.260106 0.10262182 -0.07047019 -0.056302544 0.30154103 -0.2219333
-0.072281055 0.093704015 -0.01277318 -0.046589207 -0.2887256 0.1161423 -0.06344045 -0.12496604
-0.20686157 -0.02252083 0.16398394 -0.41176337 0.27707165 0.0075620813 0.15256903 -0.26499212
0.17151013 0.11675427 -0.1303068 -0.13707669 0.08153727 0.12615186 -0.054694895 -0.19710538
-0.2708017 0.05616824 0.3967828 -0.044662513 0.070510596 -0.002134545 0.09880634 0.11666919
0.15479764 -0.45479867 0.08069012 -0.07977912 0.2793386 -0.025576495 -0.15219563 0.1265326
0.0281319 -0.07162521 -0.07119847 -0.07838332 0.02730098 -0.058568306 0.013249626 -0.10946126
0.13186195 0.02360104 -0.11892541 0.29706457 -0.06351504 -0.21112305 0.030009506 0.57296586
0.06903848 0.09562454 -0.12419128 -0.15147974 -0.0612624 0.10046479 -0.23423468 -0.23269029
0.40590703 -0.03955756 0.060404923 0.20263939 -0.31423706 -0.09299923 0.10768635 0.1390097
-0.11541418 -0.13168092 0.19904369 -0.037339322 -0.16438936 -0.13078444 -0.026828062 -0.19406477
-0.031313535 -0.050580535 -0.037899956 -0.073724985 0.14739107 0.1564287 -0.14855991 0.04403437
00000000: 9db2 ac3d 39ae 65be 6df5 f33c e516 25be
00000010: 7f74 cbbe c1bc 393e 20ad 86bc 0ae3 f8bd
00000020: 3f5f 2abd 5750 04be dbf9 42be c903 893e
00000030: 6c1f ea3d 5739 6cbd f99a 78be 65af 4dbe
00000040: 36cf 86be fdf3 bfbb 6998 b1bd 9d97 6ebe
00000050: 977f aabd 8f5b 29be 2e16 063f 112d 5ebd
00000060: 5c55 a8bd a768 25bd 7bce 3b3c 6ee3 9fbd
00000070: 46fb 30be eb7f cc3d e377 cdbd 44a9 113e
00000080: b4d6 363d 70b8 08bf c0a4 383e 7bc5 14be
00000090: 7c40 b23d ccdb c93d 1432 953d da0c 96bd
000000a0: 5abd 023e 40c5 103e a424 2d3e 7411 c6be
000000b0: 7e80 263e 36de 37be 21cb 963e 34f1 0b3e
000000c0: bf43 e53c a148 19be 954a fcbd be0a f5bd
000000d0: 38b8 2dbe 78d6 143e 0d20 f43d 236b d7b9
000000e0: 3d6e 49be 0eb6 2bbe dbb0 3cbc 94ab 1fbe
000000f0: 21a4 8e3c 516e 75be 0b7e 013c 941c 25be
00000100: be87 d2bc 4f53 47be cbf3 1fbe a1ed 33be
00000110: a22f 87bd 2592 a0bd ca37 3abd e369 973e
00000120: 7177 51be b343 f53d 30c6 b13d 672b 49be
00000130: 94f7 ebbd 35ab 4dbe 74d2 3c3e 45aa 9c3e
00000140: 6549 42bd 056c 053d 8a05 cbbe 2089 c4be
00000150: 3cf3 8a3d ba70 c23d 0c44 743d fba8 63bd
00000160: 27be d13d 5e78 283d f591 ccbc 2598 83bc
00000170: ead8 e73d 4ff3 24be ce86 25be e5aa c2be
00000180: 421a 623e e967 553d 4314 fa3d 8763 fdbd
00000190: 981a ecbc 37f4 2abe e8e4 64bc 487d afbd
000001a0: 8363 2bbe 9f3d f23d e724 06be 797c 703e
000001b0: b96d ecbe 6109 903d 1a34 903d 58c1 903e
000001c0: bf10 7f3d 9a08 2cbe 5635 c33d b670 42be
000001d0: f6b6 033e 10da 59be 0ee4 d03d adb5 1dbd
000001e0: 3491 a1be 739a 3dbe 85cc fabd 685b a0bd
000001f0: dca0 f5bd f1c1 e23c 3ee3 8abe c5cc 4bbe
00000200: f817 043e e038 3bbe 713f 503e ed52 923c
00000210: d619 fb3d a0d8 923d 18a4 28bf a209 7c3d
00000220: 1f64 813e fffd f93c d316 5a3e c5d1 0fbe
00000230: 196b 263d 6039 8fbd 0647 9ebd e3cd fc3c
00000240: b96a 21bf 39de e93c a387 103c 3bf6 0c3c
00000250: 58f4 dabd 3088 43be f3fe 8f3e 3c16 943d
00000260: d1f5 253e 1b79 88be c9ad 48be a133 803d
00000270: 4684 2f3d 68be 083e 48d1 c0bc fdaa 44be
00000280: bcee b83c ddd6 aa3d 9d2c 853e 642b d23d
00000290: ad52 90bd 7f9d 66bd 9663 9a3e 7c42 63be
000002a0: 1708 94bd e4e7 bf3d 9a46 51bc 53d4 3ebd
000002b0: d8d3 93be 04dc ed3d 11ed 81bd 32ee ffbd
000002c0: 85d3 53be 9b7d b8bc 68eb 273e a6d2 d2be
000002d0: 56dc 8d3e 56cb f73b 0e3b 1c3e 0cad 87be
000002e0: 5aa0 2f3e dd1c ef3d 256f 05be d55d 0cbe
000002f0: 03fd a63d f42d 013e c107 60bd fed5 49be
00000300: 85a6 8abe ab10 663d 1d27 cb3e 0af0 36bd
00000310: dc67 903d b9e3 0bbb fa5a ca3d 42f0 ee3d
00000320: 4683 1e3e 5fdb e8be dd40 a53d 3c63 a3bd
00000330: 7805 8f3e cc85 d1bc 2cd9 1bbe c391 013e
00000340: df74 e63c 3db0 92bd 81d0 91bd 6f87 a0bd
00000350: 4ea6 df3c 52e5 6fbd f614 593c 3a2d e0bd
00000360: d206 073e f856 c13c 2a8f f3bd d918 983e
00000370: 2c14 82bd a430 58be 7fd6 f53c e4ad 123f
00000380: 0c64 8d3d ccd6 c33d ff57 febd 811d 1bbe
00000390: 48ee 7abd 7cc0 cd3d 37db 6fbe 5d46 6ebe
000003a0: 0cd3 cf3e 1c07 22bd 276b 773d b380 4f3e
000003b0: aee3 a0be 6176 bebd a98a dc3d 8f58 0e3e
000003c0: 455e ecbd 5dd7 06be 1cd2 4b3e 1ef1 18bd
000003d0: af55 28be 5bec 05be 86c6 dbbc eab8 46be
000003e0: 9f42 00bd 892d 4fbd fc3c 1bbd 20fd 96bd
000003f0: afed 163e d82e 203e 1720 18be 625d 343d

net.0.bias f4 [128]
0.10359656 0.09693723 -0.12299125 -0.25530675 -0.09648026 -0.312571 -0.27213457 -0.0901327
-0.30806738 -0.13642909 -0.3195401 -0.5551379 0.030936988 -0.24083841 -0.22180878 -0.0045860303
-0.049773443 0.132769 -0.3506855 -0.3372719 -0.2337045 -0.3471889 0.1336584 -0.1175216
-0.04599401 -0.4979578 -0.047895323 0.19904505 -0.6476444 0.2306223 0.29233593 -0.39530405
-0.10964547 0.020906448 -0.28260392 -0.33802617 -0.4949687 -0.015135983 -0.38410386 0.19255961
-0.13831139 -0.09031984 0.15614265 -0.501012 0.06937734 0.09875841 0.00873274 -0.40348148
-0.44510654 0.09966812 -0.097955324 -0.024244992 -0.021736572 -0.1634339 0.21186669 -0.08750714
-0.08697651 0.013898009 0.1955414 -0.042188525 0.12677217 0.055253636 0.19910434 -0.10878886
-0.27656457 0.060464103 0.14136693 -0.51180744 -0.20582806 -0.41933584 -0.6669121 -0.050076626
-0.04550657 -0.13995436 -0.4813567 -0.30886075 -0.05099221 -0.0971513 -0.25240463 -0.09566179
-0.47446454 -0.3708916 0.05241207 -0.051426385 0.093289934 -0.041380703 -0.081700906 0.018414158
-0.13413435 -0.18368083 -0.1413824 -0.2948283 -0.31055558 -0.35297987 -0.15235019 -0.36480513
-0.34791 0.051480997 0.22807024 0.13346663 -0.19636342 0.17566761 -0.51593286 -0.4246113
0.14018707 -0.46626073 -0.18824221 -0.5102311 0.090979114 0.097926915 -0.04090219 -0.31955472
-0.15143448 -0.06792631 -0.41820604 -0.36136788 0.05172964 -0.4559403 0.26297852 -0.18935703
0.03931094 0.09148008 0.22984071 -0.19553727 -0.1861366 -0.41375092 -0.4556993 0.030049289
00000000: 6f2a d43d 0787 c63d d6e2 fbbd 91b7 82be
00000010: 7197 c5bd 4e09 a0be 3955 8bbe 7e97 b8bd
00000020: 02bb 9dbe 11b4 0bbe c39a a3be 841d 0ebf
00000030: 916f fd3c 589e 76be d721 63be 6946 96bb
00000040: 3ddf 4bbd 99f4 073e 0d8d b3be e7ae acbe
00000050: 3c50 6fbe bec2 b1be bfdd 083e 2aaf f0bd
00000060: 3764 3cbd 53f4 febe e32d 44bd 77d2 4b3e
00000070: 06cc 25bf 4128 6c3e 0ead 953e 4b65 cabe
00000080: ce8d e0bd 0044 ab3c 76b1 90be c411 adbe
00000090: 8a6c fdbe eafc 77bc 43a9 c4be 592e 453e
000000a0: 80a1 0dbe 9cf9 b8bd dce3 1f3e 5342 00bf
000000b0: b515 8e3d d941 ca3d c413 0f3c 2095 cebe
000000c0: 01e5 e3be cd1e cc3d cd9c c8bd 6f9d c6bc
000000d0: e510 b2bc 375b 27be 95f3 583e f236 b3bd
000000e0: be20 b2bd 7ab4 633c 013c 483e e0cd 2cbd
000000f0: 90d0 013e a351 623d 02e2 4b3e b2cc debd
00000100: df99 8dbe 35a9 773d 7ec2 103e d005 03bf
00000110: 97c4 52be 30b3 d6be c0ba 2abf 261d 4dbd
00000120: 1965 3abd 3250 0fbe 6374 f6be ff22 9ebe
00000130: 35dd 50bd 43f7 c6bd 2e3b 81be 54ea c3bd
00000140: 04ed f2be 81e5 bdbe 0aae 563d 79a4 52bd
00000150: cb0e bf3d d07e 29bd ce52 a7bd 4ad9 963c
00000160: 845a 09be d416 3cbe 8cc6 10be bcf3 96be
00000170: 2401 9fbe c7b9 b4be b001 1cbe bdc7 babe
00000180: 4221 b2be bddd 523d 3f8b 693e 7aab 083e
00000190: 7e13 49be 36e2 333e 2d14 04bf a766 d9be
000001a0: 338d 0f3e bab9 eebe 91c2 40be 819e 02bf
000001b0: 4253 ba3d e88d c83d 0e89 27bd ad9c a3be
000001c0: a411 1bbe f31c 8bbd 1a1f d6be 3605 b9be
000001d0: 76e2 533d 0271 e9be 1fa5 863e cfe6 41be
000001e0: 8204 213d e859 bb3d 5d5b 6b3e ec3a 48be
000001f0: 989a 3ebe 29d7 d3be 6b51 e9be ed29 f63c

net.2.weight f4 [128, 128]
-0.053467877 -0.044636462 0.0029972973 0.13745673 0.11311547 -0.052486002 0.053344786 -0.011338315
0.050998207 0.04122737 0.023935053 0.010296034 -0.040661015 -0.15179309 -0.009041598 0.103474446
0.03737279 0.065886125 -0.116750926 0.06454991 -0.028828448 -0.1292399 0.11820653 0.056258593
0.162014 -0.06489126 -0.107806146 0.16170436 -0.21177417 -0.070840456 0.12017845 -0.12337631
-0.063393734 0.08947609 0.101432666 0.0938203 -0.2542568 0.040424448 -0.06857738 0.13043235
-0.1552925 -0.033203736 0.10645112 -0.09958523 0.03645072 0.029568123 0.09441913 -0.2783319
-0.34235406 0.04921996 0.022626007 0.08041624 0.08535245 0.029408345 -0.032586865 0.105080105
-0.05583693 -0.021470565 0.052274834 0.0076110824 0.04812849 -0.03184978 -0.05035754 -0.08972456
0.009656539 0.028294656 -0.06026823 -0.13115713 0.108753055 0.041435435 -0.09632103 0.16683039
0.08861135 0.04304109 -0.070074975 -0.10892692 -0.06567404 -0.09866034 -0.002962312 -0.07341204
-0.1338209 -0.010186352 0.030370975 0.18334454 -0.053080264 -0.08843766 0.060955644 -0.01739492
-0.04103702 -0.0044584754 -0.01556562 -0.07864291 0.06837249 -0.2180457 0.17971389 -0.10171988
-0.09298586 0.13714924 -0.015194737 0.0820017 -0.0074515045 0.038557652 -0.073313855 -0.049207214
0.063157946 -0.20647363 0.033823095 -0.0060954136 0.0031496228 0.043983288 -0.10567626 -0.019018944
0.008574321 0.06963809 0.11626215 -0.08859588 0.09617588 -0.3159355 0.1551936 0.061024148
0.059413195 0.08610789 -0.031451594 0.020545162 0.11879089 0.076023385 -0.061992005 -0.021761434
0.0004975193 0.049855236 0.004461077 -0.011596514 0.018357167 -0.0067012054 -0.01481271 0.021753652
-0.084359586 0.035496652 -0.08530296 0.043395147 -0.10449836 -0.093133025 -0.06734442 -0.053417556
-0.07906989 -0.049158826 -0.049187705 -0.0865913 0.039759777 -0.068152286 -0.03761886 -0.025715379
-0.0770111 -0.08525485 -0.009227184 -0.13429677 -0.047412615 -0.09294557 -0.06269315 0.050759315
0.042850047 -0.03064708 -0.07261694 -0.0426083 0.020745557 0.04049016 -0.04508475 0.029739687
-0.038810033 -0.10974352 0.0065601096 -0.07681469 -0.13886026 -0.008638532 -0.014003394 -0.01725112
-0.078760795 -0.033031203 -0.027227897 -0.08994863 -0.05538062 -0.072416194 -0.03683747 -0.08765665
-0.031025603 -0.07940893 -0.021649674 -0.0765736 -0.071583845 -0.151594 -0.11161942 0.025999954
0.04964648 -0.05600167 0.0065622637 -0.078470305 0.055456072 -0.079093605 -0.024874333 -0.07048706
-0.07128111 -0.11706973 -0.016559837 -0.016191378 -0.071911655 0.045683946 -0.059098877 -0.08651308
-0.04291424 -0.042682216 0.08286601 -0.08176566 -0.037787255 -0.08932565 0.021680865 -0.045654617
-0.0008978892 0.022436148 0.061103106 -0.053484168 -0.015601362 -0.088340096 -0.076284476 -0.040267244
-0.03554902 -0.12961856 0.02510516 -0.09957163 0.064674646 0.050854072 -0.11773451 -0.08423595
-0.11286691 -0.0037523494 -0.00306243 -0.030581214 0.023755385 -0.08605347 -0.058805153 -0.073497035
-0.10079208 -0.06542661 -0.008197924 0.03632156 0.019347321 -0.06718656 -0.07876085 0.033927903
-0.11015646 -0.09489769 -0.018803753 0.012062817 -0.045225225 -0.07113098 0.014910599 -0.075868554
00000000: 2201 5bbd b9d4 36bd 4e6e 443b 75c1 0c3e
00000010: 15a9 e73d 90fb 56bd 1080 5a3d 57c4 39bc
00000020: 7fe3 503d 08de 283d 7213 c43c b2b0 283c
00000030: 2a8c 26bd a66f 1bbe 3623 14bc 69ea d33d
00000040: 3614 193d 4eef 863d 1c1b efbd be32 843d
00000050: a329 ecbc 7757 04be 4416 f23d 696f 663d
00000060: ffe6 253e b5e5 84bd 78c9 dcbd d495 253e
00000070: 54db 58be cd14 91bd 1f20 f63d b8ac fcbd
00000080: 93d4 81bd 3e3f b73d eebb cf3d dc24 c03d
00000090: f32d 82be 1b94 253d 4c72 8cbd 0f90 053e
000000a0: ff04 1fbe a400 08bd 0b03 da3d 57f3 cbbd
000000b0: 5a4d 153d d938 f23c d15e c13d 8581 8ebe
000000c0: 0849 afbe de9a 493d 2d5a b93c 45b1 a43d
000000d0: 44cd ae3d c5e9 f03c ce79 05bd 3d34 d73d
000000e0: 44b5 64bd 0ae3 afbc 231e 563d 6366 f93b
000000f0: 6122 453d ea74 02bd b543 4ebd 83c1 b7bd
00000100: 7636 1e3c 32ca e73c d2db 76bd 0e4e 06be
00000110: ecb9 de3d 34b8 293d f643 c5bd 96d5 2a3e
00000120: de79 b53d db4b 303d 7883 8fbd 1415 dfbd
00000130: 1c80 86bd 6f0e cabd 5923 42bb 0d59 96bd
00000140: 5908 09be a8e4 26bc 8dcc f83c acbe 3b3e
00000150: b16a 59bd ce1e b5bd a0ac 793d cb7f 8ebc
00000160: 6f16 28bd 6718 92bb f106 7fbc 890f a1bd
00000170: e006 8c3d 5f47 5fbe eb06 383e 8352 d0bd
00000180: 5f6f bebd da70 0c3e 59f3 78bc 82f0 a73d
00000190: c02b f4bb a1ee 1d3d 9325 96bd 818d 49bd
000001a0: f458 813d d36d 53be 168a 0a3d 09bc c7bb
000001b0: e769 4e3b d227 343d cc6c d8bd 9ecd 9bbc
000001c0: 4f7b 0c3c 6a9e 8e3d da1a ee3d c271 b5bd
000001d0: dcf7 c43d 4cc2 a1be 12eb 1e3e 75f4 793d
000001e0: 405b 733d 5559 b03d 63d3 00bd 544e a83c
000001f0: a348 f33d 26b2 9b3d 54eb 7dbd 0945 b2bc
00000200: f46b 023a 0135 4c3d 3a2e 923b 4eff 3dbc
00000210: c561 963c c995 dbbb 02b1 72bc b734 b23c
00000220: b8c4 acbd f064 113d 51b3 aebd 1cbf 313d
00000230: 3c03 d6bd 87bc bebd dfeb 89bd 5ecc 5abd
00000240: 65ef a1bd c45a 49bd 0c79 49bd c856 b1bd
00000250: 26db 223d 6d93 8bbd 3c16 1abd 0fa9 d2bc
00000260: ffb7 9dbd 189a aebd 9d2d 17bc 1885 09be
00000270: bb33 42bd 3f5a bebd 4465 80bd 00e9 4f3d
00000280: 8883 2f3d 960f fbbc 31b8 94bd 0a86 2ebd
00000290: 96f2 a93c 03d9 253d c9aa 38bd a5a0 f33c
000002a0: 45f7 1ebd 36c1 e0bd 30f6 d63b 0551 9dbd
000002b0: 6231 0ebe a188 0dbc 7e6e 65bc 3952 8dbc
000002c0: 574d a1bd ba4b 07bd 0a0d dfbc fd36 b8bd
000002d0: cad6 62bd f14e 94bd e3e2 16bd 5485 b3bd
000002e0: 6829 febc 26a1 a2bd a85a b1bc 9fd2 9cbd
000002f0: 8d9a 92bd 753b 1bbe b998 e4bd dbfd d43c
00000300: 1b5a 4b3d 0262 65bd 4208 d73b 0ab5 a0bd
00000310: e825 633d d4fb a1bd 42c5 cbbc 855b 90bd
00000320: d5fb 91bd 41c2 efbd 7fa8 87bc c8a3 84bc
00000330: 6b46 93bd 171f 3b3d aa11 72bd c52d b1bd
00000340: d8c6 2fbd 8cd3 2ebd a8b5 a93d c174 a7bd
00000350: cfc6 1abd 5ef0 b6bd 129c b13c 5600 3bbd
00000360: 5360 6bba 03cc b73c 4047 7a3d 3712 5bbd
00000370: db9c 7fbc a7eb b4bd 093b 9cbd 44ef 24bd
00000380: d99b 11bd baba 04be 56a9 cd3c 36ec cbbd
00000390: 2474 843d 5c4c 503d ca1e f1bd e683 acbd
000003a0: c426 e7bd fae9 75bb 0db3 48bb 7485 fabc
000003b0: a79a c23c cd3c b0bd acdd 70bd 9d85 96bd
000003c0: 146c cebd 63fe 85bd 9650 06bc ebc5 143d
000003d0: 467e 9e3c 1b99 89bd 5e4d a1bd fcf7 0a3d
000003e0: b699 e1bd b859 c2bd 540a 9abc 1fa3 453c
000003f0: 163e 39bd 1fad 91bd 964b 743c f960 9bbd

net.2.bias f4 [128]
0.23294677 0.051293198 0.15568592 0.017855935 0.19010456 0.12638067 0.0034551048 0.10697795
0.22847547 -0.04961061 -0.16258064 0.12972584 0.11901355 0.01165397 0.16434108 0.109751694
-0.007297154 -0.07633222 0.029419763 -0.017412884 0.10579241 0.23242532 0.09320648 -0.019389443
0.05029081 0.08330984 -0.09248696 0.17514655 0.08069592 -0.24072935 0.092205465 -0.33157134
0.11194034 0.16201836 0.2894104 0.10830686 0.1779858 -0.20632395 0.0773438 -0.014840839
-0.07974862 0.029026061 0.21007828 0.2031929 0.041917395 -0.14100063 -0.22549695 -0.33186442
0.18241301 -0.15425873 0.28893298 -0.110004365 -0.032130536 -0.07591193 -0.1957055 0.060875718
0.098939195 -0.2758102 0.0029959627 -0.26845166 0.074253224 0.16925658 -0.017617224 0.06807799
0.21682902 0.016121902 -0.025125954 0.048763532 -0.15701604 0.27267498 0.11149278 -0.10834341
-0.032511733 -0.016591571 0.08370358 -0.022845212 0.2518743 0.08894165 0.12489579 -0.04587147
0.20768924 -0.105863295 0.13049898 0.15884644 -0.25713423 -0.06128562 0.014046795 0.084455736
-0.27265435 0.33564892 0.04609365 0.06899804 0.11153263 -0.37511855 0.12581135 -0.07215098
0.15743461 0.22044271 0.16590498 0.13586974 0.006286769 0.073019326 0.17443962 0.11483947
0.026426768 -0.0036892728 -0.011840118 0.112263784 -0.121543854 0.058394283 0.22536306 0.16068998
0.08362759 -0.13053252 -0.04479507 -0.12572382 0.060790256 -0.13587326 -0.08805635 -0.15203817
0.010331842 0.104686595 0.09073466 -0.15578881 0.106726095 0.031183597 0.17714795 0.015048356
00000000: 9989 6e3e d118 523d 216c 1f3e 9c46 923c
00000010: c5aa 423e ef69 013e 0a6f 623b 4117 db3d
00000020: 79f5 693e 7f34 4bbd 8a7b 26be dad6 043e
00000030: 60bd f33d 4bf0 3e3c 0749 283e 7fc5 e03d
00000040: f71c efbb 1154 9cbd b701 f13c 77a5 8ebc
00000050: b1a9 d83d e700 6e3e 0ae3 be3d 9cd6 9ebc
00000060: bdfd 4d3d 599e aa3d ce69 bdbd 9e59 333e
00000070: e743 a53d c181 76be 38d6 bc3d b8c3 a9be
00000080: fa40 e53d 24e8 253e 9a2d 943e fdcf dd3d
00000090: e941 363e 9646 53be 6d66 9e3d fe26 73bc
000000a0: 3f53 a3bd 10c8 ed3c c31e 573e cd11 503e
000000b0: 93b1 2b3d 7862 10be ace8 66be 22ea a9be
000000c0: 7aca 3a3e 00f6 1dbe 06ef 933e f849 e1bd
000000d0: 4f9b 03bd b777 9bbd 0667 48be d158 793d
000000e0: a2a0 ca3d ff36 8dbe ea57 443b 7f72 89be
000000f0: 1312 983d 9951 2d3e ff51 90bc 796c 8b3d
00000100: 6d08 5e3e 1412 843c f2d4 cdbc 45bc 473d
00000110: d0c8 20be 0e9c 8b3e 5456 e43d 26e3 ddbd
00000120: 062b 05bd 0ceb 87bc c86c ab3d e225 bbbc
00000130: abf5 803e 0a27 b63d 5dc9 ff3d b9e3 3bbd
00000140: 7dac 543e dbce d8bd 86a1 053e a4a8 223e
00000150: 19a7 83be a106 7bbd 8724 663c 21f7 ac3d
00000160: 5a99 8bbe 2dda ab3e b2cc 3c3d d84e 8d3d
00000170: 386b e43d 8a0f c0be b1d4 003e e5c3 93bd
00000180: 8a36 213e bcbb 613e ffe2 293e 7021 0b3e
00000190: 3e01 ce3b 288b 953d 4da0 323e f530 eb3d
000001a0: f37c d83c bac7 71bb 0efd 41bc 8eea e53d
000001b0: fceb f8bd d82e 6f3d 93c5 663e ea8b 243e
000001c0: f144 ab3d 51aa 05be 097b 37bd bfbd 00be
000001d0: 34ff 783d 5c22 0bbe e356 b4bd e5af 1bbe
000001e0: e346 293c ed65 d63d 18d3 b93d 1a87 1fbe
000001f0: 3693 da3d be74 ff3c 4666 353e 618d 763c

net.4.weight f4 [3, 128]
-0.033284612 0.03597738 0.035839025 -0.1744524 0.039149985 0.025175506 0.034441497 0.009507247
0.021470048 0.3949493 0.54462856 -0.07135357 -0.1654923 -0.024612041 -0.05750554 -0.5487577
0.35371792 -0.5641124 0.012167951 0.036147907 -0.04986785 -0.70787823 0.08090239 -0.0426434
0.035644267 -0.4911761 0.14379603 -0.13026404 0.08857686 -0.4192582 0.10607854 0.013364744
0.04285087 0.54421854 0.47753128 0.046192706 -0.12209317 0.17091778 -0.40382186 0.020227436
0.07828736 0.21278687 -0.051272713 -0.0608432 -0.16526307 0.31574357 -0.3104022 0.047504634
-0.5409821 -0.16575705 -0.07851237 0.41459194 -0.28757983 0.04312934 0.09666198 0.06419411
-0.02670809 0.1457556 0.56788146 -0.59575343 0.6158155 0.06874996 -0.35676712 0.48860943
-0.028023949 -0.019757701 -0.2321851 0.092266634 0.121149376 -0.19912225 0.022934917 -0.23312177
0.07877585 0.05635397 -0.096111834 -0.5678034 0.38761672 0.7265292 0.027587088 0.06666627
-0.0151222665 -0.28854474 -0.49971223 0.004976659 0.09648233 0.06557869 -0.27749735 -0.044417165
-0.12531036 -0.14887874 0.79895055 -0.20364527 0.15937197 -0.46090966 0.4091148 0.17503138
0.024022928 0.12364108 -0.06538834 -0.23407009 -0.16325657 -0.20010254 -0.38310736 -0.14143725
-0.2639073 -0.33642167 0.03377504 -0.24541667 0.49602488 0.31912497 0.0063520283 -0.010288465
0.2115696 -0.4738448 -0.18235938 0.10584903 -0.043279476 -0.009556154 -0.35490093 0.4350481
0.08544628 0.17339307 0.07129797 -0.16925442 -0.6156075 0.23368853 -0.04776183 -0.03589035
0.05323764 -0.047312394 0.04213294 -0.424619 0.06655793 -0.0125402855 0.043166995 -0.023860326
0.03702187 -0.2852103 -0.3840541 0.09365521 0.19930446 0.041289814 0.20716964 0.4878357
-0.38868344 -0.26047075 -0.027587237 -0.010880686 -0.006313474 0.059460975 0.07530809 -0.018714517
0.17685561 0.24159507 0.13555042 0.20946193 0.06347036 -0.19263312 -0.07673704 -0.55274016
-0.037235014 0.015160051 -0.08636617 0.05215726 0.03735151 -0.3885475 0.20946115 -0.6604593
0.08660089 0.12644655 -0.008145478 0.08859015 -0.01269746 -0.33458218 -0.439218 -0.25507286
-0.014064235 -0.22196712 0.11095897 -0.28238013 -0.32643226 0.046630852 -0.14635423 -0.065278664
-0.39250162 -0.32493782 -0.6823961 -0.21442087 -0.14436089 -0.67567986 0.1128636 -0.11251454
-0.0075985035 0.062978365 0.29026583 0.05890512 -0.24662341 0.012968338 0.06360432 -0.29192263
-0.3413705 0.04152821 -0.6141355 0.672522 -0.14595684 -0.42979297 -0.025231466 0.0086298715
-0.015145504 0.14941944 0.02462286 0.091350704 0.19384055 0.005941488 0.2886186 0.039278448
0.12436534 0.06047393 -0.62923384 0.28626865 0.1620805 0.09163522 -0.50941217 0.08302162
0.07840201 0.059949566 0.118254736 0.15535252 0.044822164 -0.011505481 -0.17117551 0.12220673
0.0048291734 0.20770685 -0.0114543345 0.378763 -0.25553674 0.021131301 0.026737433 0.061295144
-0.1629347 -0.1896306 0.28950447 -0.18647856 0.026434356 0.030763483 -0.14979206 -0.3864693
0.07377694 0.15496764 0.0780061 -0.103945345 0.15708198 0.011976092 0.1599857 0.06771133
00000000: 7255 08bd 045d 133d f1cb 123d a6a3 32be
00000010: bc5b 203d dd3c ce3c 8712 0d3d 49c4 1b3c
00000020: f4e1 af3c cb36 ca3e c76c 0b3f d221 92bd
00000030: d076 29be 319f c9bc ee8a 6bbd 627b 0cbf
00000040: 841a b53e ac69 10bf 165c 473c d40f 143d
00000050: 3b42 4cbd 8237 35bf 27b0 a53d d9aa 2ebd
00000060: b9ff 113d 6f7b fbbe 443f 133e f063 05be
00000070: c967 b53d 03a9 d6be b53f d93d cdf7 5a3c
00000080: 6584 2f3d e851 0b3f fb7e f43e 9034 3d3d
00000090: fc0b fabd 1205 2f3e bdc1 cebe 02b4 a53c
000000a0: 2055 a03d cde4 593e 5603 52bd b836 79bd
000000b0: b93a 29be 24a9 a13e 0aed 9ebe 3894 423d
000000c0: ce7d 0abf 37bc 29be 18cb a0bd 6545 d43e
000000d0: aa3d 93be 64a8 303d b7f6 c53d 3478 833d
000000e0: edca dabc f540 153e ae60 113f 4c83 18bf
000000f0: 16a6 1d3f c7cc 8c3d 2eaa b6be 042b fa3e
00000100: 7b92 e5bc e7da a1bc eec1 6dbe 4af6 bc3d
00000110: 2a1d f83d b4e6 4bbe 02e2 bb3c 79b7 6ebe
00000120: 3c55 a13d 6cd3 663d 48d6 c4bd 905b 11bf
00000130: b375 c63e d1fd 393f 51fe e13c 5388 883d
00000140: 62c3 77bc 23bc 93be 48da ffbe 3e13 a33b
00000150: 8798 c53d 1f4e 863d 2214 8ebe c6ee 35bd
00000160: 5c51 00be ab73 18be 0688 4c3f 6388 50be
00000170: 6832 233e 5afc ebbe 7f77 d13e 6d3b 333e
00000180: bbcb c43c 8937 fd3d 52ea 85bd 12b0 6fbe
00000190: bb2c 27be aee7 4cbe a626 c4be edd4 10be
000001a0: dc1e 87be 763f acbe b257 0a3d 824e 7bbe
000001b0: f9f6 fd3e 5964 a33e ad24 d03b f390 28bc
000001c0: b4a5 583e c99b f2be 6bbc 3abe 60c7 d83d
000001d0: d245 31bd 6a91 1cbc 93b5 b5be a0be de3e
000001e0: 76fe ae3d f48d 313e ac04 923d 0851 2dbe
000001f0: 7498 1dbf 0c4c 6f3e e9a1 43bd c201 13bd
00000200: b60f 5a3d a4ca 41bd 9793 2c3d a967 d9be
00000210: 864f 883d c575 4dbc e0cf 303d bb76 c3bc
00000220: 3fa4 173d 1607 92be bda2 c4be 4ece bf3d
00000230: 7816 4c3e 821f 293d 4724 543e 9ac5 f93e
00000240: 8401 c7be 6c5c 85be a1fe e1bc e844 32bc
00000250: 42e1 cebb 5a8d 733d 213b 9a3d 304f 99bc
00000260: a319 353e b364 773e bbcd 0a3e 307d 563e
00000270: c0fc 813d 9e41 45be 4f28 9dbd 6180 0dbf
00000280: be83 18bd dd61 783c bfe0 b0bd daa2 553d
00000290: e6fd 183d b3ef c6be fc7c 563e dc13 29bf
000002a0: cf5b b13d 347b 013e 9c74 05bc c16e b53d
000002b0: 0209 50bc 5b4e abbe 2fe1 e0be e998 82be
000002c0: ad6d 66bc 594b 63be 753e e33d 2194 90be
000002d0: 2122 a7be feff 3e3d e2dd 15be d2b0 85bd
000002e0: f9f5 c8be 405e a6be 83b1 2ebf 2591 5bbe
000002f0: 57d3 13be 5bf9 2cbf 0825 e73d 066e e6bd
00000300: defc f8bb cdfa 803d b99d 943e 7f46 713d
00000310: d98a 7cbe 2779 543c fb42 823d e276 95be
00000320: 1dc8 aebe 7c19 2a3d fc37 1dbf 672a 2c3f
00000330: b675 15be d30d dcbe 38b2 cebc 4e64 0d3c
00000340: d924 78bc 6901 193e e1b5 c93c 1416 bb3d
00000350: 237e 463e d0b0 c23b d1c5 933e 70e2 203d
00000360: 41b3 fe3d 83b3 773d 7815 21bf ce91 923e
00000370: 6ef8 253e 3fab bb3d d668 02bf 3d07 aa3d
00000380: 3c91 a03d ad8d 753d 8a2f f23d bb14 1f3e
00000390: 7297 373d 7c81 3cbc a248 2fbe 8647 fa3d
000003a0: 0b3e 9e3b 1bb1 543e f6aa 3bbc 39ed c13e
000003b0: b6d5 82be 8d1b ad3c 7608 db3c 9e10 7b3d
000003c0: 5bd8 26be 862e 42be ee39 943e 3cf4 3ebe
000003d0: dd8c d83c b303 fc3c 1763 19be 4edf c5be
000003e0: 5d18 973d d6af 1e3e aac1 9f3d 4ce1 d4bd
000003f0: 19da 203e 5f37 443c 4bd3 233e 3dac 8a3d

net.4.bias f4 [3]
-0.2823253 0.26308054 -0.21516164
00000000: f18c 90be 7eb2 863e 5553 5cbe
