stock_label7_model.pth (torch, 91289 bytes, 6 tensors)

net.0.weight f4 [128, 28]
00000000: 25d8 33be 9fad 2f3d 695c f13d 6388 5dbd
00000010: d82e d4bd e4bb 3c3e 5f49 c73d 9116 b83c
00000020: 15a8 a9be dacc 4a3e fc6c c63a fdf4 f3bc
00000030: ded4 c1bd 6a67 8bbd 41dc 55be 90cf 0c3d
00000040: 6910 14be 8b0f 293e 2b4a b0bc 1cf8 3d3e
00000050: 2a16 e1ba 721e 173e 3bae 06bf d0d9 103d
00000060: 1e47 703e ad7a c03d 02d5 7ebd 907b 58be
00000070: 17d0 80bc 3e27 1ebe 0b30 ef3b 680f 303e
00000080: 5edc 5abe 470a a53d 1425 933c 168b dc3d
00000090: 1382 0bbf 141c 98bd 9938 81be 7d66 b03e
000000a0: 608e 673e 200f 433e 9a52 0c3e 93c7 31be
000000b0: 67cb 18be fd4b 50be 3f17 92bd f6b4 f63d
000000c0: 2f63 813d eb46 1d3e 4b93 63be 47dc 063e
000000d0: fee1 3a3e f6ca 973d ef4b d83d 79bc 82bb
000000e0: 0c3a dcbd 920c d93d 9d7a c1bd 712d 39bd
000000f0: 79d3 5dbe d4a5 893c 2981 e13d 9e26 d3bd
00000100: 4716 543e 1583 17be 32c5 b33d c6e8 9d3e
00000110: 57e6 4ebe 4fd9 a23b 6e3e c13e dc3c 373e
00000120: ec5a e23c cd31 1c3d 42cd debd 7c95 2f3c
00000130: 97df 2fbd 5c3e 29be f33e a23d 0bc4 5ebe
00000140: cf28 2cbf 2d24 3e3e 479b 943e 2590 8bbe
00000150: 11c1 7f3d d2a5 34bd b6ea 963c eadf 4a3e
00000160: 9a63 b13d 68e6 f63d b0da 933d df01 e53d
00000170: 1523 8f3a 3861 0bbe 48bc 97be 851c 28be
00000180: 213d 653d ecae 58be 475e 7abe ac7b aa3e
00000190: 5874 1b3c e8ce 16be c0f6 933d 92a3 333d
000001a0: 79a1 343e 5b47 1bbe 666d c6bd 07ed cc3d
000001b0: 96b5 cebe 25f1 94be b5fe 353b 8351 0ebd
000001c0: c8c2 1cbe ef24 12be d38e 97bd e040 8c3c
000001d0: 930c 89be 4f1f 89be 1e7d 58be 8729 593e
000001e0: b0fb 203e c7e7 92bc 654b 77be d641 773d
000001f0: 3339 113e 94b3 21bc e8b6 0dbd 068a d93d
00000200: 3b93 5d3e c53e df3d fc11 cfbd b390 743c
00000210: dd1f 943c 9940 273e b891 abbe dfad 3cbe
00000220: 84a9 65be 7041 10bb c9c7 163d 0316 d83c
00000230: adbe 63bb 3fc2 283d 891f 3bbe b2f0 183e
00000240: 2b9b 74be 77fa 093e 1805 ac3d 57de 2e3e
00000250: a828 213e 46cf 94bd f51e 143e 56c4 66bb
00000260: 2bea a1bd 3a9a 023e 4d05 3b3e 9c73 04be
00000270: 9523 b03d 4010 9e3d ca6f 7fbe a1ae 4b3d
00000280: f670 833d b664 e03d 233d 6cbe cffc 11be
00000290: bfd1 05be 5b85 b03e 64dc 0fbe 9e93 1d3d
000002a0: 3042 053e 6396 40ba 700f f6bd 197a 313e
000002b0: 34b2 c2bd ab6e d1be 2ace 81bd cb12 1f3e
000002c0: 5044 b8be 5e81 163e e57a 3f3e d43d 88be
000002d0: 4daf 2b3d 50ca 513e 514a 42be 398c edbd
000002e0: 3120 ecbd 3a6d 48bc 000a e2bd f264 433e
000002f0: 1f30 833c 7355 e7bd 652a 30be cc98 3c3e
00000300: 0b89 aabe 3b5d 9ebc acd3 83bc 4229 ab3d
00000310: b866 a5bd 7e8e 1bbe df19 d43d 8082 fabd
00000320: b2ad 46bd 4433 903d cbc7 453d 16ed 113e
00000330: e205 713c cc2e f9bd e9d4 e8bd d8eb 573e
00000340: c3bb aa3d ffbf 563c 2bca 613d 1511 14bd
00000350: c6c1 3d3e eba5 1d3e a991 97be df79 253e
00000360: e4f6 983d fd44 123d 49b2 a0bd 13c7 63be
00000370: 3cf4 c8be 2c13 3e3e ef9c 963d 938d c5be
00000380: 3471 103e d0be 4dbe 5eb3 b03d 4763 38be
00000390: 5dd0 913c 19f3 2dbe 2849 13be 04e7 0d3e
000003a0: d07b 833c 225c aa3c 5026 6d3e f309 d3bd
000003b0: 0cf8 283e c94d 2ebe 7d33 24be d8f6 73bd
000003c0: fbbc 333e cc35 2a3e 3937 38be c849 de3d
000003d0: ebe7 193d c91e 0ebe 0bdb a9be e698 313e
000003e0: 9fa3 2bbe 9cef 283e 0454 89be 04b4 e53d
000003f0: d5dd 243d fa6e 14be 4aff 7cbd 8dd0 073e
-0.17562921 0.042890187 0.11785204 -0.054085147 -0.10360497 0.1843105 0.09730791 0.022471698
-0.3313605 0.19804707 0.0015138681 -0.029779905 -0.09464429 -0.06806834 -0.20884801 0.034377635
-0.14459385 0.16509835 -0.021519741 0.18551677 -0.0017172743 0.14757708 -0.52609605 0.035363972
0.23464629 0.093983985 -0.06221486 -0.21140885 -0.015724225 -0.15444657 0.0072994283 0.17193377
-0.21373126 0.08058601 0.017962016 0.10768716 -0.5449535 -0.074272305 -0.25238493 0.34453192
0.22612906 0.19048738 0.13703385 -0.17361288 -0.14921342 -0.20341487 -0.0713334 0.12046234
0.06317746 0.15359084 -0.22224157 0.13169967 0.18250272 0.074117586 0.10561358 -0.003989753
-0.10753259 0.10598101 -0.09447215 -0.045209352 -0.21662702 0.016802706 0.110109635 -0.103101
0.20711623 -0.14796098 0.087778464 0.30841655 -0.20205055 0.004969753 0.37742943 0.1789431
0.027631246 0.03813343 -0.108789936 0.010716792 -0.04293784 -0.16527694 0.07922163 -0.21754472
-0.6724977 0.18568487 0.29024717 -0.2725841 0.06243998 -0.04410345 0.018422466 0.19811979
0.086615756 0.12055665 0.07219446 0.111819975 0.001092049 -0.13611305 -0.29635835 -0.1641713
0.0559665 -0.21160477 -0.24450026 0.3329748 0.009488188 -0.14727366 0.07224798 0.043857165
0.17639722 -0.15163939 -0.09688835 0.10006147 -0.40372914 -0.2909023 0.0027770225 -0.034745704
-0.15308678 -0.14271902 -0.074002884 0.017120779 -0.26767406 -0.267817 -0.21141478 0.21207248
0.15721011 -0.017932786 -0.24149854 0.06036552 0.14181976 -0.009869475 -0.03459826 0.10622029
0.21638195 0.10900644 -0.10110852 0.014927077 0.0180816 0.16333236 -0.33509612 -0.18425702
-0.22427946 -0.002201166 0.036811624 0.026377684 -0.0034751103 0.041200873 -0.18273748 0.14935568
-0.23887317 0.13474451 0.08399409 0.17077003 0.15738165 -0.07266097 0.14464934 -0.003521224
-0.07905992 0.12754145 0.18263741 -0.12934726 0.08600537 0.07717943 -0.24944988 0.049727086
0.0641803 0.10956709 -0.23070197 -0.14256595 -0.13068293 0.34476742 -0.14048916 0.038470857
0.1301353 -0.0007346628 -0.12014663 0.17331733 -0.09506646 -0.40904745 -0.06338151 0.15534513
-0.35989618 0.14697787 0.18699224 -0.2660967 0.041915227 0.20487332 -0.18973662 -0.11599011
-0.115295775 -0.012233073 -0.110370636 0.19081476 0.016014157 -0.11295595 -0.17203672 0.18417662
-0.3330768 -0.019331565 -0.016092144 0.08357479 -0.08076233 -0.15191075 0.10356497 -0.12231922
-0.048505493 0.07041028 0.04828624 0.14250597 0.014710875 -0.12167129 -0.113687344 0.21086061
0.08336594 0.013107299 0.055124443 -0.036149103 0.1853095 0.15395324 -0.29603317 0.16159771
0.07468966 0.035710324 -0.07846505 -0.2224391 -0.39248836 0.18562001 0.073541515 -0.38584575
0.14105684 -0.2009232 0.086279616 -0.18006621 0.01779955 -0.16987266 -0.14383376 0.13857657
0.01605025 0.020795885 0.23159146 -0.10304632 0.16500872 -0.1702186 -0.16035266 -0.05956158
0.17552559 0.16622084 -0.17989816 0.108539164 0.03757469 -0.13878931 -0.3317493 0.17343482
-0.16761635 0.16497654 -0.2682191 0.11215976 0.040250618 -0.14495459 -0.0617669 0.1326315

net.0.bias f4 [128]
00000000: 16ee 813e c1be 8bbe dbd8 90be 58b1 6cbe
00000010: 742f 163e 62b3 2abf 8b05 95be 1e56 b1bd
00000020: aaf5 81be b434 1abe fc8d 69be c440 d5bd
00000030: 238e 9abe 9a27 923d 5c9f f0bd 3ff5 5bbe
00000040: 91dd 0fbf 17f5 84bd f9e5 7ebe 585c 293e
00000050: fb9f 47be 1f25 9dbe 85b3 733e 3c02 34be
00000060: d677 f3bd 9e69 7bbe 5d88 01bf 2e88 fcbe
00000070: 4858 32be a32f 523d 07b4 b0bd ae29 26be
00000080: 67e6 16be 0422 833d 52fa c8be 022f a9be
00000090: 92cd d1be 7e09 89be 0177 04be 8425 aabd
000000a0: 874c db3d 1be9 39be 8f92 24be c10b c7be
000000b0: 8284 a6bd 8fa4 8bbc d271 ad3d b05d 43be
000000c0: 438d 4b3d 3ac4 b2be 737a db3d 7fac 6d3d
000000d0: 1b41 8a3d 714e 76be 5852 70bc a620 04bd
000000e0: 3908 bbbe 0580 0dbe 144e 603d 8838 bbbe
000000f0: d053 edbc 0d11 efbd e13f d63d bab5 aa3a
00000100: ff99 8e3d e061 8abe 36d0 f3bd 13e7 483e
00000110: 2798 4bbe 4e1c 173e 3a55 54be 26e2 10be
00000120: ea1d 24bd c9b0 2c3e 6b3a 75be b717 b6bd
00000130: 5ee4 ca3d 1017 01bf 986a b53c 1fda 7bbe
00000140: eacd 353d 6127 bf3d 87d6 27be dfff 1f3e
00000150: 24f6 11be d936 8cbe f83c 3b3e 9124 743e
00000160: 382f fdbe dd5c babd 4daa 6dbe 6710 493d
00000170: 889e 233e d704 9cbe 9052 373d 9bcd 7abd
00000180: cd7e 8dbc fc5a f4bc 4712 80be 9f1e a0be
00000190: 7bb9 7ebe f3aa 81be b414 65be d88b f0bd
000001a0: b26e 923e 720b adbd 4084 acbd c215 0ebe
000001b0: 6637 4bbe 4d3c b4bc 7b84 26bd 3699 86be
000001c0: b3b2 babe f8e3 8a3d fda8 89be 21e9 b7be
000001d0: 020d 1c3d 0e3e 92bd 3ea9 253c b6d8 86be
000001e0: 71db e3be 592c 0abe bf14 03bf 0b60 83be
000001f0: 6a78 bbbd d960 833d 80e3 53be b474 8abe
0.25376958 -0.2729397 -0.28290448 -0.23114526 0.1466654 -0.66679966 -0.2910579 -0.08659004
-0.2538274 -0.15059167 -0.22808069 -0.10412744 -0.30186567 0.0713646 -0.117491454 -0.21480273
-0.5619746 -0.0649206 -0.24892415 0.16539133 -0.19494621 -0.30692384 0.2379895 -0.17578977
-0.11888091 -0.24552009 -0.505987 -0.49322647 -0.17416489 0.05131496 -0.086280875 -0.16226837
-0.14736329 0.06402972 -0.3925348 -0.33043677 -0.4097715 -0.26765054 -0.12936021 -0.08307937
0.10707956 -0.18155329 -0.16071533 -0.38876155 -0.081307426 -0.017046241 0.08468975 -0.19078708
0.049695265 -0.34915334 0.10716715 0.058025833 0.06750699 -0.2405336 -0.01466807 -0.0322577
-0.3652971 -0.13818367 0.05476196 -0.36566567 -0.028970629 -0.11673174 0.10461403 0.001302413
0.06962966 -0.27027798 -0.119049475 0.19619398 -0.1988226 0.14756891 -0.20735636 -0.14148769
-0.04006759 0.16864313 -0.23948066 -0.08891242 0.09906839 -0.50425816 0.022145554 -0.24594925
0.044385828 0.09333683 -0.1639043 0.15624951 -0.14254051 -0.27385595 0.18284976 0.23842074
-0.49450088 -0.090997435 -0.23209496 0.049087908 0.15978444 -0.30472443 0.044756472 -0.061231237
-0.017272377 -0.029828541 -0.25013945 -0.31273362 -0.24875443 -0.25325736 -0.22371179 -0.11745423
0.2860008 -0.08449449 -0.08423662 -0.13875487 -0.19845352 -0.02200141 -0.040653687 -0.26288766
-0.36464462 0.06781763 -0.2688674 -0.3592005 0.038098343 -0.07140742 0.010111151 -0.26337212
-0.44503358 -0.1349348 -0.5120353 -0.25659212 -0.091538265 0.064149566 -0.20692253 -0.27042162

net.2.weight f4 [128, 128]
00000000: fd31 cbbe fe94 b33d fa96 1abe c882 1bbe
00000010: c531 a2bd 8bea 443d 49b0 953e 6e5a 3dbb
00000020: 35cd b4be 76a9 c8bd 1435 ba3d 4eb5 863d
00000030: 3242 f03d 6d4c a53d 05a9 3b3e 5aa7 aa3c
00000040: 5669 613e 6e2c 08bd 302b 433e d320 fb3d
00000050: 8b96 c1be 73de 2fbe 9031 3e3e a36a e6be
00000060: 3379 a0bd 6e24 0dbe 9475 5e3e c1d2 643e
00000070: 5d0c 973d cd70 7abd 6cb4 d0bd 2afa cb3d
00000080: bb84 a5bd f608 1cbd 4fdf 903d 961c 90be
00000090: f838 b1bd fc3e 8abe fed5 903e 415f b4bc
000000a0: 151f 80bd 5c8e 31be f9a9 f63d bd44 95be
000000b0: 5ed3 e8bd 65c7 1abe 2e11 363e 0e85 1bbf
000000c0: 3bc5 a0be 8754 5d3d e846 97be 65b6 cbbe
000000d0: 38d5 69bd ce66 c33d 18d2 1b3e 5120 1cbf
000000e0: 6d7d 16bd 9d7c 0b3e b65d 133e 6e4a e6bd
000000f0: df28 fbbd f131 a63e 73cd 8ebe 79ee 4b3e
00000100: fcaa 8fbe c738 3cbe dbad f23b 2d24 8dbe
00000110: 69e1 923e 410d 553b a49a 7fbd afbb a6bd
00000120: e80b d2be 0cbc 95bd 2de8 9d3e 3c34 1fbe
00000130: b3dc b9bc 829d 793e 3ded d33d 2181 f83d
00000140: d569 29bd acf9 3fbe 2740 f13d b1c3 ca3e
00000150: 6c1e 09bd 07c5 0fbf 9cb7 bcbe 781c 79be
00000160: fe4d 06be 3ecc 453d c61b 953c 2d42 263c
00000170: b01b 49bb 8218 87be 1843 8dbd 3cfb a5be
00000180: ddd4 343d 1135 5ebb b2d5 86bc 7a1d 1dbf
00000190: 512a c6be 3257 3ebe 8a69 163e a7dd 82be
000001a0: d831 953d b1b4 123e 4dea 71bd b830 483e
000001b0: 009d 87bd 0098 37be 6c34 24bd f850 2bbe
000001c0: 7df1 1a3e 7c7a 4d3e eb03 c7be 7f00 f73d
000001d0: 9738 94bc 7ee6 193e 2fbd 81be dea0 74bd
000001e0: 3ac3 cebd 6400 abbd cae9 bc3e 718a 8dbe
000001f0: 61bd a63e 7999 bd3d 014e 85bd b763 a63d
00000200: 3cf2 42bc f2f9 bebd 47fd c3bd 78f4 0f3d
00000210: 200c 37bd 4eed 023e 12fe 76bd 9ef4 c63c
00000220: 781e 2e3d 537d acbd 5c26 4c3c e2f8 31bd
00000230: b799 afbc c52a 953b b1e2 8a3c fefc c43d
00000240: 601f 1fbe 6b6e 883d 1c5f 3bbe afac c6bd
00000250: 7310 0f3d 1ed9 493d 3dd4 1b3c f2a0 79bd
00000260: 5fa8 403d 42c7 3bbd 4558 2ebe 821a 61bd
00000270: 0157 00be 65ab e73d 7a75 01be 7ac8 26bd
00000280: e6e5 903d c38b afbd c37c e2bd 6c71 693e
00000290: 3a46 e4bd 2bd2 48bd bf13 1bbd 9ad1 8d3d
000002a0: 77ea 6d3c dea3 e2bd 22b2 9dbd 9c42 2a3d
000002b0: 7604 c3bc 29f4 8f3d c90f 8d3c 8297 663d
000002c0: 3277 993d cd79 133e 639c 7ebd 9cd6 45bb
000002d0: d08d 6fbd 3a38 81bd 173f d33d 963b abbc
000002e0: 1d99 493d be9c 48bd 357a 8d3d 8060 583c
000002f0: a3ea 0ebd f2dd a73d 3965 d13b 58ed b0bd
00000300: aa78 833c 7fee 2dbe c889 9cbd 6b12 0b3d
00000310: a364 093e 3b27 e13d ccf7 06be dc4c 0dbb
00000320: e844 5bbe 777b bbbd e764 d43d 095b 5a3d
00000330: f7d0 113d 8e63 03be f599 18bd dc0e 35bc
00000340: 7cfc b23c bbab a3bb 52fd 553d efa3 b6bc
00000350: b618 4e3d d668 07bc 617d 903d a48c 7f3d
00000360: afad 7abe 1ca8 cfbd 2aef 003d 4fb5 37bd
00000370: fe55 903d 9e7d 083e 759d 58bd b6ec 3d3d
00000380: aa58 a8bc 361d 8a3d 9441 99bc d45c 563d
00000390: 5557 d63d 3873 8b3c 2b0b d03c 4566 b83d
000003a0: 3c76 a53d fe82 4fbe e3fc 263d cc87 7ebc
000003b0: 84e7 d33b 9436 c63d bcc0 ba3d 0e4e ab3d
000003c0: 1145 bdbd df22 08be acd1 a03d 7516 0ebe
000003d0: 9784 d2ba 3084 0cbd 1b13 513a 2977 36be
000003e0: 9828 8a3c aeae ab3c 71c7 f7bd 067f 9d3d
000003f0: f86f f6bc b325 d1bd 6e0b c1bc 20ff 5c3d
-0.39686576 0.087686524 -0.15096655 -0.15186608 -0.07919649 0.04807524 0.29236057 -0.0028893012
-0.3531281 -0.09797947 0.09092155 0.0657755 0.11731376 0.08071218 0.18326195 0.020831753
0.22012839 -0.033245496 0.19059443 0.1226212 -0.37810168 -0.17174701 0.18573594 -0.45003232
-0.07835617 -0.13783428 0.2172454 0.22346021 0.07375405 -0.06114273 -0.10190663 0.099598244
-0.08081957 -0.038094483 0.07073843 -0.2814681 -0.08653444 -0.27001178 0.28288263 -0.022018077
-0.062559284 -0.17339462 0.120441385 -0.29154006 -0.1136844 -0.15115125 0.17779991 -0.607499
-0.31400475 0.05403569 -0.29546285 -0.39787593 -0.057088107 0.09541093 0.15216863 -0.6098681
-0.03674071 0.13621755 0.14391217 -0.11244665 -0.12263655 0.32459977 -0.2789112 0.19915189
-0.28060138 -0.18381034 0.007405979 -0.27566662 0.286876 0.003250912 -0.062403336 -0.081412666
-0.4102471 -0.07311258 0.308412 -0.1554727 -0.022688245 0.2437649 0.10347984 0.121340044
-0.041360695 -0.18747586 0.11779814 0.39602426 -0.03347628 -0.56160015 -0.36858833 -0.24327266
-0.13115689 0.048290484 0.01820172 0.0101476135 -0.003068667 -0.26385885 -0.06897563 -0.3241824
0.044148315 -0.0033906142 -0.01645932 -0.613731 -0.3870416 -0.1858795 0.14688697 -0.25559732
0.072848976 0.14326741 -0.059061337 0.19549835 -0.06621742 -0.17929077 -0.040089056 -0.16730106
0.15131183 0.20066255 -0.38870177 0.120606415 -0.01809339 0.15029332 -0.25339648 -0.059723727
-0.1009583 -0.08349684 0.36897117 -0.27644685 0.3256636 0.09257788 -0.06509019 0.08124488
-0.0118985735 -0.09325017 -0.09569793 0.035145253 -0.044689298 0.12785837 -0.060300894 0.024286564
0.042509526 -0.08422341 0.012460317 -0.043450244 -0.021435602 0.0045522177 0.016953798 0.09618567
-0.15539312 0.066616856 -0.18298 -0.097009055 0.034927797 0.049279325 0.009511051 -0.060944505
0.04703557 -0.045844324 -0.1702586 -0.05495692 -0.1253319 0.11311988 -0.1264247 -0.040718533
0.070751 -0.08571579 -0.11058953 0.22797173 -0.11146207 -0.049028557 -0.03786063 0.06924744
0.014521233 -0.110664114 -0.07699992 0.04156743 -0.023805838 0.07028992 0.017219441 0.056296833
0.07493438 0.14401932 -0.06216086 -0.0030187732 -0.058484852 -0.063095525 0.10314768 -0.020902436
0.049218286 -0.048977606 0.06908075 0.013206601 -0.034891736 0.081966296 0.0063902405 -0.0863902
0.016048748 -0.1698551 -0.07643467 0.03395311 0.13417296 0.10993811 -0.13180465 -0.0021560704
-0.21413004 -0.091544084 0.10370808 0.053309474 0.035599675 -0.12830946 -0.0372562 -0.011050906
0.02184891 -0.004994837 0.05224354 -0.022294967 0.050316535 -0.008264741 0.07055164 0.062389985
-0.24480318 -0.10139486 0.031478085 -0.044850644 0.07047652 0.13329169 -0.052884538 0.046368323
-0.02055009 0.06743853 -0.018708028 0.05233462 0.10465876 0.017022714 0.02539595 0.09003881
0.08079192 -0.20264813 0.040768515 -0.015535306 0.006466808 0.09678379 0.091187924 0.08364497
-0.09241689 -0.13294552 0.07852492 -0.13875754 -0.0016061243 -0.03430575 0.0007975564 -0.17818893
0.01686506 0.020957317 -0.12098587 0.076902434 -0.030082688 -0.10212269 -0.02356502 0.053954244

net.2.bias f4 [128]
00000000: 58ca 64be 7bfa e33d d213 343e 637a 0c3e
00000010: fb8b 953d 6a2a 833d f314 a93d a357 d03d
00000020: e651 73bd 4f38 ffbd 0638 05bd b64c 193e
00000030: 700a 8c3d 21f8 9abd 675b 80bc 03e1 513e
00000040: 437b 8d3e e07b 9a3d 8423 c03d 8b36 c33d
00000050: edde 133e b991 e43d 0deb bdbd e25d 62bd
00000060: 6e47 f63d cf7e f43d ebb0 163e 294a 7b3d
00000070: ba3d 233e bdfa 49bd 1282 553e 3d4f 84bc
00000080: 65fe a0be d8ac 133e c8d6 6c3d cf60 51be
00000090: 1058 a7bd 7580 dd3d 10a1 963d 426a 053e
000000a0: d8f4 21bd 8d32 40bc feb5 663d 842d 3e3b
000000b0: 7463 da3c e549 f63d 26ee f23c d48f 103e
000000c0: 3ba8 833e 6dc2 2c3e 607d 113d 3686 473d
000000d0: c992 4fbc 645d d2bd 86f5 bd3d 44b1 92bd
000000e0: bb4a da3d 8fbe 77bd 0de3 aabd 6c6f 983c
000000f0: 9d95 de3d 23b5 103e 2be9 153d e6bc 153e
00000100: dbeb c13d 7f74 a7bd 76dd 923d e63e 6c3d
00000110: 2c92 b2bd a318 ebbd 81e6 b33d cbfa 823e
00000120: b453 ed3a d402 fabd 9e57 87be bbfe ef3d
00000130: 4dc1 2abd f449 2a3b 088e 05be 4be1 4a3e
00000140: f94e b93d e911 2abd 8d77 083e c44e 9a3c
00000150: 4f9b 4b3e aaf8 fd3d 6a3e 8fbd f30b 093d
00000160: b775 94bc 7514 64bd 8617 81bd 9c7e d43d
00000170: 94e0 8b3c cb05 bf3d 0f33 503e a9ab d93d
00000180: bc10 2b3e c6ea d5bc b927 283e c314 a139
00000190: 918a 143e c393 bfbc 899e febd 25b0 b6bc
000001a0: 2384 04be 5ad5 8ebd f5d6 0c3e f6e0 bc3d
000001b0: 8ecc 7c3d efde 0e3e b67b 7fbd 152a 093c
000001c0: 9926 773b 7452 2e3e 4377 833c cee5 97bd
000001d0: 2ef3 523d 1d53 3e3e eb58 cfbd 68b2 233e
000001e0: 4cda 24bd 22e1 b43d 3401 79be 8ef9 563d
000001f0: 91b8 73bc a03b 353e c227 0e3d 26a6 e8ba
-0.22342813 0.1113176 0.17585686 0.13718562 0.0730209 0.06404574 0.08255949 0.101729654
-0.059404276 -0.12461912 -0.03252413 0.14970669 0.06837928 -0.07566858 -0.015668584 0.20495991
0.27633104 0.075431585 0.09381774 0.095318876 0.14440508 0.11160607 -0.09273348 -0.055265315
0.12025343 0.11938249 0.14715926 0.06135002 0.15941516 -0.04931139 0.20850399 -0.016151065
-0.31444088 0.14421403 0.05782202 -0.20447086 -0.081710935 0.10815517 0.07354939 0.13028815
-0.03954014 -0.011730802 0.056325905 0.0029018829 0.026658751 0.12025813 0.029654574 0.14117366
0.25714287 0.16871043 0.035519958 0.048711978 -0.012669274 -0.10271719 0.092753455 -0.07162717
0.10658785 -0.060484465 -0.08344088 0.018607818 0.1086838 0.14131598 0.03659932 0.1462284
0.09468814 -0.08176517 0.071711466 0.057677172 -0.08719286 -0.114793085 0.087841995 0.25581965
0.001810661 -0.12207571 -0.26434034 0.11718508 -0.041688252 0.002598402 -0.13042462 0.19812505
0.09048266 -0.041520987 0.13326855 0.018836387 0.19883464 0.124009445 -0.069943264 0.03345866
-0.018122537 -0.05568357 -0.06303315 0.10375711 0.01707486 0.09327277 0.20331977 0.10628445
0.16705602 -0.026112925 0.16421403 0.00030723782 0.14505984 -0.023385888 -0.12432582 -0.02230079
-0.12941031 -0.06974287 0.13753875 0.092225954 0.061718516 0.1395223 -0.06237384 0.00837185
0.0037712215 0.17023641 0.01604808 -0.07416879 0.051501445 0.18586393 -0.10124382 0.15986025
-0.040247247 0.08832003 -0.24316865 0.052484088 -0.014875547 0.17698526 0.034705885 -0.0017749711

net.4.weight f4 [3, 128]
00000000: 0a34 1dbf b848 8cbc 9cc0 5ebe 93dd bb3e
00000010: b3d1 133f 8ac0 4bbe 3301 90be da49 57be
00000020: 033a b13e 2e73 9cbe 970d 813d 9e1f 8d3c
00000030: 24cb d83b 2b19 f43c dacd f6be 8558 133f
00000040: 58e1 173e 9d48 afbe e6d5 33be 58f6 0c3f
00000050: 1fea 4a3f ffdd f43c 8507 ee3e ae37 8f3b
00000060: 1988 253d c61e 863d a667 8abe 905c 0cbd
00000070: 09cb 85bc 1f24 58be c74a 2a3e 205c 3f3e
00000080: 59bc fa3e 1aae 4c3e 93cd a43e 4d4c 123e
00000090: 0f74 f33d 2911 f9bd cc82 9bbe 6184 4ebd
000000a0: 9dc3 57be 9632 b9be bb01 ac3d c226 2ebe
000000b0: 7108 b83e 6461 833b 23c8 3bbe 4e3b cabd
000000c0: 7b07 bf3d bf55 823d 1c98 d5be 24b1 8b3e
000000d0: d328 9dbe 5552 c73d 5b4d 0e3d 8cdd 96be
000000e0: f4f3 7dbe 8980 ccbc ffdc f93e 008f bbbc
000000f0: de24 7dbd ec75 b7bc dd2f 34be 9110 033d
00000100: 2f1b 683e 0014 57bd a246 03bf 6ce9 9dbe
00000110: 5504 483c aa70 713e e7dc 683d 25a8 ab3e
00000120: e18f 0dbe b25e 133d 112b 90be 6a6e 3a3d
00000130: 4a23 e93c 9614 80be 7109 8f3d bfdd 983d
00000140: 60f7 693d 4cfe cb3e 511b 33be 8cf4 00be
00000150: 9471 643d 03ba 933e 8dea 933e a39d 673d
00000160: 2c39 0d3d d8de b63d 2c80 bc3d 1cce 1ebe
00000170: 01a2 143d d6b4 813d 10c7 0ebc 3924 ed3e
00000180: a26c 3b3e d679 e6be 03fb 0dbd 9870 f0be
00000190: 51da e83d 39c4 ff3e a8c8 6bbc c40e 4f3e
000001a0: da74 d93d daed 0b3c cc32 43bd 681b a7be
000001b0: 73b5 e3be fa1b c63d 6d93 87be 7988 5f3e
000001c0: 3e73 7bbd e5c3 0cbe 9215 22be 8100 443e
000001d0: e4be 35be 5256 b6bc 9544 4d3d b048 5dbd
000001e0: f4c0 bf3c 3422 95be 20b4 15bf 9a4f 3fbe
000001f0: eff5 92bd 6689 fc3a 9ca0 bcbe 67f4 743d
00000200: b595 2dbe d5f1 a838 0afe 0a3e 0d4d 77bd
00000210: 09fc babe f9db 97bc a696 a0be d4e0 633e
00000220: 24b1 56be 494b e8be c40c 71bd 3e0f 9d3d
00000230: 9779 b2be 17e7 ffbc 6f71 683e d043 44be
00000240: c421 da3d a93c 803e 5b26 9a3e 1db3 15bf
00000250: 3fe1 d7be 5461 813e d0c9 9fbe b999 703c
00000260: 9dae 5dbf 3c4a b03d 17a9 b3bb 249a 8e3c
00000270: 19fa e73c 8e6b a73d dcac fe3b 71e5 6d3d
00000280: 44b7 87be 38cc 853d a73a 03bd e524 8ebe
00000290: 5b94 2fbf 3503 8e3d 690e 01be f9b7 473d
000002a0: a7de 723d ec11 95bd efd3 8abd 0f91 dd3e
000002b0: 06ef 21be 62dc 95bb da6b 813d 3fa3 1b3e
000002c0: 69b5 873d 604a 943c c070 9e3e 86e7 b7be
000002d0: c984 c13d 5ae1 dcbd ca55 353e c5e6 2c3d
000002e0: 81bf 763e c767 85bc a72f e8be e5a8 5dbc
000002f0: c1bf 373d e501 963d 581f 033e 40b9 283d
00000300: 16eb 953a b4ff b83c 843f 59bd 6a2a 073e
00000310: 69c2 90bd 425b 79be cf2e c63b 4781 bfba
00000320: 1b7a da3d c4b3 a7bd c227 c2be 5f08 923d
00000330: 3750 47bd aaf8 7e3e 1ed5 91be eb90 443d
00000340: 2c35 8c3d b0cb 0dbf ff22 0a3e c29b 243d
00000350: e2c7 553e ddf8 e7bd 86c1 d03d 9358 19be
00000360: 3d6f 9dba f385 cdbe 146c 9f3d 82c4 6fbd
00000370: e135 b9be 0737 263d 6920 573e 43bd f1be
00000380: 00cc 463e 90d9 243d b85a 103c 414c 6f3b
00000390: 7879 873d fee6 94be 75b5 813d dcac d73d
000003a0: 850a c5be 953a 97be 9646 643d 84f6 dc3e
000003b0: 6bba 2bbd aa08 e93c cfde 233e 67e6 c3be
000003c0: 9b45 a9bc a2ab a53e a49f d13d eff2 9e3d
000003d0: 3ba6 5e3d 9365 0a3d f6e6 4ebd d798 063e
000003e0: 01f8 0a3d 7759 8b3d 615a ff3d ddc3 593d
000003f0: f03e 50be 9bed 4fbc 01cd 1dbe 6449 303e
-0.6140753 -0.017124519 -0.21753162 0.36692485 0.5774185 -0.19897667 -0.28125915 -0.21024266
0.34614572 -0.30556625 0.0630142 0.01722699 0.006616013 0.029797157 -0.48203927 0.57556945
0.14832056 -0.34235087 -0.17562065 0.5506339 0.7926349 0.029891012 0.46490112 0.004370651
0.040412996 0.06548838 -0.27032202 -0.034267962 -0.016332166 -0.21107529 0.16630088 0.18687487
0.48971823 0.1998829 0.3218809 0.14286919 0.11887371 -0.12161476 -0.30373228 -0.050419215
-0.21070714 -0.36171407 0.083987676 -0.17006972 0.3594394 0.0040094126 -0.18338065 -0.09874593
0.09327599 0.06364011 -0.41717613 0.27283585 -0.3069521 0.097325005 0.03474174 -0.29465902
-0.24800092 -0.024963634 0.4880142 -0.022895336 -0.061802737 -0.022395097 -0.17596383 0.03199822
0.2266662 -0.052509308 -0.5127965 -0.3084215 0.012208064 0.23578134 0.056851294 0.33526722
-0.13824417 0.03597898 -0.28157857 0.045515455 0.02845921 -0.25015706 0.06984223 0.0746417
0.05712068 0.3984245 -0.17490889 -0.12593287 0.05577238 0.28852853 0.28889886 0.05654682
0.03447835 0.08929223 0.09204134 -0.15508312 0.03628731 0.0633332 -0.008714452 0.46316698
0.18303159 -0.45014828 -0.03466321 -0.46960902 0.113697655 0.49954394 -0.014391102 0.20220476
0.10617991 0.008540595 -0.047655866 -0.32638097 -0.44474372 0.09673305 -0.26479664 0.21829404
-0.0613892 -0.13746603 -0.15828541 0.19140817 -0.177486 -0.022257958 0.050114233 -0.0540244
0.023407437 -0.29127657 -0.58477974 -0.1868271 -0.07175814 0.0019267022 -0.36841285 0.059803393
-0.1695164 8.055909e-05 0.1357347 -0.060376216 -0.36520413 -0.018537508 -0.31364936 0.22253734
-0.20966011 -0.45369938 -0.058850065 0.07668923 -0.3485839 -0.031238122 0.22699521 -0.19166493
0.106509715 0.2504628 0.30107388 -0.5847643 -0.42164037 0.25269568 -0.31208658 0.014685088
-0.86594564 0.08607909 -0.0054828036 0.017407484 0.028317498 0.08174811 0.0077720713 0.05808014
-0.26507008 0.06533092 -0.032038357 -0.27762523 -0.6858575 0.069342054 -0.12603153 0.048759434
0.05929437 -0.07278809 -0.067787044 0.43274733 -0.15813836 -0.004573391 0.06319399 0.15198992
0.06626398 0.018101871 0.30945396 -0.35918826 0.09449155 -0.1078517 0.17708507 0.042212266
0.2409649 -0.016284836 -0.45348856 -0.013529037 0.044860605 0.0732458 0.12804925 0.041192293
0.0011437859 0.022582866 -0.05303909 0.13199773 -0.07068331 -0.24351218 0.0060480605 -0.0014610671
0.10667821 -0.081885844 -0.37920958 0.07130503 -0.048660483 0.24899545 -0.28482908 0.047989767
0.06846079 -0.5538893 0.13489912 0.040187605 0.2087703 -0.11326764 0.10193162 -0.14975195
-0.0012011301 -0.40141258 0.07784286 -0.058537014 -0.3617392 0.040579822 0.21008457 -0.47214708
0.19413757 0.040246546 0.008810692 0.0036513957 0.06614965 -0.29082483 0.06333438 0.10531017
-0.38484588 -0.29536882 0.05573138 0.43156826 -0.04192583 0.028446514 0.16002963 -0.3826172
-0.020663073 0.32357508 0.10235527 0.0776118 0.05435775 0.033788275 -0.05051323 0.13144241
0.03392792 0.068041734 0.1246841 0.053165305 -0.20336509 -0.012690927 -0.15410234 0.17215496

net.4.bias f4 [3]
00000000: 9d42 61be 0f3b f53d 5ee8 47be
-0.21998067 0.11974155 -0.19522235
