stock_label3_model.pth (torch, 90934 bytes, 6 tensors)

net.0.weight f4 [128, 29]
0	0xbe17a9e7	-0.14810906
1	0xbd8bf90d	-0.06834612
2	0x3da11d85	0.078669585
3	0x3e11b179	0.14227857
4	0x3df5aba9	0.11995632
5	0xbda63555	-0.08115641
6	0x3e261c2a	0.16221681
7	0xbdc42137	-0.09576648
8	0xbd5d2484	-0.053989902
9	0xbd549206	-0.05189707
10	0xbe9b87ca	-0.30377036
11	0xbec9ae82	-0.3939095
12	0x3d2df6a8	0.042471558
13	0xbbea5530	-0.0071512684
14	0xbe2d66a9	-0.16933693
15	0x3e60af55	0.21941884
16	0x3df27f4e	0.11840688
17	0x3dac12bc	0.08402011
18	0x3d538c61	0.051647548
19	0xbd03bdca	-0.03216342
20	0xbc31bdce	-0.010848476
21	0x3b186285	0.0023252082
22	0x39bb59bf	0.00035734285
23	0x3e950286	0.29103488
24	0x3e1341ad	0.14380522
25	0x3e50f64f	0.2040646
26	0xbbc850fd	-0.00611317
27	0xbdafcff2	-0.08584584
28	0xbef67e90	-0.48143435
29	0xbdfefdc9	-0.124507494
30	0xbe081941	-0.13290884
31	0xbdc201eb	-0.09473022
32	0xbe3429cf	-0.17594074
33	0x3df60a18	0.12013644
34	0x3dbee291	0.09320558
35	0x3e0e2d06	0.13884363
36	0xbde9ebcd	-0.114219286
37	0x3e545a58	0.20737588
38	0xbcfc2130	-0.030777544
39	0x3ca60767	0.020267202
40	0x3debfdeb	0.115230404
41	0xbe2fb174	-0.17157537
42	0x3e1845d6	0.1487039
43	0x3c14be10	0.009078518
44	0xbd91b6c0	-0.07114935
45	0x3dbc968f	0.09208404
46	0xbdfb708f	-0.12277328
47	0xbe3a4a01	-0.18192293
48	0xbd171b07	-0.03689101
49	0xbe407332	-0.18793944
50	0xbdd2d1da	-0.10293932
51	0x3f0d2fc5	0.55151016
52	0xbe09c03d	-0.1345224
53	0x3dc0eb90	0.0941993
54	0x3e2c6113	0.16833906
55	0x3e8925b5	0.2678658
56	0xbd8304a3	-0.06397369
57	0x3e4f173d	0.20223708
58	0xbdafdc44	-0.08586934
59	0xbded321d	-0.11581824
60	0x3e3270c9	0.17425837
61	0xbdffb5a7	-0.12485819
62	0x3db870bd	0.09005878
63	0x3e22c4ab	0.15895335
64	0x3dfdcec8	0.12392956
65	0xbc145857	-0.009054265
66	0xbe874b19	-0.26424482
67	0xbd64534a	-0.055743493
68	0x3e713e45	0.2355891
69	0xbe0a9b76	-0.13535866
70	0x3e1b3338	0.15156257
71	0xbd4faf77	-0.050704446
72	0xbd66c384	-0.056338802
73	0xbe791b06	-0.24326715
74	0x3e164b15	0.14677079
75	0xbe15be83	-0.14623456
76	0x3e3926d9	0.18081225
77	0xbe245c17	-0.16050754
78	0xbe0e5863	-0.13900904
79	0x3e2888b4	0.16458398
80	0x3eb337fd	0.35003653
81	0xbe57e87e	-0.21084782
82	0x3e8dbe6d	0.27684346
83	0x3db322fd	0.08746908
84	0xbe1d0fcc	-0.15338057
85	0xbd5df453	-0.054188084
86	0x3dcd332d	0.10019527
87	0x3c4d9584	0.012547854
88	0xbdedb09a	-0.1160595
89	0x3d355a67	0.044275668
90	0xbe25dfa2	-0.1619859
91	0xbd9e0c8d	-0.077172376
92	0xbdcc0aae	-0.099629745
93	0x3dd18727	0.102308564
94	0xbdf1bc47	-0.11803489
95	0xbe75d8f9	-0.2400855
96	0xbe321829	-0.17392029
97	0x3d4e2ac9	0.05033377
98	0x3e689496	0.22712931
99	0x3d8ed577	0.06974309
100	0x3dd92dce	0.1060444
101	0xbe985aa1	-0.29756644
102	0xbe525341	-0.20539571
103	0x3ca81947	0.020519866
104	0x3e2c7223	0.16840415
105	0xbdb84f3f	-0.0899949
106	0xbe3047a1	-0.17214824
107	0xbe336fd5	-0.1752313
108	0x3db491c2	0.088168636
109	0x3dd561b0	0.10419023
110	0x3e4bf0b2	0.19916037
111	0x3c000c49	0.007815429
112	0xbe288732	-0.16457823
113	0x3e23601c	0.15954632
114	0x3e4b797c	0.19870561
115	0xbb9f6262	-0.004864023
116	0x3e2bbbed	0.16770907
117	0x3dc4279a	0.09577866
118	0x3e22a51e	0.158833
119	0xbdc070a7	-0.09396487
120	0x3df97d77	0.12182134
121	0x3d63c21d	0.055605043
122	0xbe6be538	-0.23036659
123	0x3d83209b	0.064027034
124	0xbe3e636e	-0.18592617
125	0x3dabf5d3	0.083964966
126	0xbdfda53b	-0.12385031
127	0x3e147b4b	0.14500158
128	0xbc95a302	-0.018266205
129	0x3e18231b	0.14857142
130	0x3d573494	0.052540377
131	0x3ed3a85a	0.4133938
132	0x3e34e816	0.17666659
133	0xbe19f88d	-0.15036221
134	0x3ec78e45	0.3897573
135	0x3e53cd32	0.20683745
136	0x3e5b38f5	0.21408446
137	0x3bdfc9cd	0.0068294764
138	0xbead2bf4	-0.33822596
139	0x3e1ad565	0.15120466
140	0x3a069556	0.0005133947
141	0xbe9c0ea2	-0.30479914
142	0x3e1aa731	0.15102841
143	0xbd046054	-0.03231843
144	0xbe0438c5	-0.12912281
145	0xbe0823f3	-0.13294964
146	0x3d9a2f03	0.07528498
147	0xbd6f64bb	-0.058445673
148	0xbd4c7195	-0.049913008
149	0xbe75e82f	-0.24014352
150	0x3d5a8bc1	0.053355936
151	0x3d8cac8d	0.06868849
152	0xbe0ccfbc	-0.1375112
153	0xbe0b4762	-0.13601449
154	0x3de292f7	0.110631876
155	0x3dd8353d	0.105570294
156	0xbe210baa	-0.15727106
157	0xbea299a7	-0.31757852
158	0x3e15e65b	0.14638655
159	0x3e745be3	0.23863177
160	0xbc874fa6	-0.016517472
161	0x3db30cc0	0.08742666
162	0xbe47ae3a	-0.19500056
163	0xbeaf463b	-0.3423327
164	0xbe3e766f	-0.18599866
165	0xbc49403b	-0.01228338
166	0x3df6aaf7	0.12044328
167	0x3e7be122	0.245976
168	0x3c030569	0.007996895
169	0xbe7b88ff	-0.24563979
170	0xbd8a6a2c	-0.06758532
171	0x3e3cb044	0.18426615
172	0xbd57517b	-0.05256794
173	0x3e4d6cf0	0.20061088
174	0xbd34958f	-0.044087943
175	0xbdd6de23	-0.10491588
176	0xbe0b79e0	-0.1362071
177	0xbe190759	-0.14944209
178	0x3dc28539	0.094980665
179	0xbe6f3a41	-0.23362066
180	0xbc93c90b	-0.0180402
181	0xbb4dc3bf	-0.0031397191
182	0xbda71b40	-0.081594944
183	0x3dc476c3	0.095929645
184	0xbdfe90c3	-0.12429955
185	0x3e7e3487	0.24824725
186	0xbe17c0d4	-0.14819652
187	0x3db8b0c1	0.09018088
188	0xbde23159	-0.110445686
189	0xbd022655	-0.031774838
190	0xbe0fe03e	-0.14050385
191	0x3d64637f	0.05575895
192	0xbc923119	-0.017845677
193	0x3e019a52	0.12656525
194	0xbdd68e26	-0.104763314
195	0xbd6c079c	-0.057624444
196	0xbe6b6ae2	-0.22989991
197	0xbeb809ab	-0.35944876
198	0xbd422ba7	-0.04740491
199	0x3e12c30b	0.14332215
200	0x3d9c39eb	0.076282345
201	0x3d3fe23f	0.046846624
202	0x3d2da114	0.042389944
203	0x3debc356	0.11511867
204	0x3e282cd1	0.16423346
205	0xbd8d8f27	-0.0691207
206	0x3e32b96c	0.17453545
207	0xbd61c260	-0.05511701
208	0xbd54cd25	-0.051953454
209	0xbdefedcb	-0.11715277
210	0xbca88f21	-0.020576062
211	0xbf00c4b0	-0.5030012
212	0xbdd056df	-0.10172819
213	0x3e030b7f	0.12797354
214	0xbe226a5a	-0.15860882
215	0x3e577b15	0.21043046
216	0xbdc755e2	-0.09733178
217	0x3e22f873	0.15915088
218	0xbde141f7	-0.1099891
219	0x3e5ce65a	0.21572247
220	0xbc9abe75	-0.018889645
221	0x3b2897de	0.0025725286
222	0x3d6b542e	0.057453327
223	0x3d2847f9	0.041084263
224	0x3e40dede	0.18835017
225	0xbf2af978	-0.6678691
226	0xbe6aee34	-0.2294243
227	0x3e0ead27	0.1393324
228	0x3cc23ae5	0.023709724
229	0xbe8689b7	-0.26276943
230	0x3d903a3e	0.07042359
231	0x3d63efb6	0.055648528
232	0x3daf1cd2	0.08550419
233	0xbcca17f1	-0.02466962
234	0xbcd10c42	-0.02551854
235	0xbe76e80e	-0.2411196
236	0xbf356431	-0.70856005
237	0x3e3704e0	0.17872953
238	0x3dac0de0	0.08401084
239	0xbe6a0a85	-0.22855575
240	0xbe21349c	-0.15742725
241	0xbe08c9f7	-0.13358293
242	0xbdf2ab46	-0.11849074
243	0x3e390778	0.18069255
244	0x3e7d3acf	0.24729465
245	0xbe0810e2	-0.1328769
246	0x3e014ce7	0.12626992
247	0xbdcb3d22	-0.099237695
248	0xbd90f9d1	-0.07078899
249	0xbe8da816	-0.27667302
250	0x3e1bfdf0	0.15233588
251	0xbd32cc6a	-0.043651976
252	0x3cab9681	0.02094579
253	0x3cd589af	0.02606663
254	0x3e400d1f	0.18755005
255	0xbda72fd1	-0.08163417

net.0.bias f4 [128]
0	0xbe233a95	-0.15940316
1	0xbe276373	-0.1634653
2	0xbe98d9ac	-0.2985357
3	0xbe2dbcc7	-0.16966544
4	0xbe0c2b50	-0.13688397
5	0xbedc1c74	-0.42990458
6	0xbe5546e9	-0.20827831
7	0x3d51fced	0.0512666
8	0x3c902915	0.017597714
9	0x3cfa37c4	0.03054417
10	0xbdc3b755	-0.09556452
11	0xbe7236fb	-0.23653786
12	0xbe83657d	-0.25663367
13	0x3e3336ed	0.17501421
14	0xbe34e7c9	-0.17666544
15	0xbdd803f0	-0.10547626
16	0xbe144fb6	-0.14483532
17	0xbe93a969	-0.28840187
18	0xbdb494c0	-0.08817434
19	0xbdcf2558	-0.10114545
20	0xbc87075e	-0.016483005
21	0xbeb97e18	-0.36229014
22	0xbf115098	-0.567636
23	0xbe3bef55	-0.18353017
24	0xbd1ee618	-0.038793653
25	0xbd3ae99a	-0.045632936
26	0xbde691f1	-0.11258305
27	0x3dbeb25d	0.09311364
28	0xbe63bb06	-0.22239313
29	0x3e677b71	0.22605683
30	0xbe8245fe	-0.25444025
31	0xbd926e12	-0.071499005
32	0xbe15382d	-0.1457221
33	0xbe8f1a58	-0.27949786
34	0xbe1f6f52	-0.15569809
35	0xbd830de7	-0.06399136
36	0xbe905825	-0.2819225
37	0x3d228b0d	0.03968339
38	0xbe4d3d62	-0.20042947
39	0xbd58932f	-0.05287474
40	0x3bcb0e77	0.0061967927
41	0xbe36487a	-0.17801085
42	0xbdd67513	-0.10471549
43	0xbeb6a971	-0.3567615
44	0xbefbc276	-0.491718
45	0xbe88c6b1	-0.2671409
46	0xbe4622d2	-0.1934922
47	0xbe8f23a6	-0.27956885
48	0xbe925308	-0.28578973
49	0xbd97da77	-0.07414716
50	0xbeea4841	-0.4575825
51	0xbec6958c	-0.3878597
52	0x3de4efc8	0.11178547
53	0xbdcace35	-0.09902612
54	0xbdad45e2	-0.08460595
55	0xbd3eff8c	-0.046630427
56	0xbd0bf5b0	-0.034169853
57	0x3d88fcf9	0.06688876
58	0x3e030d08	0.1279794
59	0xbc97bafa	-0.018521775
60	0xbf04f005	-0.5192874
61	0x3d44c57d	0.048039902
62	0xbc6ee01c	-0.014579799
63	0xbe22163e	-0.15828797
64	0xbbecf48f	-0.007231302
65	0xbef2b298	-0.4740188
66	0xbe2392f0	-0.15974021
67	0xbec9c008	-0.3940432
68	0xbe365f73	-0.17809848
69	0xbe11ec8e	-0.14250395
70	0xbda39436	-0.07987253
71	0x3d903cc3	0.070428394
72	0xbe0c2a02	-0.136879
73	0x3df6dbfa	0.12053676
74	0x3e4119ad	0.18857451
75	0xbe19766a	-0.14986578
76	0x3daca8fe	0.0843067
77	0xbe1b7ee3	-0.15185122
78	0xbda3d0b4	-0.07998791
79	0xbe6a3112	-0.22870281
80	0xbe3958aa	-0.18100229
81	0xbe837767	-0.25677034
82	0xbf265da6	-0.64986646
83	0x3e10ce8a	0.14141288
84	0xbd5fc5dd	-0.054632057
85	0xbec6aae2	-0.38802248
86	0xbe1ebb0c	-0.1550104
87	0x3cb81085	0.022468815
88	0xbe180cf5	-0.14848693
89	0xbe3aa584	-0.18227202
90	0xbf26da65	-0.65176994
91	0xbd899e6b	-0.06719669
92	0xbe9b8b2f	-0.30379626
93	0xbe338ac4	-0.17533404
94	0xbeb6af79	-0.3568075
95	0xbe47d9b8	-0.19516647
96	0xbe3c7723	-0.18404822
97	0xbeecd565	-0.46256557
98	0xbe56ddf0	-0.209831
99	0xbe8b8718	-0.27251506
100	0xbf10232a	-0.56303656
101	0xbee771b9	-0.4520395
102	0xbe6ba4f6	-0.23012146
103	0x3e79d82e	0.24398872
104	0xbe195a57	-0.14975868
105	0xbe822444	-0.25418293
106	0xbea59bbe	-0.32345384
107	0xbd8895c1	-0.06669188
108	0xbe131110	-0.14361978
109	0xbe9ed1e2	-0.31019503
110	0xbf1b0855	-0.6055959
111	0xbdfec214	-0.12439361
112	0x3dad2366	0.08454017
113	0xbdd0dffa	-0.1019897
114	0x3ddf1c9e	0.1089413
115	0xbe4fbc8d	-0.2028677
116	0xbe83dd43	-0.25754747
117	0x3c438d56	0.011935553
118	0xbe6fd906	-0.23422632
119	0xbe2a9344	-0.1665774
120	0x3d3074e9	0.043080244
121	0xbeb9e710	-0.363091
122	0xbe88a29b	-0.26686558
123	0xbdcd4cba	-0.100244
124	0xbde9e7e8	-0.11421186
125	0xbeb61266	-0.35560912
126	0xbd912410	-0.070869565
127	0xbe7ccd97	-0.24687801

net.2.weight f4 [128, 128]
0	0x3d60e703	0.05490781
1	0x3cf92454	0.03041283
2	0xbe91a3df	-0.28445336
3	0xbdde1f34	-0.10845795
4	0xbebc92ff	-0.368309
5	0xbe6cde57	-0.23131691
6	0x3ce9757f	0.02849841
7	0x3e052b46	0.13004789
8	0xbe57267b	-0.21010773
9	0x3da714a3	0.08158233
10	0xbcb30aa1	-0.021855654
11	0x3c113f22	0.00886515
12	0xbe74b95d	-0.23898835
13	0x3cb826b0	0.022479385
14	0xbdcb9e74	-0.09942332
15	0xbe953a5d	-0.2914609
16	0x3df98720	0.12183976
17	0xbcb3cde0	-0.021948755
18	0x3c1d72d6	0.009609899
19	0xbe2d691c	-0.16934627
20	0xbd6ce41b	-0.057834726
21	0x3dea3dc0	0.11437559
22	0x3cae08c4	0.021244414
23	0xbe103e0e	-0.14086172
24	0x3e1290b1	0.14313008
25	0xbd0b4eff	-0.034010883
26	0x3d551ec0	0.05203128
27	0xbe02b2bd	-0.12763496
28	0x3d50c258	0.05096659
29	0xbe5aacc6	-0.2135497
30	0xbe1c3d20	-0.15257692
31	0x3d60473e	0.05475544
32	0xbe6516f4	-0.22372037
33	0x3d9ed2b2	0.07755031
34	0xbb768116	-0.0037613562
35	0x3d9bcf28	0.07607871
36	0xbed369e3	-0.41291723
37	0xbdafb09e	-0.08578609
38	0xbdad1a2e	-0.08452259
39	0xbf065d13	-0.5248577
40	0x3e601640	0.21883488
41	0xbcb6fc5d	-0.022337133
42	0xbe9ce855	-0.30646005
43	0x3e1df578	0.1542567
44	0xbce184ce	-0.027529147
45	0xbe0ac377	-0.13551126
46	0xbe4ed662	-0.20198968
47	0xbdbd25dd	-0.092357375
48	0xbe7c1849	-0.24618639
49	0x3db48388	0.0881415
50	0xbd45747a	-0.048206784
51	0x3e4a45dd	0.19753213
52	0x3d804246	0.06262641
53	0xbd929a8c	-0.07158384
54	0x3e1f41f9	0.1555251
55	0x3cbb3b0f	0.02285531
56	0x3e31edd3	0.17375879
57	0x3e19be85	0.15014084
58	0x3c13f960	0.009031624
59	0xbe6569b8	-0.2240361
60	0xbe1f378d	-0.15548535
61	0x3e4373c8	0.19087136
62	0x3d70840a	0.058719672
63	0x3de0e9d2	0.10982098
64	0x3d3e2f55	0.046431858
65	0x3deee3b2	0.11664523
66	0xbc726f1c	-0.014796998
67	0xbe58a2e9	-0.21155895
68	0x3d8860b2	0.06659068
69	0x3d19d2ae	0.037554435
70	0xbe2e0de4	-0.16997486
71	0xbe984cd2	-0.2974611
72	0x3dc12766	0.09431343
73	0xbc802ca7	-0.015646292
74	0x3dc2d3c9	0.09513051
75	0xbde422ab	-0.11139425
76	0x3e27771a	0.16354027
77	0xbe30c45b	-0.17262404
78	0xbe75006d	-0.23925944
79	0xbe001d47	-0.12511168
80	0xbce64f0c	-0.028113864
81	0xbc98ed75	-0.018667916
82	0xbd0f7ba8	-0.035030037
83	0x3d9b5884	0.075852424
84	0xbdb2bf81	-0.08727933
85	0x3e7e0b94	0.24809104
86	0xbeb9a3f4	-0.362579
87	0xbd4703e8	-0.04858771
88	0xbdf17151	-0.117891915
89	0xbe85cc1e	-0.26132292
90	0x3c92fc2f	0.017942516
91	0xbcc5a19d	-0.024124915
92	0xbdc747c2	-0.097304836
93	0x3ac6378f	0.0015122759
94	0x3e5af0a8	0.21380866
95	0xbe2ecaa3	-0.17069487
96	0xbe2ce82c	-0.16885442
97	0x3a0fcdbe	0.0005485675
98	0x3d645636	0.05574628
99	0x3e13353f	0.1437578
100	0xbea15455	-0.31509653
101	0x3e5199f1	0.2046888
102	0x3e219f0c	0.15783328
103	0x3d173c32	0.03692264
104	0xbe173528	-0.14766371
105	0xbde2a099	-0.11065788
106	0xbe572121	-0.21008731
107	0x3d3a7a2b	0.045526665
108	0x3e1ec68b	0.15505426
109	0xbe373073	-0.17889576
110	0x3d91a80c	0.071121305
111	0xbecab496	-0.395909
112	0x3d0371b7	0.03209087
113	0x3d945460	0.07242656
114	0x3d60c85c	0.054878578
115	0xbd2d6fe1	-0.042343024
116	0x3db8802e	0.09008823
117	0x3db56046	0.08856253
118	0xbe8622e0	-0.26198483
119	0x3e493754	0.19650012
120	0xbd8a47b8	-0.067519605
121	0xbec8c286	-0.3921091
122	0x3e203075	0.15643485
123	0xbe3d9553	-0.18513994
124	0x3cfa0a0e	0.030522373
125	0xbdb937ab	-0.09043821
126	0xbda99d79	-0.08281989
127	0xbedf0e16	-0.43565434
128	0xbdc43a42	-0.09581424
129	0x3dd77e7c	0.10522172
130	0xbe595428	-0.2122351
131	0x3e39b0b8	0.18133819
132	0x3da9876f	0.08277785
133	0xbd304e1b	-0.043043237
134	0x3bb5c098	0.0055466406
135	0xbed562d4	-0.41676962
136	0xbe891a4f	-0.26777884
137	0x3bc079d1	0.0058738966
138	0x3da5ba15	0.08092133
139	0x3e0dd6a5	0.13851412
140	0xbd8acf48	-0.06777817
141	0x3e17be90	0.14818788
142	0xbd153584	-0.03642799
143	0x3d886968	0.0666073
144	0x3d9aff8e	0.075682744
145	0x3d5d304d	0.05400114
146	0xbe0b8e90	-0.13628602
147	0x3d9f81e4	0.077884465
148	0x3d87ba78	0.06627363
149	0xbc8b1742	-0.016978864
150	0xbd4f4d97	-0.050611105
151	0xbda94eb6	-0.08266966
152	0x3db59775	0.08866779
153	0x3c2d43ef	0.010575279
154	0xbb98903d	-0.0046558664
155	0x3d97de87	0.074154906
156	0xbd461972	-0.04836411
157	0x3dcacf59	0.0990283
158	0x3db9a18d	0.090640165
159	0xbd5089d6	-0.0509127
160	0x3dd36ab6	0.10323088
161	0x3e489e59	0.19591655
162	0x3d23d8cd	0.04000168
163	0xbe1e344e	-0.1544964
164	0xbe515823	-0.20443778
165	0x3e1024d3	0.14076547
166	0xbd8a638e	-0.0675727
167	0x3e0e4e55	0.13897069
168	0xbe06bc30	-0.13157725
169	0x3e0eb8e6	0.1393772
170	0x3e8b1d4f	0.27170798
171	0xbd31b2bb	-0.04338334
172	0xbdea592a	-0.11442788
173	0xbdf481aa	-0.11938794
174	0xbecebb43	-0.40377244
175	0x3d038965	0.03211345
176	0x3cd23b24	0.025662966
177	0x3d41938c	0.047259852
178	0xbe467fff	-0.19384764
179	0xbe7c7c44	-0.24656779
180	0xbd94edc5	-0.072719134
181	0x3df97313	0.12180152
182	0xbd9e4002	-0.07727052
183	0x3df2facf	0.11864244
184	0x3c943f56	0.018096607
185	0xbafc5fd5	-0.0019254634
186	0x3ba16ed5	0.0049265423
187	0x3e89dc23	0.26925763
188	0xbd89d7bf	-0.067306034
189	0x3d46dba6	0.048549317
190	0xbcd85449	-0.026407378
191	0xbe77c858	-0.24197519
192	0x3dfe7220	0.12424111
193	0xbe13ad35	-0.14421542
194	0xbd5573e2	-0.052112468
195	0xbd2b5430	-0.041828334
196	0xbd893316	-0.06699197
197	0xbe278ed9	-0.16363086
198	0x3d7bf0b4	0.06150885
199	0x3c824d8e	0.015906122
200	0xbd3255ea	-0.043538965
201	0xbe7e2095	-0.24817117
202	0xbde8605b	-0.11346503
203	0xbd2b1ab8	-0.041773528
204	0xbe3b48b8	-0.18289459
205	0x3de9651b	0.113962375
206	0x3d1741ae	0.03692787
207	0xbda1a90c	-0.07893571
208	0xbeb15660	-0.3463621
209	0xbdf4c561	-0.119517095
210	0xbd849ca8	-0.06475192
211	0x3d92bfa6	0.0716546
212	0x3d2f30cb	0.042771142
213	0xbd36bb71	-0.04461235
214	0xbd4e1ac4	-0.050318494
215	0xbe2e7afb	-0.17039101
216	0xbe25ba69	-0.16184391
217	0x3be8c01d	0.00710298
218	0xbe35b87f	-0.17746161
219	0x3e14561a	0.1448597
220	0x3deec920	0.11659455
221	0xbe290b63	-0.1650825
222	0xbde33478	-0.11093992
223	0x3c83eed5	0.016105095
224	0x3de52af8	0.11189836
225	0x3d068539	0.032841895
226	0x3e0d2313	0.13782911
227	0xbcfe4ee9	-0.031043487
228	0xbe3d1148	-0.18463624
229	0xbea45cdf	-0.32102105
230	0xbe33bc3e	-0.17552277
231	0x3c93258e	0.017962243
232	0x3d0a9ae6	0.03383913
233	0xbd68056f	-0.056645807
234	0xbee70348	-0.4511969
235	0x3b875f75	0.0041312524
236	0x3db6d45d	0.08927224
237	0x3c8e1658	0.017344639
238	0xbec04361	-0.37551406
239	0x3d38a334	0.045077518
240	0xbc2b374e	-0.010450197
241	0xbe3527de	-0.1769099
242	0xbe5042ee	-0.20338032
243	0xbdbad76f	-0.09123122
244	0x3dca544c	0.098793596
245	0x3e825f32	0.25463253
246	0xbdd79a01	-0.10527421
247	0xbd7853f2	-0.06062693
248	0x3d018b1d	0.03162681
249	0x3dd86e7e	0.1056795
250	0xbdb3f28e	-0.08786498
251	0x3e3278c8	0.17428887
252	0x3db7fb9f	0.0898354
253	0xbe4f72ed	-0.20258684
254	0x3b87c3a6	0.004143196
255	0xbe027778	-0.12740886

net.2.bias f4 [128]
0	0x3d1f03ea	0.038822092
1	0x3e1b8a2e	0.1518943
2	0xbe078b1f	-0.13236664
3	0xbd5cf800	-0.05394745
4	0x3d027e17	0.03185853
5	0x3e161cd9	0.14659442
6	0xbe0cfb3b	-0.13767712
7	0xbd8c8d2f	-0.06862866
8	0xbd676a0b	-0.056497615
9	0x3e322cba	0.17399874
10	0xbdd876d1	-0.105695374
11	0x3de08259	0.10962362
12	0x3e12d7ac	0.14340085
13	0x3e1c7e3f	0.15282534
14	0xbe5401a0	-0.20703745
15	0xbe2873e6	-0.16450462
16	0xbd869f0d	-0.06573305
17	0x3e169008	0.14703381
18	0xbdc4cbce	-0.09609185
19	0xbd81eafc	-0.06343648
20	0x3ddea9ed	0.108722545
21	0xbdf5d892	-0.12004198
22	0x3cbfe93f	0.02342665
23	0x3d61b566	0.055104636
24	0xbe0493c1	-0.12946989
25	0x3db572ac	0.088597625
26	0xbda194a2	-0.078896776
27	0xbe0c625d	-0.13709398
28	0xba64af34	-0.0008723617
29	0x3e6581ea	0.2241284
30	0xbdc5aac4	-0.096517116
31	0x3d9c9f40	0.07647562
32	0xbcf5c538	-0.030001268
33	0xbd9bdfd7	-0.076110534
34	0xbcb8c9da	-0.022557188
35	0x3d838031	0.06420935
36	0xbe0f8b00	-0.14017868
37	0xbe6c5f4f	-0.23083232
38	0xbd9580c1	-0.072999485
39	0x3e066ec4	0.13128191
40	0x3d77e801	0.06052399
41	0x3cdea10f	0.027176408
42	0x3e29f25b	0.16596358
43	0xbe608c7a	-0.21928588
44	0xbd66a06e	-0.05630534
45	0xbdb10111	-0.086427815
46	0x3e0f2373	0.13978367
47	0xbdab5161	-0.08365131
48	0x3d99ed9e	0.07516025
49	0x3ced137c	0.028939955
50	0xbbdbaf73	-0.006704265
51	0xbd39ba11	-0.045343462
52	0xba9b37b4	-0.0011842162
53	0xbdf822fb	-0.12116047
54	0xbe8f8a9e	-0.28035444
55	0x3df3462b	0.11878618
56	0x3d9d8b9c	0.07692644
57	0x3d80fb95	0.062979855
58	0xbcea0adb	-0.02856963
59	0x3d1c9244	0.038225427
60	0x3e5be6c6	0.21474752
61	0x3dcabcb0	0.098992705
62	0xbdcde3e5	-0.10053233
63	0x3d09a1e5	0.03360166
64	0x3cbf9a55	0.023389021
65	0xbdffade4	-0.12484339
66	0xbdacb66a	-0.0843323
67	0x3cdff5dd	0.027338916
68	0x3e5eda70	0.21763015
69	0x3d6327d0	0.05545789
70	0xbd591b1f	-0.05300438
71	0xbe0a115c	-0.13483185
72	0xbda23798	-0.0792076
73	0x3d928f97	0.07156294
74	0xbca46cc7	-0.0200714
75	0xbdc94c3d	-0.098289944
76	0xbd68604f	-0.056732472
77	0x3d25216e	0.040315084
78	0xbdb22f32	-0.08700408
79	0xbe12ca58	-0.14335
80	0xbd0d92b1	-0.034563724
81	0x3cbdcae8	0.023168042
82	0x3e10362f	0.1408317
83	0xbdf45f64	-0.11932257
84	0xbe0a8c5e	-0.13530108
85	0x3d711c37	0.0588648
86	0xbd3f3c78	-0.046688527
87	0xbd5e316d	-0.054246355
88	0xbcd23c25	-0.025663445
89	0x3e66ec41	0.22551061
90	0xbcc6aaf6	-0.024251442
91	0x3d471e90	0.04861313
92	0xbb8619c7	-0.0040924284
93	0x3e1b4a4f	0.15165065
94	0x3e41d399	0.18928374
95	0x3e06195e	0.13095614
96	0xbd89ca5f	-0.06728052
97	0xbda67a94	-0.08128849
98	0x3c5fccd0	0.013659671
99	0xbe219571	-0.15779664
100	0xbde44efb	-0.11147877
101	0x3c32cb49	0.010912725
102	0xbd4c48f8	-0.049874276
103	0xbcd2ff3d	-0.025756473
104	0xbd684292	-0.05670411
105	0x3dd6a614	0.10480896
106	0x3caad825	0.020855019
107	0xbc90e27d	-0.017686123
108	0x3dc7f513	0.09763541
109	0xbdc1e0f5	-0.09466735
110	0xbdee92f3	-0.11649122
111	0xbe6b86b3	-0.23000602
112	0x3d4c9e2e	0.04995554
113	0x3d85c615	0.06531922
114	0xbdc6eade	-0.09712766
115	0xbd339a1f	-0.043848153
116	0x3d8919d0	0.066943765
117	0xbab79db4	-0.0014008791
118	0x3da612d7	0.08109062
119	0x3df0bdda	0.11754961
120	0xbc0543ea	-0.008133868
121	0x3ccb3825	0.024807045
122	0x3db8f1ef	0.0903052
123	0x3e780f5c	0.24224609
124	0xbdc07c68	-0.093987286
125	0x3d8b6cb6	0.06807844
126	0x3adfaaee	0.0017064491
127	0xbd5c2061	-0.053741816

net.4.weight f4 [3, 128]
0	0x3e4d92f2	0.20075586
1	0x3c871de5	0.016493747
2	0xbeb33481	-0.35000995
3	0x3ec6cf35	0.3882996
4	0xbe974657	-0.29545853
5	0x3e87a347	0.26491758
6	0xbb75eeec	-0.0037526442
7	0xbee5c3f1	-0.44876054
8	0x3d8f81ab	0.07007154
9	0xbf0007ec	-0.5001209
10	0x3d47a3d5	0.048740227
11	0xbe3a4694	-0.18190986
12	0xbea70fad	-0.32629147
13	0x3ea9d8e3	0.33173284
14	0x3e2e8dd1	0.17046286
15	0x3e11b6f0	0.14229941
16	0x3ec3d013	0.38244686
17	0x3e46a9ac	0.19400662
18	0xbeeed8fc	-0.4664992
19	0xbe94e9ef	-0.29084727
20	0xbdc44285	-0.09583
21	0xbe5cc2d5	-0.21558698
22	0x3e9ace90	0.3023572
23	0xbe2db04c	-0.16961783
24	0xb9c9fa90	-0.0003852439
25	0xbe368e32	-0.1782768
26	0xbdf93371	-0.12168015
27	0x3ea22c54	0.31674445
28	0xbe08cabb	-0.13358586
29	0xbe778525	-0.24171884
30	0xbe3aa217	-0.18225895
31	0xbe553d7f	-0.2082424
32	0xbe845ead	-0.25853482
33	0xbd975ef6	-0.07391159
34	0xbec0cd68	-0.37656713
35	0x3e804253	0.250506
36	0x3d85c9e4	0.06532648
37	0xbeab54cc	-0.33463132
38	0x3d50ee8a	0.05100874
39	0xbe158f8f	-0.14605545
40	0x3eb72138	0.3576753
41	0xbe404e53	-0.18779878
42	0xbe6bfa8e	-0.23044798
43	0xbf07fb08	-0.5311742
44	0xbdeb115b	-0.1147792
45	0xbdd3c505	-0.10340313
46	0xbdd1b461	-0.10239483
47	0xbe8772f9	-0.26454905
48	0x3dab3814	0.083603054
49	0xbe38f715	-0.18063004
50	0x3eaf4df7	0.3423917
51	0xbc0605f2	-0.008180128
52	0xbed8d8be	-0.4235286
53	0x3dba8892	0.0910808
54	0x3f042859	0.51624066
55	0x3d40f2f5	0.047106702
56	0x3dcf9a77	0.10136884
57	0xbd377af1	-0.04479498
58	0x3c24a6b3	0.01004951
59	0x3e635140	0.22198963
60	0x3ee6ab53	0.45052585
61	0xbeab3a2d	-0.33442822
62	0x3bf08c4e	0.0073409444
63	0x3d766b83	0.060161125
64	0x3e35a8b3	0.17740135
65	0xbe66de73	-0.22545795
66	0x3e829d02	0.25510412
67	0xbda7097a	-0.081561044
68	0x3d4889ee	0.048959665
69	0x3c881b96	0.016614717
70	0x3deace7f	0.11465167
71	0x3ed261be	0.41090196
72	0x3e10a454	0.14125186
73	0x3e09e9c7	0.13468085
74	0xbdbbc152	-0.09167732
75	0x3cb5582a	0.022136766
76	0x3cb4dfee	0.022079434
77	0x3d3fea98	0.046854585
78	0x3d91ed03	0.071252845
79	0x3e520544	0.20509821
80	0x3d0bc3b8	0.0341222
81	0x3dbb98ca	0.091600016
82	0x3eb4c31e	0.35305113
83	0xbe2aa303	-0.16663747
84	0x3e0b0186	0.135748
85	0xbded2399	-0.11579055
86	0x3e049b85	0.12949951
87	0xbf28f093	-0.6599209
88	0xbe997595	-0.2997252
89	0x3ed51ce7	0.41623613
90	0x3c150aeb	0.009096841
91	0xbe0b44d9	-0.13600482
92	0xbdb574f6	-0.08860199
93	0x3ee7241d	0.4514474
94	0xbdabc496	-0.08387105
95	0x3f11333b	0.56718796
96	0xbe5e08ab	-0.21682994
97	0xbf101cd0	-0.56293964
98	0x3da853b9	0.08219094
99	0xbd926912	-0.07148947
100	0xbc0cae31	-0.008586452
101	0xbe06a7a0	-0.13149881
102	0xbec76513	-0.389443
103	0x3d99edc4	0.07516053
104	0x3befb502	0.007315279
105	0x3e5196cc	0.2046768
106	0xbe9865f2	-0.29765278
107	0x3e853d43	0.260233
108	0xbe0b1c2f	-0.1358497
109	0x3d92d72c	0.07169947
110	0x3cd0a9d8	0.025471613
111	0x3a5c014b	0.00083925267
112	0xbd4049d1	-0.046945397
113	0x3e293a13	0.1652606
114	0xbe325ebf	-0.17418955
115	0xbeac2031	-0.3361831
116	0x3da7eb2f	0.081991546
117	0xbd874a09	-0.06605918
118	0x3e906230	0.2819991
119	0x3e07074f	0.13186382
120	0x3e2f7709	0.17135252
121	0xbeb4de91	-0.35326055
122	0x3dcbdbfc	0.09954068
123	0x3e8580a4	0.26074708
124	0x3d0cca43	0.03437258
125	0xbe360457	-0.17775093
126	0x3c546f22	0.012965949
127	0xbe6c8eb2	-0.23101309
128	0x3a8981b4	0.0010490925
129	0x3cd39f7b	0.025832882
130	0xbe626023	-0.22106986
131	0x3d778d78	0.06043765
132	0x3e7984bf	0.24367045
133	0xbcfd009c	-0.03088408
134	0xbc5b3cc1	-0.013381184
135	0x3e4fd2df	0.20295285
136	0x3e0fbcc1	0.14036848
137	0x3c978e15	0.018500367
138	0xbe249519	-0.16072501
139	0x3dada417	0.08478563
140	0x3d1fe819	0.039039705
141	0x3d45eb4d	0.048320103
142	0x3df5e408	0.12006384
143	0x3cba045b	0.022707155
144	0x3d93fb05	0.072256126
145	0x3e4a4580	0.19753075
146	0xbcb5d7a4	-0.022197552
147	0x3e8c6117	0.27417824
148	0x3e952eae	0.29137176
149	0x3e0ac945	0.1355334
150	0xbe8e1bb9	-0.27755526
151	0x3e684966	0.2268425
152	0xbd29c30f	-0.041445788
153	0xbcd04f6e	-0.0254285
154	0xbe0e8022	-0.13916066
155	0xbd9d3b37	-0.0767731
156	0x3f065261	0.5246945
157	0xbdc74010	-0.09729016
158	0x3d74e76a	0.059791006
159	0xbe2730ad	-0.16327162
160	0xbe089eda	-0.13341847
161	0x3e5ae9c7	0.21378241
162	0xbca762d9	-0.020432876
163	0xbd2e3a91	-0.042536322
164	0x3e919ab9	0.28438357
165	0x3e246d59	0.16057338
166	0x3d5a5279	0.05330131
167	0xbde7f296	-0.113255665
168	0x3bb6dc3b	0.0055804527
169	0x3d210c59	0.039318416
170	0xbeaa46e4	-0.3325721
171	0xbe17d239	-0.14826287
172	0x3ea8e1c2	0.3298474
173	0xbe1f2e85	-0.1554509
174	0x3cc2b4ab	0.02376779
175	0xbd8e7dc9	-0.06957585
176	0x3e399862	0.18124536
177	0x3e2b2431	0.16713025
178	0x3d8a1c83	0.067437194
179	0xbd91c0c8	-0.07116848
180	0x3e4be9b0	0.19913363
181	0xbeb2fa89	-0.34956768
182	0xbdbda8d8	-0.0926072
183	0xbd9203f9	-0.07129664
184	0x3e361e5c	0.17785019
185	0x3e4819d5	0.19541104
186	0xbe93377d	-0.28753272
187	0xbdc4d783	-0.09611418
188	0xbee9c90d	-0.45661202
189	0xbd9477ed	-0.072494365
190	0xbd0a0f0f	-0.033705767
191	0x3d87cc06	0.06630711
192	0xbeae8a14	-0.3408972
193	0x3e1b95fe	0.15193936
194	0xbeccbe74	-0.39989054
195	0x3e9bedfd	0.30455008
196	0xbe890310	-0.2676015
197	0xbe65813e	-0.22412583
198	0x3e22cac0	0.15897655
199	0x3cace0f6	0.021103363
200	0xbe514384	-0.20435911
201	0x3e21fb88	0.15818608
202	0x3d656350	0.056002915
203	0x3e534875	0.20633109
204	0xbeb3b6f4	-0.3510052
205	0xbe7a325f	-0.24433278
206	0x3d503c88	0.050838977
207	0xbf108f80	-0.56468964
208	0xbcaf3fc1	-0.021392705
209	0x3d766156	0.06015142
210	0xbe17320e	-0.14765188
211	0x3e8dd51c	0.27701652
212	0xbd90abbe	-0.07064007
213	0x3defb079	0.11703581
214	0xbd626b4f	-0.05527812
215	0xbf4c0196	-0.7968992
216	0x3e441942	0.1915026
217	0x3d2396ee	0.03993886
218	0xbe8022fd	-0.25026694
219	0x3e50a638	0.20375907
220	0xbd1bc6d0	-0.0380314
221	0xbe5d8a32	-0.21634749
222	0xbd347325	-0.044055123
223	0xbe3cb7dc	-0.18429512
224	0xbe5d8aca	-0.21634975
225	0x3e73afe6	0.23797569
226	0xbd19e529	-0.03757206
227	0x3df1b741	0.11802531
228	0xbd810f50	-0.06301749
229	0x3ed78a5e	0.42097753
230	0xbba5ae0a	-0.0050561475
231	0xbe39d7e3	-0.1814876
232	0xb9d2fe2a	-0.00040243688
233	0x3d429c31	0.047512237
234	0x3e14307e	0.14471623
235	0x3db4dabe	0.08830784
236	0xbe534566	-0.20631942
237	0x3e18449e	0.14869925
238	0xbc3002b7	-0.010742835
239	0x3ea76e76	0.32701463
240	0x3debb182	0.11508466
241	0x3d826f2c	0.063688606
242	0x3d87ce92	0.06631197
243	0x3e6c0ec5	0.23052509
244	0x3defa479	0.117012925
245	0xbdb9116e	-0.090365276
246	0xbe0caee1	-0.13738586
247	0x3da548e5	0.08070544
248	0xbec57234	-0.38563693
249	0xbcd9a53a	-0.026568044
250	0xbe6afa42	-0.22947028
251	0xbca7baf4	-0.020474888
252	0x3e5ca930	0.21548915
253	0x3d1a5ded	0.03768723
254	0x3de9aa77	0.11409467
255	0x3ea55bfe	0.32296747

net.4.bias f4 [3]
0	0xbd749a14	-0.059717253
1	0xbda36bec	-0.07979569
2	0x3d767455	0.060169537
