stock_label3_model.pth (torch, 90934 bytes, 6 tensors)

net.0.weight f4 [128, 29]
0	0xbad58844	-0.0016291221
1	0xbcd187d6	-0.025577467
2	0x3b30e75e	0.0026993374
3	0x3d8af7da	0.06785555
4	0x3d2002eb	0.039065283
5	0x3bcb8b04	0.0062116403
6	0x3dae9e7b	0.085263215
7	0xbdd9694a	-0.106157854
8	0x3eaafa53	0.33394107
9	0x3d9384c5	0.07203058
10	0xbda86811	-0.08222974
11	0x3e748358	0.23878229
12	0x3e1eeb38	0.15519416
13	0xbd1119a7	-0.035424855
14	0x3dabf7bb	0.0839686
15	0x3d4e1bb7	0.0503194
16	0x3ddd11de	0.107944235
17	0xbd9997e4	-0.07499674
18	0xbdcdc33f	-0.10047006
19	0xbd72db9d	-0.05929147
20	0xbdad8e39	-0.084743924
21	0x3dc53d11	0.09630788
22	0xbe073b90	-0.13206315
23	0x3e68d176	0.22736153
24	0x3df64068	0.12024003
25	0xbe79c723	-0.24392371
26	0x3e950fd0	0.29113626
27	0xbc43efad	-0.011958999
28	0xbe2eae04	-0.17058569
29	0x3da15e71	0.078793414
30	0x3d31c6eb	0.043402594
31	0xbd5f9f48	-0.05459526
32	0x3d770409	0.060306583
33	0xbedefe3a	-0.43553334
34	0x3e2dd636	0.16976246
35	0x3ceb91a4	0.02875597
36	0xbdca148b	-0.098671995
37	0x3ebff8ce	0.3749451
38	0x3df36637	0.1188473
39	0x3d586243	0.052828085
40	0x3e7ea6eb	0.24868362
41	0xbd817e0f	-0.06322872
42	0xbd71f6c9	-0.059073243
43	0xbdcd86fe	-0.10035513
44	0x3e9351e9	0.2877343
45	0xbe2a9e69	-0.16661991
46	0x3daaef42	0.08346416
47	0x3e2b997c	0.16757768
48	0xbe36c751	-0.1784947
49	0x3db5b384	0.088721305
50	0x3e07b165	0.13251264
51	0xbe44d8c7	-0.19223319
52	0xbd8f84aa	-0.070077255
53	0x3e26a53a	0.16273966
54	0xbcd70a5c	-0.026250057
55	0xbe0dfe0f	-0.13866447
56	0xbe2fc414	-0.17164642
57	0x3c1a52d7	0.009419165
58	0xbe594c8d	-0.21220608
59	0x3dec3678	0.115338266
60	0xbda0c3c2	-0.07849838
61	0xbe390271	-0.18067338
62	0xbd857c45	-0.06517843
63	0xbdfa15cf	-0.12211191
64	0x3df9b285	0.12192253
65	0x3d8d6dec	0.069057316
66	0xbd0eb7f0	-0.034843385
67	0xbdf10dae	-0.11770187
68	0xbe727f6e	-0.23681423
69	0x3e380da3	0.17973952
70	0xbc5f43af	-0.013626977
71	0xbd81b77b	-0.06333824
72	0xbe40e6f1	-0.18838097
73	0x3e2f1e3f	0.17101382
74	0xbdaed9a0	-0.085376024
75	0xbd76ebbd	-0.06028341
76	0xbd0d76df	-0.034537192
77	0x3c294f6b	0.010333876
78	0x3c833b9b	0.016019633
79	0x3ca04254	0.019562878
80	0xbefd2830	-0.49444723
81	0x3ca37890	0.01995495
82	0x3c10ba99	0.008833551
83	0x3dc05940	0.09392023
84	0x3da1974e	0.07890187
85	0xbc007a4e	-0.00784166
86	0xbd579fde	-0.052642696
87	0x3c204587	0.009782202
88	0xbdb93c58	-0.09044713
89	0xbd12ccb1	-0.03583974
90	0xbdaa186c	-0.08305439
91	0xbec3f8df	-0.3827581
92	0x3de09ac5	0.1096702
93	0xbcfb8684	-0.03070379
94	0xbd39e16c	-0.045380995
95	0x3e58dcf8	0.21178043
96	0x3e0e7751	0.13912703
97	0x3e0259e3	0.12729602
98	0x3bfd947b	0.0077386475
99	0x3e217dfd	0.15770717
100	0xbe34ece7	-0.17668496
101	0x3e4f4786	0.20242128
102	0xbe802e88	-0.250355
103	0x3df308eb	0.11866935
104	0x3e445c85	0.19175918
105	0x3e62bba5	0.22141893
106	0x3cb3f7d7	0.021968765
107	0xbd9e9573	-0.07743349
108	0x3de944e3	0.11390092
109	0x3ee08da5	0.43858066
110	0x3e2a7f70	0.16650176
111	0x3ed3945a	0.4132412
112	0xbe84784a	-0.25873023
113	0xbe41d812	-0.1893008
114	0xbd511479	-0.051044915
115	0x3d83acdf	0.06429457
116	0xbe01c92b	-0.12674396
117	0x3d540818	0.05176553
118	0x3d9aad31	0.07552565
119	0x3d8005b2	0.06251086
120	0x3db15563	0.08658864
121	0x3e575b5f	0.21030949
122	0x3e4c5412	0.19953945
123	0x3dd30fc4	0.103057414
124	0x3cd77991	0.026303085
125	0x3cd5fc46	0.02612127
126	0xbe820a1a	-0.25398332
127	0xbe1b9a1f	-0.15195511
128	0x3ebda34f	0.37038657
129	0x3e37113a	0.17877665
130	0xbdca4a51	-0.09877456
131	0x3eb05c15	0.34445253
132	0xbd8c039d	-0.06836627
133	0x3dac51bf	0.08414029
134	0x3bec7990	0.00721664
135	0x3ddd8b93	0.10817637
136	0xbe0d3662	-0.13790277
137	0xbda92667	-0.08259278
138	0x3ea28d2a	0.31748325
139	0xbe98a6a4	-0.29814637
140	0x3d5c897f	0.053842064
141	0x3d273969	0.040826235
142	0xbe962feb	-0.29333434
143	0xbd2e6a39	-0.04258177
144	0xbc743c2b	-0.014906923
145	0x3e428ff4	0.19000226
146	0x3db1335c	0.08652374
147	0x3e042744	0.12905604
148	0xbc582ff9	-0.013195031
149	0x3dc33287	0.09531122
150	0x3d9568dc	0.07295391
151	0xbcb79fb9	-0.022415029
152	0x3cd7aa49	0.026326315
153	0xbe2fd227	-0.1717001
154	0x3d71ce59	0.05903468
155	0xbe4bd869	-0.19906773
156	0xbdbf1f05	-0.093320884
157	0xbf30b5d5	-0.69027454
158	0x3d182d5b	0.03715263
159	0xbe7046af	-0.23464464
160	0xbbe17b64	-0.0068811644
161	0xbd9a4db9	-0.07534356
162	0x3d0334c7	0.032032754
163	0xbdbbd542	-0.09171535
164	0xbe182a2a	-0.14859834
165	0xbd8f4eaf	-0.069974296
166	0xbdc04a66	-0.093891904
167	0x3e994d0c	0.29941595
168	0x3ea48332	0.32131344
169	0xbd45e401	-0.048313145
170	0x3e570721	0.20998813
171	0xbe3fdce4	-0.18736607
172	0x3bef469b	0.007302118
173	0xbe26850c	-0.16261691
174	0xbd8c3ad1	-0.06847156
175	0x3e07930b	0.13239686
176	0xbde2f481	-0.11081792
177	0xbe160675	-0.146509
178	0xbeb8022b	-0.35939154
179	0x3e42ff2d	0.19042654
180	0xbbda1034	-0.0066547636
181	0x3e364cfe	0.17802808
182	0x3bb927da	0.0056505026
183	0x3cc403ee	0.023927655
184	0xbd3c3953	-0.045953106
185	0x3e8a8165	0.27051845
186	0x3dbf58e0	0.093431234
187	0x3e8044f4	0.25052607
188	0x3e2da694	0.16958076
189	0x3e61066f	0.2197511
190	0xbe10b9a6	-0.1413332
191	0x3dfcfebd	0.12353275
192	0xbe0f235a	-0.1397833
193	0x3d5d5819	0.054039095
194	0xbdb01fd3	-0.0859982
195	0x3df08bc2	0.11745407
196	0x3de8920e	0.11355983
197	0xbe99d7a1	-0.30047324
198	0xbdaec6e9	-0.08534033
199	0xbeb87143	-0.36023912
200	0xbd19dd1c	-0.037564382
201	0xbd21bc56	-0.03948625
202	0x3e802b61	0.25033095
203	0x3d3bb5dd	0.045827735
204	0xbc9de2ac	-0.019273125
205	0x3d6694b5	0.05629416
206	0x3daa1e4c	0.0830656
207	0xbda61784	-0.08109954
208	0xbed5d86d	-0.41766682
209	0x3d443b12	0.047907896
210	0x3cbc4249	0.022980826
211	0xbe8bcf6e	-0.27306694
212	0x3cb1c57f	0.021700619
213	0xbd630e9c	-0.055433854
214	0xbe0c5f5c	-0.13708252
215	0x3ddd9e20	0.108211756
216	0xbdadb5ad	-0.084819175
217	0x3e00a3ab	0.12562434
218	0xbdbc0f5b	-0.09182616
219	0xbbe39186	-0.006944838
220	0xbce16f4d	-0.027518893
221	0xbdcf745e	-0.10129617
222	0x3e83e811	0.2576299
223	0x3e792977	0.24332224
224	0xbd4fb7a6	-0.05071225
225	0xbea994ed	-0.33121434
226	0xbe3c2edf	-0.18377255
227	0xbd70f6f6	-0.05882927
228	0xbd812a19	-0.063068576
229	0xbd7fc6e9	-0.062445555
230	0xbdb03133	-0.08603134
231	0xbdf2a5d9	-0.11848039
232	0xbe0e4702	-0.13894275
233	0xbe565804	-0.20932013
234	0xbe3155cb	-0.17317884
235	0xbc975ae3	-0.018475955
236	0xbe1603e2	-0.14649919
237	0xbe4c11e8	-0.19928706
238	0x3e087acd	0.13328095
239	0xbe220aaf	-0.15824388
240	0x3e52de41	0.20592596
241	0x3e128f9e	0.14312598
242	0xbe1e7274	-0.15473348
243	0xbd8b2c3c	-0.067955464
244	0xbd9aee98	-0.075650394
245	0x3e8553cf	0.26040503
246	0x3e3fb658	0.18721902
247	0x3e3a5507	0.18196498
248	0x3ca082c1	0.019593598
249	0x3d773747	0.06035545
250	0xbcdc3981	-0.026882889
251	0xbe150968	-0.1455437
252	0xbe034bde	-0.1282191
253	0xbdd20f10	-0.10256779
254	0xbdbfee39	-0.09371609
255	0x3e5ac429	0.21363892

net.0.bias f4 [128]
0	0xbe0c5aa1	-0.13706447
1	0xbedbc18e	-0.42921108
2	0xbd8c6594	-0.06855312
3	0xbe9be5ab	-0.3044866
4	0xbbc1bd8b	-0.005912488
5	0xbdb38d88	-0.08767229
6	0xbe91223b	-0.28346428
7	0xbe0a14a3	-0.13484435
8	0xbe9dadfb	-0.307968
9	0xbdbe5a59	-0.09294576
10	0x3e1f74cb	0.15571897
11	0xbd6ff893	-0.05858667
12	0xbdc09107	-0.09402662
13	0xbe86764b	-0.26262125
14	0xbdd97b73	-0.10619249
15	0xbd9a4d83	-0.075343154
16	0x3d7f9a35	0.062402923
17	0xbf0348eb	-0.5128314
18	0xbe136abe	-0.14396188
19	0xbe5fdb20	-0.21860933
20	0x3d1c28bd	0.03812479
21	0xbf1859d5	-0.5951207
22	0xbc786cdd	-0.015162674
23	0xbea145c6	-0.31498545
24	0xbe879914	-0.26483977
25	0xbe9d144d	-0.3067955
26	0x3c8bae5c	0.017050914
27	0xbecd9a04	-0.40156567
28	0x3c3b6c9f	0.0114394715
29	0xbee7e4be	-0.45291704
30	0xbe5a2cf6	-0.21306214
31	0xbe9f0eb4	-0.31065905
32	0xbde1235b	-0.10993072
33	0xbe9a5596	-0.30143422
34	0x3d41fb85	0.04735901
35	0xbd3f6e3d	-0.04673599
36	0xbde5f24b	-0.11227854
37	0xbea0e472	-0.3142429
38	0xbe9f5434	-0.3111893
39	0xbef9cc8a	-0.48788863
40	0xbea0f582	-0.31437308
41	0xbe986aed	-0.29769078
42	0xbecea64d	-0.40361252
43	0x3d5d4ae3	0.054026496
44	0xbda3fff7	-0.08007806
45	0xbea292cc	-0.31752622
46	0xbe79b189	-0.2438413
47	0xbb7a479c	-0.0038189655
48	0xbe0d47ca	-0.13796917
49	0xbc91f799	-0.01781826
50	0xbe951030	-0.29113913
51	0xbe4859ad	-0.19565459
52	0xbeb60071	-0.35547212
53	0xbd443d48	-0.047910005
54	0xbe7d3e94	-0.24730903
55	0xbe0be369	-0.13660969
56	0xbe3b6063	-0.18298487
57	0xbec94177	-0.39307758
58	0xbe8a69be	-0.270338
59	0x3cadf205	0.021233568
60	0xbed99b2c	-0.425012
61	0xbea3ef03	-0.3201829
62	0x3e270b03	0.16312794
63	0xbdc27798	-0.09495467
64	0xbe30a00c	-0.17248553
65	0xbd1ac7bb	-0.037788134
66	0x3e059352	0.1304448
67	0x3c01b516	0.007916709
68	0xbe0eeef0	-0.13958335
69	0xbead6193	-0.33863506
70	0xbdc049fc	-0.093891114
71	0xbe8367ee	-0.2566523
72	0xbe398dab	-0.18120448
73	0xbe6165c9	-0.22011484
74	0x3dd87cb3	0.105706595
75	0xbdd48f09	-0.10378844
76	0x3e1780ec	0.14795274
77	0xbd1941e5	-0.037416358
78	0xbe94f506	-0.29093188
79	0xbea5ec76	-0.32406968
80	0xbcba2640	-0.022723317
81	0xbebf3e5a	-0.37352258
82	0x3cf54a79	0.029942738
83	0xbd104d75	-0.03523012
84	0xbe96e321	-0.2947016
85	0xbdffed68	-0.124964535
86	0xbd93b260	-0.07211757
87	0xbca87a62	-0.02056617
88	0x3c8e85c7	0.017397774
89	0xbefc1301	-0.4923325
90	0xbeae3fd0	-0.3403306
91	0x3b7e528e	0.003880653
92	0xbe52c72b	-0.20583789
93	0xbd95b781	-0.07310391
94	0xbeb1e5cc	-0.34745634
95	0xbf094732	-0.5362426
96	0x3bef73d6	0.00730751
97	0xbeaf115c	-0.34192932
98	0xbdc4de3b	-0.096126996
99	0x3ba2d6a5	0.0049694353
100	0xbe3ce560	-0.18446875
101	0xbf136c9e	-0.5758761
102	0xbe4f32a4	-0.20234162
103	0xbe7e131a	-0.24811974
104	0xbe684eae	-0.22686264
105	0xbe1737f5	-0.1476744
106	0xbe5bd763	-0.21468882
107	0xbee60260	-0.44923687
108	0x3d42a159	0.047517154
109	0xbe7bac53	-0.24577455
110	0x3d697fd3	0.05700667
111	0xbe6bb83a	-0.23019496
112	0x3c67dbc7	0.01415152
113	0x3e06201c	0.13098186
114	0xbe96e4e6	-0.2947151
115	0xbe65fe0c	-0.22460192
116	0xbefdf4bf	-0.4960079
117	0x3c46b152	0.012127237
118	0xbeec4577	-0.46146747
119	0xbe280cba	-0.16411105
120	0xbece967d	-0.40349188
121	0x3d8f8307	0.07007413
122	0xbd3e4aca	-0.046458043
123	0xbebad0a1	-0.36487296
124	0xbe3fedc2	-0.18743041
125	0xbe9035a1	-0.28165916
126	0x3db8ea75	0.09029094
127	0xbe840b21	-0.2578974

net.2.weight f4 [128, 128]
0	0xbe9702ab	-0.29494223
1	0x3d17a492	0.03702218
2	0x3d8e3b11	0.0694486
3	0xbe7553ca	-0.23957744
4	0x3dc74c4c	0.09731349
5	0xbdc15bb2	-0.094413176
6	0xbe1046be	-0.14089486
7	0x3d220bcc	0.03956203
8	0x3c96fc72	0.018430922
9	0xbde0fe61	-0.10986019
10	0xbe0f8343	-0.14014916
11	0xbddea306	-0.10870938
12	0x3e1a4813	0.15066557
13	0x3cdb678a	0.02678277
14	0x3cc28594	0.023745336
15	0x3e4ac699	0.19802321
16	0x3cc7a0d5	0.024368683
17	0xbe61d67e	-0.22054479
18	0x3bae6245	0.0053217732
19	0xbdee32fe	-0.1163082
20	0x3d60b3cd	0.05485897
21	0xbe0cf004	-0.13763434
22	0x3c949e69	0.018141942
23	0x3d8a963f	0.067669384
24	0x3c714c5e	0.01472768
25	0x3d06e69f	0.03293478
26	0xbdc22205	-0.09479145
27	0xbc2892fe	-0.010288952
28	0x3e07fa10	0.13278985
29	0x3e25e5b9	0.16200913
30	0x3d116b1f	0.03550255
31	0x3d8233d6	0.06357543
32	0xbc36954f	-0.011143996
33	0x3dfc71b0	0.12326372
34	0x3e79d5b9	0.24397935
35	0xbe749305	-0.23884209
36	0xbd483a60	-0.048883796
37	0xbeeee1c6	-0.46656626
38	0xbe0acf71	-0.13555695
39	0xbf09647f	-0.5366897
40	0x3d076b61	0.03306139
41	0x3de8d3d6	0.113685295
42	0xbd81ab17	-0.06331461
43	0xbe58e34f	-0.21180461
44	0x3d1b0f7a	0.037856556
45	0x3e1a3c4a	0.15062061
46	0x3e1b9180	0.15192223
47	0x3a5d98c0	0.00084532425
48	0x3e97342e	0.29531997
49	0xbe80ead1	-0.2517915
50	0xbeba2289	-0.36354473
51	0xbe03d216	-0.1287311
52	0x3c467aaf	0.012114211
53	0xbe6e32fe	-0.2326164
54	0x3daa4c6a	0.08315356
55	0x3ddbb0e9	0.10727102
56	0xbcf91a32	-0.030407999
57	0x3e286962	0.1644645
58	0x3bcd8ac8	0.0062726475
59	0xbddd1759	-0.10795469
60	0x3c6fa47c	0.0146266185
61	0xbe7f0853	-0.24905519
62	0x3c52c334	0.012863923
63	0x3df41a82	0.119191185
64	0x3c8a266f	0.01686403
65	0x3e1e00a9	0.1542994
66	0xbe10b051	-0.1412976
67	0x3d9dbe5a	0.07702322
68	0xbee2420f	-0.44191024
69	0x3e900a37	0.28132793
70	0xbc819a08	-0.015820518
71	0xbe804ae2	-0.2505713
72	0xbd0c3b61	-0.034236316
73	0x3e13000a	0.14355484
74	0xbdf24212	-0.11829008
75	0xbd4c1672	-0.049826093
76	0xbd3a1032	-0.0454256
77	0x3d3c443b	0.045963507
78	0x3dd3f52c	0.10349497
79	0xbd452076	-0.04812666
80	0xbd95df23	-0.073179506
81	0xbe6db50d	-0.23213597
82	0x3c96076b	0.018314084
83	0xbea1263e	-0.3147449
84	0x3decdefb	0.11565968
85	0xbe11cfae	-0.1423938
86	0xbe67fe98	-0.22655714
87	0x3dc809ff	0.097675316
88	0xbdfbd033	-0.1229557
89	0xbe885d38	-0.2663362
90	0x3e8a58c9	0.27020863
91	0x3e12a829	0.1432196
92	0x3d0a3e0e	0.033750586
93	0x3b686d4c	0.0035465537
94	0x3e0d8aeb	0.13822524
95	0xbe08a95b	-0.13345854
96	0x3d5cd312	0.05391223
97	0x3e0ae785	0.1356488
98	0x3db7f1f8	0.08981699
99	0xba7e81fb	-0.00097086997
100	0x3e3c0953	0.18362932
101	0x3e257156	0.16156515
102	0xbe44d688	-0.19222462
103	0xbd157702	-0.036490448
104	0x3d88e317	0.06683939
105	0x3cd9917d	0.026558632
106	0x3e8a7e57	0.27049515
107	0x3d594a20	0.053049207
108	0xbd02d370	-0.031939924
109	0xbe9afb44	-0.30269825
110	0x3d49b8a8	0.049248368
111	0xbd3e68ee	-0.046486787
112	0xbdb3781a	-0.08763142
113	0x3b28c4bd	0.002575203
114	0x3e61c068	0.22046053
115	0xbe257c17	-0.16160618
116	0xbc3d75e7	-0.011563755
117	0x3cde11e1	0.027108135
118	0x3dcea9a6	0.100909516
119	0x3c887142	0.016655568
120	0x3e2b6d73	0.1674097
121	0xbbb1151a	-0.005404127
122	0xbe18b3fe	-0.14912412
123	0x3cd90af8	0.026494488
124	0xbdf87ff2	-0.12133779
125	0x3b1fc7d9	0.0024380593
126	0xbcb3e54b	-0.021959921
127	0xbdd8b6cb	-0.1058174
128	0x3debb461	0.11509014
129	0x3e43e6d3	0.19131021
130	0xbe7ea396	-0.2486709
131	0x3d6ea4d5	0.058262665
132	0xbce37b9e	-0.027768906
133	0x3da3cfd8	0.079986274
134	0xbe64d936	-0.22348484
135	0xbd14bc9a	-0.036312677
136	0xbe50586a	-0.20346227
137	0xbe4322d4	-0.19056255
138	0xbe2e3379	-0.17011823
139	0xbd8d9e0f	-0.06914913
140	0x3ccda78e	0.02510431
141	0x3d59410d	0.053040553
142	0x3dc7f04f	0.09762632
143	0x3dc80678	0.09766859
144	0xbe08c66c	-0.13356942
145	0xbd89aa42	-0.06721927
146	0x3dcf2db4	0.10116139
147	0x3db58bf9	0.08864588
148	0xbd9ee7b0	-0.07759035
149	0xbd02c543	-0.031926405
150	0xbb8762af	-0.004131637
151	0xbe2d1e03	-0.1690598
152	0x3d87f7cf	0.066390626
153	0xbcdc6013	-0.02690128
154	0xbd577731	-0.052603904
155	0x3ecfa7f0	0.40557814
156	0xbe17c560	-0.14821386
157	0x3d5ce685	0.053930778
158	0xbdb20876	-0.0869302
159	0x3cbb29db	0.022847107
160	0xbe19843a	-0.14991847
161	0x3d720845	0.059089918
162	0x3cc18e10	0.023627311
163	0x3d8fde92	0.07024874
164	0x3e390836	0.18069538
165	0xbd2a9cab	-0.041653316
166	0xbe25dd2a	-0.16197649
167	0x3db2a9cc	0.087237924
168	0xbdde0c2f	-0.108421676
169	0x3e2b4d7d	0.16728778
170	0x3e6ff454	0.23433048
171	0x3da79c4d	0.08184109
172	0x3db53a40	0.08849001
173	0xbeaa408e	-0.33252376
174	0x3dc190ea	0.09451468
175	0x3e2213e7	0.15827905
176	0x3ce527da	0.027973104
177	0xbd5791b3	-0.052629184
178	0x3d907dc1	0.07055236
179	0xbd8724b6	-0.06598799
180	0xbe7a275d	-0.24429078
181	0xbe470706	-0.19436273
182	0xbcdb2f5c	-0.026755981
183	0xbe512cad	-0.20427199
184	0x3da94f0b	0.082670294
185	0x3e34c34a	0.17652622
186	0xbe37fc9b	-0.17967455
187	0xbeab821b	-0.334977
188	0xbd4b7ff7	-0.049682584
189	0x3e3343c1	0.17506315
190	0x3dc8f26f	0.098118655
191	0x3d4c06c9	0.04981116
192	0x3e198637	0.14992605
193	0x3e7243f7	0.23658739
194	0xbdf0df0e	-0.11761294
195	0x3d3ea0eb	0.046540182
196	0xbdfc6afb	-0.123250924
197	0x3d4c337e	0.049853794
198	0xbe5222a0	-0.20521021
199	0xbd97b225	-0.07407025
200	0x3e0123e1	0.12611343
201	0xbdc605f9	-0.09669108
202	0xbe842382	-0.2580834
203	0x3daf26b5	0.08552305
204	0x3e3e0b40	0.18558979
205	0xbe07d873	-0.13266163
206	0xbea39e48	-0.31956697
207	0xbe5642e4	-0.20923954
208	0xbd98d91f	-0.074632876
209	0xbdaa5abc	-0.083180875
210	0x3dadde33	0.08489647
211	0x3bab8490	0.0052343085
212	0x3dd2dd40	0.10296106
213	0xbe088ba6	-0.13334522
214	0xbe271b57	-0.16319023
215	0xbe798c41	-0.24369909
216	0xbea81098	-0.3282516
217	0x3eabca14	0.3355261
218	0x3da8d5b0	0.08243883
219	0x3dbcdcf6	0.092218325
220	0x3e46564d	0.19368859
221	0x3ad55e34	0.0016278685
222	0xbea76f09	-0.327019
223	0xbe2ef582	-0.17085841
224	0xbc5e5f85	-0.013572578
225	0x3e887514	0.26651824
226	0x3e7bdb70	0.24595428
227	0xbe8b192d	-0.27167645
228	0x3dbc51b3	0.091952704
229	0x3d383493	0.044972014
230	0xbe810c15	-0.2520453
231	0x3d62e2ef	0.055392202
232	0xbdfa24f1	-0.12214077
233	0xbe727a18	-0.23679388
234	0xbe9ef2ce	-0.3104462
235	0x3e776917	0.24161182
236	0x3e3fa292	0.1871436
237	0x3c12d619	0.008962178
238	0xbe3a7fb2	-0.18212774
239	0x3d176998	0.036965936
240	0x39327370	0.00017018407
241	0x3d55aee7	0.052168753
242	0x3e3cad4c	0.18425483
243	0x3e09895e	0.13431308
244	0xbc99b873	-0.01876471
245	0x3e28b900	0.16476822
246	0xbe421e82	-0.1895695
247	0xbebb1fbd	-0.36547652
248	0xbe59b84c	-0.2126171
249	0xbd5dde29	-0.054166947
250	0x3dd85241	0.10562564
251	0xbeb3cac7	-0.35115644
252	0x3da47f9c	0.08032152
253	0xbe284eac	-0.16436261
254	0xbe5d8c3b	-0.21635525
255	0x3d958461	0.0730064

net.2.bias f4 [128]
0	0xbda3b158	-0.0799281
1	0xbe793318	-0.24335897
2	0x3e23c15c	0.1599173
3	0xbdc12d94	-0.094325215
4	0xbe0858cc	-0.13315123
5	0x3e42c4a5	0.19020326
6	0x3c77761f	0.015103846
7	0xbdaa23db	-0.0830762
8	0xbbbcbf7d	-0.005760132
9	0x3a03ca55	0.0005027403
10	0xba96a04c	-0.0011491864
11	0xbdc24211	-0.094852574
12	0x3d8c0dc5	0.06838564
13	0x3dba9f73	0.09112444
14	0x3dd1cd1f	0.10244202
15	0x3cb157b3	0.021648264
16	0x3e49dbe3	0.19712786
17	0xbc7b2abf	-0.015330016
18	0xbede0e83	-0.43370447
19	0xbdd7efcb	-0.10543784
20	0x3e10bf40	0.14135456
21	0xbdebadc9	-0.11507756
22	0xbd5c699e	-0.053811662
23	0xbccf0020	-0.025268614
24	0xbe6b83aa	-0.22999445
25	0xbe87545e	-0.26431555
26	0xbda4836b	-0.080328785
27	0x3d7750e1	0.060379867
28	0x3d10b2de	0.03532683
29	0x3e06e0c8	0.13171685
30	0x3dc15dd0	0.094417214
31	0xbe38ab6b	-0.18034141
32	0xbd9642cb	-0.073369585
33	0x3e2590fd	0.1616859
34	0x3db8182c	0.089889854
35	0xbdd488fb	-0.103776895
36	0x3d2013ee	0.039081506
37	0x3d525cc3	0.051357996
38	0xbdb3b76a	-0.08775218
39	0xbbbd0769	-0.0057687056
40	0x3e924aad	0.28572598
41	0x3c81d699	0.015849398
42	0xbc6ec3f6	-0.014573088
43	0x3cff3b6d	0.031156266
44	0x3d1d2164	0.038361922
45	0xba44a236	-0.0007500978
46	0x3e3d749e	0.18501517
47	0x3df39bbd	0.11894939
48	0x3d288b4f	0.04114848
49	0x3e1760a8	0.14782965
50	0x3da190fe	0.07888983
51	0xbc87851a	-0.01654296
52	0xbe013210	-0.12616754
53	0x3d98d34d	0.074621774
54	0x3e2f534f	0.17121623
55	0x3daab798	0.08335799
56	0x3d1feb4b	0.039042752
57	0x3cb3a4c0	0.021929145
58	0x3c06bcaa	0.008223692
59	0x3c14087a	0.009035224
60	0x3c55a3dd	0.013039556
61	0xbde57303	-0.11203577
62	0xbd91584c	-0.070969194
63	0xbda9216e	-0.08258329
64	0xbdbc209f	-0.091859095
65	0x3dfe543e	0.12418412
66	0xbdef0c2e	-0.11672245
67	0xbebf99d1	-0.3742204
68	0x3c8f4051	0.017486723
69	0xbc888c74	-0.016668536
70	0x3d30c8b4	0.043160155
71	0xbdb3404d	-0.08752499
72	0xbe00d343	-0.1258059
73	0x3dee4de3	0.116359495
74	0xbe0e6aa6	-0.1390787
75	0x3da55b10	0.080740094
76	0xbd597fca	-0.053100385
77	0xbb73e704	-0.0037216553
78	0xbacccb1a	-0.0015624494
79	0xbdd2cd27	-0.10293036
80	0xbe05f0f2	-0.13080195
81	0xbdac613d	-0.08416984
82	0x3c490970	0.0122703165
83	0xbe01156f	-0.12605833
84	0x3e180bf2	0.14848307
85	0x3c61b8f2	0.013777005
86	0x3da2916a	0.07937892
87	0x3e1f3cc6	0.15550527
88	0x3d1649fe	0.03669166
89	0xbdc1ee43	-0.09469273
90	0xbe0491da	-0.12946263
91	0xbd086dff	-0.033308025
92	0xbbaa0f4d	-0.0051898123
93	0xbe3fa354	-0.18714648
94	0xbe0319b0	-0.12802768
95	0xbddc3075	-0.1075143
96	0xbd9585b5	-0.07300893
97	0x3e367eb2	0.17821768
98	0xbd2da8ea	-0.042397417
99	0x3a948654	0.0011331537
100	0x3c3fb667	0.011701203
101	0x3cdd892e	0.027042951
102	0xbd631704	-0.05544187
103	0x3d1f3f03	0.038878452
104	0x3dfa3421	0.12216974
105	0xbd9bad42	-0.07601406
106	0x3da65e4c	0.081234545
107	0xbd88f49c	-0.066872805
108	0x3d94a8c7	0.07258754
109	0x3e017f12	0.1264613
110	0x3d264f89	0.040603194
111	0x3cb8c788	0.022556081
112	0x3e0ff4d3	0.14058237
113	0x3cfbf131	0.030754657
114	0xbde66ee9	-0.11251623
115	0xbd15297d	-0.03641652
116	0x3d701a7f	0.05861902
117	0x3d9fbe1d	0.07799933
118	0xbdafabbe	-0.08577679
119	0xbc8585ce	-0.016299155
120	0xbe01d9d4	-0.12680751
121	0xbdba92f9	-0.09110064
122	0x3e036ecf	0.12835239
123	0x3c81a834	0.015827276
124	0x3e567676	0.20943627
125	0xbda1ee57	-0.07906788
126	0x3d28128f	0.041033324
127	0xbc0378aa	-0.008024374

net.4.weight f4 [3, 128]
0	0xbcf959c6	-0.030438315
1	0xbe2c591e	-0.1683087
2	0xbdf1c85c	-0.11805794
3	0x3e040621	0.12892963
4	0x3d829ead	0.06377921
5	0x3f00b14f	0.5027055
6	0x3e0f5aef	0.13999532
7	0xbc741a54	-0.014898855
8	0xbe59f5dd	-0.21285196
9	0x3e68e2f5	0.22742827
10	0x3e9924c1	0.29910854
11	0xbec22950	-0.37922144
12	0xbee44ae7	-0.44588396
13	0x3de64c1c	0.112449855
14	0x3e178577	0.14797007
15	0x3c9995c7	0.018748177
16	0x3ee60aa3	0.4492999
17	0x3e9c04d4	0.30472434
18	0x3d822e73	0.06356516
19	0xbe5d8c57	-0.21635567
20	0x3d2abb66	0.041682623
21	0x3e5763e3	0.21034198
22	0xbc47dce9	-0.012198665
23	0x3dc6f0a1	0.09713865
24	0x3eaa9d9a	0.33323365
25	0xbeb91134	-0.36145937
26	0xbe6d58c1	-0.23178388
27	0xbe1f91d5	-0.15582974
28	0xbc472d74	-0.012156833
29	0xbe95637d	-0.29177466
30	0xbdd4c3ac	-0.10388884
31	0x3e0098b3	0.1255825
32	0x3e5450e2	0.2073398
33	0xbeead1b8	-0.45863128
34	0x3e46fcdb	0.19432394
35	0xbda50d43	-0.0805917
36	0xbde38e52	-0.1111113
37	0x3dd1203b	0.102112256
38	0x3c2c3ebb	0.010513003
39	0x3d422e40	0.04740739
40	0xbe96e7be	-0.2947368
41	0xbdbb96eb	-0.09159645
42	0xbe02e2e6	-0.12781867
43	0x3c3d8905	0.0115683125
44	0xbd926791	-0.0714866
45	0x3d9a2142	0.07525875
46	0xbf0748dc	-0.5284555
47	0xbf146d41	-0.5797921
48	0xbe553417	-0.20820652
49	0xbede00e4	-0.43360054
50	0x3e93f2e6	0.28896254
51	0x3c5fb052	0.013652878
52	0xbed3b47a	-0.4134863
53	0x3eb266b4	0.3484398
54	0xbdc22eac	-0.09481558
55	0xbe0e02cd	-0.13868256
56	0xbf338954	-0.7013142
57	0xbeccb6c1	-0.3998318
58	0x3e2f3c90	0.17112947
59	0x3e659794	0.22421104
60	0x3dbbd132	0.0917076
61	0x3d1d1486	0.03834965
62	0xbe460ee3	-0.19341616
63	0xbe8561e6	-0.26051253
64	0x3e524e8f	0.2053778
65	0xbd8828c8	-0.066484034
66	0x3e65448d	0.22389431
67	0xbd837819	-0.06419391
68	0xbe60fd38	-0.21971595
69	0x3cb76504	0.022387035
70	0xbe0b4f63	-0.13604502
71	0x3c497a56	0.012297234
72	0xbde15aa5	-0.11003617
73	0xbe59059d	-0.21193548
74	0xbe22987b	-0.15878479
75	0xbde1d067	-0.11026078
76	0x3e58b6bb	0.21163456
77	0xbd8e57fd	-0.06950376
78	0xbea3084b	-0.31842265
79	0x3ea80e43	0.3282338
80	0x3dba233d	0.090887524
81	0x3c29e357	0.010369143
82	0x3ec2d71d	0.38054743
83	0x3bb6c6c8	0.005577896
84	0xbf05f344	-0.5232432
85	0x3eb1b0da	0.3470524
86	0xbe690a6f	-0.22757886
87	0xbed5e550	-0.41776514
88	0x3e0d8299	0.1381935
89	0x3d4618f3	0.048363637
90	0xbee4f054	-0.44714606
91	0xbe0fbe50	-0.14037442
92	0xbee9fbf8	-0.4570005
93	0xbd6c7d3b	-0.057736617
94	0x3e97b9b1	0.2963386
95	0x3d52b216	0.051439367
96	0xbc44288a	-0.011972556
97	0xbd66f730	-0.05638808
98	0xbbccc34d	-0.0062488676
99	0xbe84a20c	-0.25904882
100	0xbe3eed46	-0.186452
101	0x3ec7d5cd	0.39030305
102	0x3de4d86c	0.11174092
103	0xbc33f377	-0.0109833395
104	0x3d88acfc	0.06673619
105	0xbdcf4c50	-0.10121977
106	0xbe857da1	-0.2607241
107	0xbe89c3f6	-0.2690732
108	0x3d080df9	0.03321645
109	0xbe2105a1	-0.15724804
110	0xbeca01b8	-0.39454436
111	0x3dca7991	0.09886468
112	0x3e77c578	0.24196422
113	0x3eb4175d	0.35174075
114	0xbd20698b	-0.039163154
115	0x3e8d5aac	0.2760824
116	0xbe91fda7	-0.28513834
117	0xbe076276	-0.13221154
118	0x3c6e538c	0.014546286
119	0x3d2d5bb1	0.042323772
120	0x3eb294f4	0.34879267
121	0xbee183e6	-0.44045943
122	0x3e40b076	0.18817315
123	0xbdae9eee	-0.08526407
124	0x3e0ccbf3	0.13749675
125	0xbe9d094e	-0.3067116
126	0xbdfe59e5	-0.1241949
127	0x3e017e9b	0.12645952
128	0x3e36a0a8	0.17834723
129	0xbee418f5	-0.4455029
130	0xbe80b9ae	-0.25141662
131	0x3e1c00b5	0.15234645
132	0xbe92a5a0	-0.28641987
133	0xbdf91c9c	-0.1216366
134	0xbda38168	-0.07983667
135	0xbd3d5973	-0.046227884
136	0x3dc6c5cc	0.097056955
137	0x3e86d6a8	0.26335645
138	0x3a2a6718	0.00065003475
139	0x3df01587	0.11722856
140	0xbd4d721f	-0.050157662
141	0x3e8240c7	0.25440046
142	0x3de8c458	0.113655746
143	0x3d5482e4	0.05188264
144	0x3e227662	0.15865472
145	0xbd6869e9	-0.05674163
146	0x3d366788	0.04453233
147	0xbe41b246	-0.18915662
148	0x3e98adf2	0.2982021
149	0xbceb3568	-0.02871199
150	0xbdf7d1dd	-0.12100575
151	0xbe20b32a	-0.15693346
152	0xbc07e069	-0.00829325
153	0xbd9ea2c8	-0.07745892
154	0x3e95609f	0.2917528
155	0xbee08925	-0.43854633
156	0x3e1d8ace	0.15384981
157	0x3e89f44d	0.269442
158	0xbd1140c0	-0.03546214
159	0xbf41c6df	-0.7569408
160	0xbd6de944	-0.058083788
161	0xbdab5c4f	-0.08367216
162	0x3cb76e32	0.022391412
163	0xbe862a98	-0.2620437
164	0x3d301a4a	0.04299382
165	0xbe592741	-0.2120638
166	0xbd133f3e	-0.035948984
167	0x3dd5d41c	0.10440847
168	0xbd9cb966	-0.076525494
169	0xbd9ebe30	-0.07751119
170	0xbec9ae3f	-0.39390752
171	0xbd73d087	-0.05952504
172	0x3dba2f71	0.0909108
173	0xbdb76378	-0.08954519
174	0xbdec7fbc	-0.11547801
175	0x3e4473f8	0.19184864
176	0x3e5e4954	0.2170766
177	0xbd0ffa3a	-0.035150744
178	0xbe638975	-0.22220404
179	0xbd0672a1	-0.032824162
180	0x3e95fdf8	0.29295325
181	0xbda6dbe6	-0.08147411
182	0xbd91beab	-0.07116445
183	0x3d9bb16a	0.076021984
184	0x3e06cd5e	0.13164279
185	0x3d6e0401	0.058109287
186	0xbdb6d97d	-0.08928201
187	0x3d712abe	0.058878653
188	0x3e3c8fb2	0.1841419
189	0xbd918c62	-0.07106854
190	0x3e1b9535	0.15193637
191	0x3c2aeae1	0.010431976
192	0xbe618319	-0.22022666
193	0x3e2da5cd	0.16957779
194	0x3e414944	0.18875605
195	0xbe9cab4e	-0.30599445
196	0x3d3c31a1	0.045945767
197	0x3e37d71e	0.17953154
198	0x3e485c08	0.19566357
199	0xbe19a0dd	-0.1500277
200	0x3e7975b2	0.24361303
201	0xbf076de9	-0.52902085
202	0x3de894da	0.11356516
203	0x3da9312b	0.08261331
204	0xbe4aa288	-0.19788563
205	0x3dde1096	0.10843007
206	0x3e671b9c	0.22569126
207	0x3c8896ae	0.016673412
208	0xbcf4c4df	-0.029879032
209	0xbd01d26f	-0.031694826
210	0x3d054b95	0.032542784
211	0x3dd7319f	0.10507511
212	0x3d6470da	0.055771686
213	0xbe1951b3	-0.14972572
214	0xbeccee97	-0.4002578
215	0xbe945ac2	-0.28975493
216	0xbe2ec679	-0.17067899
217	0xbd8dd6dc	-0.06925747
218	0x3ea14977	0.31501362
219	0x3b88aa07	0.0041706595
220	0xbe145f6f	-0.1448953
221	0xbcf7c7f5	-0.030246714
222	0xbde688d1	-0.112565644
223	0xbde9fd53	-0.11425271
224	0xbe353a2c	-0.17697972
225	0xbe0e8e1c	-0.13921398
226	0xbd468109	-0.0484629
227	0x3e032431	0.12806775
228	0x3e5ceeb8	0.21575439
229	0x3e2696af	0.16268419
230	0x3ccf916d	0.0253379
231	0xbe5ce11e	-0.2157025
232	0x3bfabf7f	0.0076522226
233	0xbd468366	-0.048465155
234	0x3ddc8f23	0.10769489
235	0xbdfe227b	-0.124089204
236	0x3e0d6d74	0.13811284
237	0x3dd4cbfb	0.10390469
238	0xbf144780	-0.579216
239	0x3ebf6b20	0.37386417
240	0xbd15d3ff	-0.03657913
241	0xbd873294	-0.06601444
242	0x3e20adfc	0.1569137
243	0xbeb844f9	-0.35990122
244	0x3d9f3c45	0.077751674
245	0x3ebde3fe	0.37088007
246	0xbd2cd75c	-0.04219757
247	0xbd640ea6	-0.055678032
248	0xbd7733c3	-0.0603521
249	0x3d2adb4d	0.041713048
250	0xbe6f980e	-0.23397848
251	0xbe86b741	-0.26311687
252	0x3d8d29f3	0.06892767
253	0x3eaa4333	0.33254394
254	0xbe9de099	-0.30835417
255	0xbde53282	-0.11191274

net.4.bias f4 [3]
0	0xbd001ff2	-0.031280465
1	0xbbd9dfc0	-0.0066489875
2	0xbd68f6fa	-0.05687616
