stock_label3_model.pth (torch, 90934 bytes, 6 tensors)

net.0.weight f4 [128, 29]
00000000: 23c2 b9bd 9e71 2b3e a7b5 b1bd 8372 b5bc
00000010: 2cdb 44be 887c b1bb 243e 9f3d faff c0bd
00000020: 877f e63c 4b7e 07be 93b3 19bd e2b6 94bd
00000030: 5c0f 94bb 95dd 183e 8f76 8bbe 5ebd 69bd
00000040: cded 193d 3f78 14be 8c76 d13c 230b 51bd
00000050: bcaa 93bd ce2f 2ebe 69be 7cbe fcbb 6a3d
00000060: 96bd b03d 8724 90bd e1db ff3d 4b14 dfbd
00000070: 2a84 043e 6192 27bd 75fa 52be fc7c c93d
00000080: e14d 14be 7015 46bd 2d88 1cbc eef4 123e
00000090: 9307 f9bd d003 9c3d 50dc cf3d e1a7 50bd
000000a0: a63e a7be 2102 ae3e 8b0d 7abc 15f4 3fbe
000000b0: 01d3 2a3e 92cd 36be 5119 31be e572 2dbb
000000c0: 9a19 b93c 10f0 4fbe b0c8 11be c015 153f
000000d0: 1a54 0dbe 0f10 673d 5163 d43d dc3f 29be
000000e0: 41dc 38bd 3087 7c3e dc1a 11be 82a0 44be
000000f0: 0903 48be b586 fb3d 4c2b 003e 6e68 7dbd
00000100: 3bbe 8fbd 6ea9 413d 433e 503e 9d23 db3d
00000110: 3bed 0ebe 72fd 5f3e 463a 15bf bba3 0bbe
00000120: 30b2 5bbd 4fb2 b0bd 7ddb 37be d094 3fbe
00000130: 30f4 debd 565a 98bd d0eb d13d 5795 57be
00000140: 06c0 c73e 8afd f4bd f7fa 413c e7d1 353e
00000150: 70c0 62bd 0d86 a33d c796 26bd 5f8e fc3c
00000160: b340 f83d f000 fdbd fefa 22be f5c0 853d
00000170: e1b4 a3be 67b5 3ebe cbac 8b3d 7d5e eb3e
00000180: 1425 e83d 78d8 afbd 76ac 3c3e 9cef 75bd
00000190: a807 14be ed4d afbd f802 9c3e d8dc df3c
000001a0: eeee 02be 9c63 ba3d 6a2e a73d 6c67 453e
000001b0: 5abe 5c3d 1358 7abe 5d4e 49be 9f1f d73e
000001c0: f2ce ed3e 0554 723c afaf e63d 839c fdbd
000001d0: 3e2e bb3d 925d 9c3d 2dae 303e 9073 cfbb
000001e0: 28fe f6be 3fd7 c4be 9117 493e 1e4b f4bb
000001f0: 7206 96bd 66f8 15bd ae13 52bd 5925 81be
00000200: 6b5d 453e 97dd 5d3e 0ec0 3a3e 22d2 bcbd
00000210: 0f06 023e 8e05 d53d b20b 44be 891b f43d
00000220: 4ed7 1abe c472 9bbd eeb1 a2be 12bc 31be
00000230: fb30 4a3e 6130 c3bc 8e80 1ebb 6caf 75bd
00000240: 56cb 38be 456a c4bd c7a3 503c 45e0 233e
00000250: dec7 463e d09c 19bf 4adb bf3d 420d 9fbd
00000260: ae13 d23d e0e1 80be 3c15 f0bd 2285 02be
00000270: 64e0 be3d b8a2 babe c784 2e3d 83a4 323e
00000280: fd76 783e 9a56 c5bc 0d23 99bd c772 38be
00000290: b9ef 2f3e e48f b13c ead9 283e f1e5 c6be
000002a0: 4021 563d de14 ce3d 1cf0 b73e 83e6 dd3d
000002b0: fde9 f83c 4d41 e8bd 9a16 9c3d 7a59 91bc
000002c0: ed99 5b3e 322f 5d3e fa3a c9bc 73c5 e4be
000002d0: 6374 1a3e 05f6 173e 59a3 00be c514 d2bd
000002e0: ddac a93e 0723 c43e c1e1 28bf 3bc3 2ebe
000002f0: b409 a4be bbcc a8be b0a2 4b3e c890 f53c
00000300: 457d 29be 2821 a2bd 9461 d2bb d1c5 b93d
00000310: 25b0 8d3e 1a71 363c 59dc 443e 3b00 a63c
00000320: 73ca 953e 2f49 30bd dbb9 5e3e e319 763c
00000330: e5fa 483e 27b4 b23c 6be2 4c3d e600 b5be
00000340: 5743 423e 8223 8bbd 228d 443d dff3 eb3d
00000350: 5946 de3d 92cf 67bb 8e0c a53e 6fec b5be
00000360: 0888 2b3d 7220 60bd 8606 98be e140 6ebd
00000370: 21be 133e 9415 93bb 8f1e e4bc b57c b53d
00000380: 7815 c83d 4031 7f3e 2b34 2a3b 3996 883e
00000390: c26a 60bd c9fd a8be 6555 2abd cfbf 0c3e
000003a0: 35cf dfbd d4a7 ecbc cb39 793d 7594 f6bd
000003b0: 370b 83be ed4c f2bd 4de0 fc3d e7e6 44be
000003c0: 6a89 373e c7c5 28be 6539 03bd 798f 5bbe
000003d0: a85e 8cbd cb4b 5dbe de59 a7be a963 883e
000003e0: 3df9 233e 7654 473e afd3 fa3d ab4f 52bc
000003f0: ea02 923d 3b91 213e dd87 c13d b9e9 823d
-0.09070232 0.1674256 -0.086772256 -0.02214933 -0.19224232 -0.0054164566 0.07775524 -0.09423824
0.028136982 -0.1323177 -0.03752477 -0.07261445 -0.0045184325 0.14928277 -0.2723889 -0.05706536
0.0375803 -0.14498995 0.025569223 -0.05103601 -0.072102994 -0.17010424 -0.2468201 0.057308182
0.08629911 -0.07038217 0.124931104 -0.108925425 0.12941042 -0.040911082 -0.20603354 0.09838292
-0.14482833 -0.04836029 -0.009553951 0.14351246 -0.12159648 0.07617915 0.10149443 -0.05094135
-0.32664984 0.33986 -0.015262018 -0.18745454 0.16682054 -0.17851856 -0.17294814 -0.0026466188
0.022595216 -0.2030642 -0.14236712 0.5823631 -0.13801613 0.0564118 0.103705056 -0.16528267
-0.045131925 0.24660945 -0.14170402 -0.19201854 -0.19532408 0.12281553 0.12516516 -0.06186717
-0.070187055 0.04728072 0.20336251 0.10700152 -0.13957684 0.21874025 -0.58292043 -0.13636677
-0.05363673 -0.0862776 -0.17954822 -0.18709111 -0.10886419 -0.07439105 0.10250056 -0.21053062
0.3901369 -0.11962421 0.01183962 0.17755853 -0.055359304 0.079845525 -0.040671136 0.030829607
0.121217154 -0.123536944 -0.15916058 0.06530944 -0.31973937 -0.18623887 0.06820067 0.45970526
0.11335197 -0.0858621 0.18425164 -0.060042962 -0.14456046 -0.08559785 0.30471015 0.027326986
-0.12786457 0.0910103 0.0816315 0.19277734 0.05389247 -0.2444766 -0.196588 0.42016312
0.4644695 0.01479054 0.11263978 -0.12383368 0.09139679 0.076350346 0.17253943 -0.006330915
-0.4824078 -0.3844547 0.19637896 -0.0074552437 -0.07325448 -0.036613844 -0.0512883 -0.25223807
0.19273917 0.21666561 0.18237326 -0.09219767 0.12697624 0.1040145 -0.19145086 0.119193144
-0.15121195 -0.07590249 -0.31776375 -0.173569 0.19745247 -0.02382678 -0.0024185511 -0.05998175
-0.18046317 -0.09590582 0.01273436 0.16003521 0.19412181 -0.600049 0.09367998 -0.077662006
0.1025766 -0.2517233 -0.117228 -0.12746099 0.09320143 -0.3645227 0.042607095 0.17445569
0.2426414 -0.024089146 -0.074773885 -0.18012534 0.1718129 0.021675058 0.16489378 -0.38847306
0.052277803 0.10062574 0.35925376 0.10834982 0.030385012 -0.1134058 0.076214984 -0.017742861
0.21445437 0.21600035 -0.024564255 -0.44681892 0.1508346 0.14839943 -0.12562312 -0.10257868
0.33139697 0.38307974 -0.65969473 -0.17066662 -0.32038653 -0.32968697 0.19886279 0.029976264
-0.16551693 -0.0791648 -0.0064203236 0.090709336 0.2767345 0.011135364 0.19224681 0.020263782
0.2925602 -0.043038543 0.21750586 0.01502082 0.19626959 0.021814419 0.050020617 -0.35352248
0.18971 -0.06793882 0.047986157 0.11521124 0.108532615 -0.0035371524 0.3223614 -0.35531947
0.041877776 -0.054718442 -0.29692477 -0.058167342 0.14427997 -0.0044886563 -0.027846603 0.088616766
0.0976972 0.24921131 0.0025971036 0.2667711 -0.054789312 -0.33006123 -0.041585345 0.13745044
-0.109281935 -0.02888862 0.06084613 -0.12040035 -0.25594494 -0.11831079 0.123474695 -0.19228707
0.17923513 -0.16481696 -0.032037158 -0.21441449 -0.06853992 -0.21610944 -0.3268575 0.26638535
0.16013046 0.19465813 0.12247407 -0.012836377 0.07129462 0.15778057 0.09449742 0.06392235

net.0.bias f4 [128]
00000000: 2d25 fabc 621b f63d 857b ebbb 905b 69be
00000010: c7e7 8fbd 00db 5ebe b633 143e 8b10 b9bd
00000020: 8083 b7be 8805 7bbe 727e d5be d26f afbc
00000030: dae8 c8be 30e8 27be 6795 60be e3c9 e8bd
00000040: 986a 92be 1d9f cdbc 42a9 8ebe ee94 9a3c
00000050: 75c5 a1be 3ec2 8abd 8a72 bebe 3388 b4ba
00000060: 72b0 cfbe e990 243d 7215 a2bd ed6b 68be
00000070: ca46 42be aa62 1ebe da62 70be a3e7 97be
00000080: 9d72 38be 0492 a4be 4ff8 7d3d 9ed9 44be
00000090: 46c5 e9be c564 87be fcd0 2bbe 1524 35be
000000a0: 1c17 7fbc d404 86bb c357 3c3e 1965 61be
000000b0: f28b 3abd 5ff6 773b bdb6 da3d 32bb f7bb
000000c0: 356d 6ebc 450e 1d3e 48cd f33d 50c7 12be
000000d0: 72ba 78be f4c2 a9be f841 8ebe f6e2 a8be
000000e0: 9a84 ebbc e91a 85be bea0 3abd 5e44 8ebe
000000f0: 5bdf 62bc 8b1b 023e 06b1 d6be f7f8 e3bd
00000100: fc84 74be 2fb9 5abd d533 b4be 346b 083e
00000110: e3bc 35bf dc04 d2bd 57df 243e cd79 8bbc
00000120: f395 0cbf 54e8 53be 4809 88bd cd91 debd
00000130: 12b6 a4be 78ee 19be 8ee9 d3bd ae29 233e
00000140: de48 c5bd 0640 70bc d5ce 88bd 58a7 2ebe
00000150: 1ea7 85bd 475d 24be 848d 76be 02f2 0e3d
00000160: e63d 36be 7413 49be 0d48 2abe 1fb8 a4be
00000170: 99af babe b61a ec3d 6129 1cbe 3b0c 2ebd
00000180: eef2 debe 2107 1cbe 734c 14be 2bd9 4ebd
00000190: f018 8dbe 3b57 b3be db38 1c3d cc08 36be
000001a0: 1573 aebe 6c27 1fbe f556 84be 54c8 84be
000001b0: d909 ecbe fea6 b4be ea35 a4be 75ea 56be
000001c0: 7820 77be bdf5 ce3d 6815 d6bd 1522 56bc
000001d0: d029 88bd e2e6 66be 3fb5 c5be f0a2 c6bd
000001e0: 8880 63be 7f42 46bd 1612 84be e6d9 6bbe
000001f0: 90d6 05be 1daa 7fbe 2281 94bd f035 103b
-0.030535305 0.120169416 -0.0071863555 -0.22788835 -0.0702663 -0.2176323 0.14472851 -0.090363584
-0.35842514 -0.24513829 -0.41698033 -0.021415625 -0.39240152 -0.16397166 -0.21931992 -0.11366632
-0.2859695 -0.025100285 -0.27863508 0.018869843 -0.3159596 -0.0677533 -0.3719676 -0.0013773501
-0.40564305 0.04017726 -0.079142466 -0.2269742 -0.18972316 -0.15467325 -0.23475209 -0.29668912
-0.18012471 -0.3214265 0.062004384 -0.1922364 -0.4565832 -0.2644407 -0.1677894 -0.17689545
-0.015569475 -0.004089931 0.18392853 -0.22011222 -0.04554362 0.0037836058 0.10679386 -0.007560157
-0.014552404 0.15337475 0.11904389 -0.14333844 -0.24289873 -0.3315655 -0.27784705 -0.32985657
-0.028749753 -0.25997093 -0.045563452 -0.27786535 -0.013847197 0.1270582 -0.41931933 -0.11131471
-0.23878855 -0.05339926 -0.35195795 0.13322145 -0.70991343 -0.10254833 0.16100822 -0.017025853
-0.54916304 -0.20694095 -0.06642395 -0.10867653 -0.3217016 -0.15032375 -0.103472814 0.15933868
-0.09633039 -0.014663702 -0.06680075 -0.17056024 -0.06526016 -0.16051207 -0.24077421 0.034898765
-0.1779705 -0.19636327 -0.16629048 -0.32171723 -0.36462095 0.11528532 -0.1525016 -0.042492133
-0.43544716 -0.15237094 -0.14482288 -0.050500076 -0.27558088 -0.3502749 0.03814016 -0.17776793
-0.34072176 -0.15542382 -0.25847593 -0.25934088 -0.46101263 -0.35283655 -0.32072383 -0.20987876
-0.2413348 0.101054646 -0.10453302 -0.013069649 -0.066486 -0.22549012 -0.38614842 -0.096990466
-0.22217 -0.04840326 -0.25795048 -0.2303234 -0.1307013 -0.24967237 -0.07251193 0.0022004806

net.2.weight f4 [128, 128]
00000000: d8b5 163d 7c08 c1bb 0e99 99bd 038e fe3c
00000010: 4b42 2abd 3412 d6bd 27a5 593c dd71 97bb
00000020: 88f9 103c 418c 4dbd 2ebf 0cbd f8ec e8bc
00000030: c4e4 c63a 5fd8 45bd c7b7 a23b 3fad 473b
00000040: fcda 91bd ba80 233c 994e 74bc 57bf 8abd
00000050: 142e 113c d913 083d 5509 9abd 0a70 cfbc
00000060: 1453 e3bc 89de 4a3c 7860 4d3d 4d25 343d
00000070: 77ce 0d3c 268c 05bd a8de 60bd 2471 e83c
00000080: 8d5e ddbc 078e 833d a8e4 c1bd b5c2 42bd
00000090: e399 753c fab4 7c3c 2b2c 92bd 8f9f 073d
000000a0: 4766 913c cc28 a8bd e586 74bd 10c1 143c
000000b0: e0cf 3b3b b91e 6cbd 7fbe 3cbd 8c07 66bd
000000c0: 6e9c 1abd a58f 3a3d 3308 06bc ad5b 17bd
000000d0: a661 a5bd 3b57 003d 2107 68bd 8227 d8bb
000000e0: cc00 0e3d c449 80ba a4c7 5abd f93d 83ba
000000f0: ce8b fabc e365 2b3d 5041 5dbc a4bb 9b3d
00000100: 216f 1bbd 14ee 563d a3c8 a3bd 2739 853c
00000110: 9b69 18bd 6ff8 3fbd f1e0 f13c 2a4e 02bb
00000120: 4c04 15bd 2e3f 83bd 5a89 b3bd a973 48bb
00000130: 768d 1dbb 6bfb 9dbd b464 9c3c bf3b e6bd
00000140: 5721 14bc c50f 67bd e13e 2f3d 75e2 68bb
00000150: 0a83 74bd 1944 96bc 85ba 4bbd 193c a0bd
00000160: ed71 e2bb d862 a23c 4d24 d4bd 9fa3 8f3d
00000170: 8a11 18bd 9ee3 42bd f2c7 44bc 60bf 90bd
00000180: e406 ccbd b560 8cb9 cb65 ebbb 9da0 893d
00000190: 5a49 c9bd b726 0abd dc3c 4f3d d3f4 93bd
000001a0: dd30 c2bd 1de7 3cba 6476 40bb 9a60 b5bc
000001b0: eb13 26bd 84e9 c93b c1ec 85bd ae56 cdbd
000001c0: 7330 f53b 6be1 1e3d fcc1 2f3d 1f08 2cbd
000001d0: 1130 5dbd 51e0 ecb9 1ba7 d73c d78c 8a3c
000001e0: 4d3e a6bd 3d1a 86bd 7138 bbbd 19f9 b2ba
000001f0: 0d4a 11bc 304c cc3b 5424 babd 592b 78bb
00000200: 0c9b 0cbe 73a4 da3d 72a8 30be 4d95 a3bc
00000210: 75d7 44bd 5316 363d 5535 2d3c 9a3a e4bd
00000220: e512 2c3e 26ee ef3c f4c1 483d 6c68 7e3d
00000230: 914a d63d da9b 89be 5337 12bb 656c 01bd
00000240: d3c6 213e 3bf2 a8bd 79ca e33d b74b 653d
00000250: 0d0d 7e3e 19dc 3b3d 0502 95bc 81d5 083e
00000260: 59ec 0dbe a591 16be a290 d5bb f9b3 733d
00000270: eed9 9abd 956c 19be 372b 3ebc 9a0c af3d
00000280: 13df 10bd 5f43 653d 856f 07be f570 25be
00000290: 172e 03be 4a7b c73d 74e6 953d dda1 cb3d
000002a0: c419 8bbe 7fa9 9ebd 46e8 aa3d 3f57 5a3c
000002b0: d0c5 9d3d 74cb ca3d c6fa 963d 38c6 413e
000002c0: f5f2 efbc f300 3bbe 0188 a5bd 363b a2be
000002d0: 8ade fbbd 263c d43d 03bf 1a3c c8fe 0b3e
000002e0: c932 8fbe d918 813e e5dd b7bd e269 723d
000002f0: 542d c9bc 70b9 ee3d 2bf6 0bbd 960f 05be
00000300: ce25 3abe de59 5e3e 0822 34bd 44cf 6b3e
00000310: 302d 79bd a047 073d bcfc e3bc e328 fabc
00000320: a194 9f3d 5678 a53d a020 3b3e 22d5 40bd
00000330: dfef 71be a0a4 863d b0eb e83d de4a 1c3c
00000340: 37e3 0c3e 841a debd 893e e2bd cdb9 a63d
00000350: ab37 2cbc 60de 3a3e bb95 b43c c4b8 2fbd
00000360: 2fbc 893b 02df ddbd 7de7 85be b550 1cbe
00000370: 28e2 f7bc bda2 843d 0e7a c3be 3707 093e
00000380: c901 d8bd 5c57 c1bd 1c81 273c c5f4 7ebe
00000390: e214 89bd f59f 6ebe efa3 f23d f5e7 233e
000003a0: 7141 67be df03 6bbc ae2b 163d 3064 7bbe
000003b0: 4865 513e 0840 c13d 2d25 e1be 19c9 823e
000003c0: ba7d 3b3e 5b9a 4abd 337a 49be d686 06bd
000003d0: e609 9cbd ff05 9dbe 1b1c f3bd b324 bdbd
000003e0: db1c 3cbe 4136 c1bd d965 c1be f76d ef3d
000003f0: a5a4 83be 98aa c63d 7921 aabe c48f ca3c
0.036794513 -0.005890904 -0.07499896 0.031073576 -0.04156713 -0.10452691 0.013284004 -0.004621728
0.008848555 -0.050182585 -0.03436201 -0.028433308 0.0015174379 -0.04830205 0.0049657556 0.0030468253
-0.07121846 0.009979421 -0.014911317 -0.067747764 0.008861084 0.033222053 -0.07521311 -0.02532198
-0.027749576 0.012382158 0.050140828 0.043980885 0.008655182 -0.03260436 -0.05489984 0.028374262
-0.027022624 0.06423574 -0.09467441 -0.04754897 0.014990303 0.015424008 -0.071373306 0.03311115
0.017748965 -0.082109064 -0.059698958 0.009079233 0.0028657839 -0.057646487 -0.04608011 -0.05615954
-0.03774684 0.045547146 -0.008180666 -0.036952663 -0.080752656 0.03133319 -0.056647424 -0.0065965066
0.03466873 -0.0009787609 -0.05341305 -0.0010012976 -0.030584242 0.041845214 -0.013504341 0.07604149
-0.037947778 0.052473143 -0.07997253 0.016262604 -0.03721009 -0.046867784 0.029526206 -0.0019883015
-0.03638105 -0.06408535 -0.08766432 -0.0030586517 -0.0024040616 -0.0771397 0.019090988 -0.112418644
-0.009041152 -0.056411523 0.042784575 -0.003553537 -0.05969528 -0.018343018 -0.049738426 -0.07823963
-0.0069105537 0.019822523 -0.10358486 0.0701363 -0.0371261 -0.047580354 -0.012010561 -0.07067752
-0.09962252 -0.00026774933 -0.0071837655 0.06720088 -0.09828444 -0.033728328 0.05059515 -0.07224431
-0.09481976 -0.00072060694 -0.0029367441 -0.02214079 -0.04054634 0.0061618704 -0.06539298 -0.100262985
0.0074825822 0.038789194 0.042909607 -0.041999932 -0.054000918 -0.00045180556 0.0263248 0.01691286
-0.08117352 -0.06547973 -0.09141625 -0.0013654559 -0.008867753 0.006234668 -0.0908896 -0.0037867634
-0.1373102 0.106758974 -0.17251757 -0.019968653 -0.04805704 0.044454884 0.010571797 -0.1114399
0.16804083 0.029288363 0.049013093 0.062111303 0.10463441 -0.26876718 -0.0022310808 -0.031597514
0.15798502 -0.08249327 0.11122603 0.05598041 0.24809666 0.0458642 -0.01818944 0.13362695
-0.1385969 -0.14703996 -0.0065174857 0.059497807 -0.07561098 -0.14982827 -0.011606983 0.085473254
-0.03536899 0.055972453 -0.13226135 -0.16156371 -0.1281055 0.097403124 0.07319346 0.09942982
-0.27168095 -0.077471726 0.08345084 0.013326465 0.07703745 0.09902087 0.0737205 0.1892327
-0.029290656 -0.18262081 -0.08082581 -0.316858 -0.12298305 0.10363035 0.009444955 0.1367141
-0.27968433 0.2521427 -0.0897787 0.05918301 -0.024557747 0.11656463 -0.03417031 -0.12994227
-0.18178484 0.21713969 -0.043977767 0.23028284 -0.06083411 0.03302729 -0.027830474 -0.030537074
0.077920206 0.08079593 0.18274164 -0.04707826 -0.2362666 0.065743685 0.11373079 0.009539334
0.1375855 -0.10844901 -0.11047084 0.081409074 -0.010511319 0.18248892 0.022044053 -0.042900816
0.0042033414 -0.10833551 -0.26153174 -0.15265162 -0.030259207 0.06476352 -0.38179058 0.13381658
-0.105472155 -0.094404906 0.010223653 -0.2489806 -0.06693436 -0.23303206 0.11847674 0.16006453
-0.22583558 -0.014344185 0.03666275 -0.24549937 0.20448792 0.09436041 -0.43973675 0.2554405
0.1830968 -0.04946361 -0.19675522 -0.032843433 -0.076190755 -0.30668637 -0.11870595 -0.092355154
-0.18370382 -0.09434176 -0.37773016 0.11690896 -0.2571155 0.09700507 -0.33228663 0.024726756

net.2.bias f4 [128]
00000000: 9fef 9cbd a7fc 9c3d 513f c5bd 2c85 a6bd
00000010: 04e7 4bbb f00e 233e 8848 a53d 87f0 e1bc
00000020: 5635 acbc 0581 683d e0be 4db9 4096 b9bd
00000030: b9f1 603d 104a 9bbd 2185 e8bc 50c5 aabe
00000040: 8f0c cbbd 2a1b 19bd e29f a7bd 42dd a03c
00000050: 7477 903e c540 933d 40d1 4e3d 4999 453e
00000060: b656 103d 9430 213e e7d1 db3d 68b7 51bc
00000070: 9316 63be 4f55 b1bd e2f4 04bd 576d 85be
00000080: f207 6d3d dd70 aa3c d108 5f3e db10 32bd
00000090: 03a1 2abd e9d0 3b3c 5e35 d23d abe6 d73c
000000a0: b6b9 ccbc d05f 0cbd 142d fe3d 9f6e 2bbd
000000b0: 8f96 acbc 493a 273e a75c f1bd fe84 733c
000000c0: 75d9 9dbd e485 eabd dae2 0abe 54fd 5e3a
000000d0: 5544 4d3d cbcc a5bd c162 c93d 2bb3 ddbd
000000e0: d727 c6bd e007 46be 7b24 91bc eb5a 8e3d
000000f0: 9fe3 d63d 1068 043e 6d68 14bd 795f 58be
00000100: 746f 57be 3fab d3bc 90f0 78bd a57e 81be
00000110: a456 a0bd a7e6 d63c 31bf 03be 56e6 c1be
00000120: a70e 3f3e 3740 f7bd 5b90 ac3c 6742 34be
00000130: f63f 573e af99 c23c f3fd 0dbb c74d 353d
00000140: 8799 38bd f6d8 19bd 5538 25be 21f8 993d
00000150: 8a86 96bb 8ef1 0b3e fd03 ed3c 1af8 863d
00000160: dfc9 4f3c 7627 503d 9287 f1bd 3c91 b63d
00000170: 1f67 753c ab9f 563e 965f 823d 3c86 333d
00000180: 8724 9ebd 7ce5 45be 4b9f 193e 2ba5 b6bc
00000190: 3ac7 a6bd fc22 1ebe 413d 313e 269f f0bd
000001a0: 1120 b93d 0a31 d4bc 952c 51bd bcdf 913d
000001b0: 9983 493d 6fba db3d 4cff 533d 68e3 053d
000001c0: 201b 32bd b4d8 9a3d 883a fd3c 4276 efbd
000001d0: f1f0 abbd 2d49 e83c 5833 093e cf6d 00bb
000001e0: 6eab b73d d13a f43c dbc0 993d 8cc3 1e3d
000001f0: b502 97bd 6ff6 36bd 6653 b2bd 91d9 253a
-0.076628916 0.07665377 -0.09631217 -0.08130869 -0.0031113038 0.15923667 0.08070475 -0.027580513
-0.021021526 0.056763668 -0.0001962143 -0.09061861 0.054918025 -0.07582486 -0.028383793 -0.33353662
-0.09914505 -0.03737942 -0.08184792 0.019636754 0.28216136 0.07190088 0.050492525 0.19296755
0.035238944 0.15741187 0.10733395 -0.012800075 -0.2217658 -0.086588494 -0.0324601 -0.26059982
0.057868905 0.02080577 0.21780707 -0.043473106 -0.04165746 0.011463382 0.10264085 0.026355108
-0.024990898 -0.03427106 0.12410942 -0.041853543 -0.021067886 0.16330828 -0.1178525 0.014863251
-0.07707492 -0.11451319 -0.135631 0.0008506377 0.050113995 -0.08095702 0.09833289 -0.10825189
-0.096755676 -0.19338942 -0.01771759 0.06950935 0.10492634 0.12930322 -0.0362324 -0.2113017
-0.2103861 -0.025838492 -0.060776293 -0.25291935 -0.078290254 0.02623303 -0.12865902 -0.37871045
0.18657933 -0.12072795 0.021064928 -0.17603455 0.21020493 0.023754923 -0.0021666258 0.044263627
-0.04506829 -0.037560426 -0.1613477 0.0751803 -0.004593675 0.13666365 0.028932566 0.0659029
0.012682407 0.050818883 -0.11793436 0.0891442 0.014978199 0.20959346 0.06365888 0.043829188
-0.07721811 -0.19325823 0.15002172 -0.022295555 -0.08143468 -0.15443033 0.17308523 -0.11749105
0.09039319 -0.02590229 -0.051067907 0.07122752 0.049197767 0.10728919 0.051757142 0.032687575
-0.0434829 0.07560864 0.030911699 -0.11692478 -0.08395565 0.028355205 0.13398492 -0.00195967
0.089682445 0.029813202 0.075074874 0.038760707 -0.07373563 -0.04466861 -0.08707313 0.00063266704

net.4.weight f4 [3, 128]
00000000: 5102 193d 5ecf 9bbe d656 11bd b374 d43c
00000010: 8d46 cdbe 8ca6 073d a661 dcbe 1cfc c0be
00000020: c889 96be 8006 03be a924 96be e110 3c3e
00000030: e691 883e c008 88be 24cb d4be 787b 50be
00000040: ec27 95be 2541 d6be 5e7a 36bf 7da3 ca3e
00000050: 8541 c03e 0431 a33e b5b6 20be c175 733e
00000060: 8076 6b3e 9851 f5bd 9b87 813d af06 17bd
00000070: 7a69 d2bd 39a1 143c bf11 8a3e 6ce7 cd3d
00000080: a559 69bc 1b4c 96bb c3c1 ddbe d152 563d
00000090: 7ef6 d43d afdc 253e ae0a b7be dc5f b83c
000000a0: c3f6 6e3e 9922 923d 8ea3 273e fe21 66be
000000b0: 772d 833e 1725 57be c4e3 b23e b488 573e
000000c0: 30c2 ea3d 9c09 803d 01a5 86bd 043b 393e
000000d0: 6b54 14be b350 a3bc cdff aa3d efef 0fbe
000000e0: d706 7e3d 4355 00be 6afb 7f3d 75a1 1dbe
000000f0: be04 aebd 8892 5fbe 594c 183e 52c8 0fbe
00000100: c7dc 213e 3dde 3f3e 933b 1bbd ba9f c83d
00000110: 123d dc3d 4d5c 7a3a 987c 0d3f 543b aa3e
00000120: c129 4dbe cf41 5cbd 28be 1f3d c54d e3bc
00000130: 5613 8b3d ffb9 fa3c c400 bd3e 613a e9be
00000140: df42 1fbe 2331 823d d6ce 873e fb6a a6bd
00000150: d928 8ebe 529b 98bd 90be 7cbe bf06 f23c
00000160: cd9e 06bd e91c d63d 7ae7 3a3d 4e78 ee3e
00000170: 8006 fbbd c7d9 2abf 1096 8ebd b081 9cbe
00000180: 1cc9 afbe 0334 043d c7e1 cd3e 40cd 273e
00000190: b492 f9bc 1099 9cbe 6f9a f53e ed33 32bd
000001a0: 2581 f6bd 8439 4fbe abd9 a2be a3ca 53be
000001b0: ab24 bdbe b0c9 edbe c95e 5cbd bebe 993e
000001c0: b087 a93d 1376 0ebf f96d 07be 8b3f d7bd
000001d0: 7a75 81bd 980a bc3d d0e0 d6be 4fd3 aa3e
000001e0: 3f2f a9be a028 903d bd45 2f3c 8d42 9ebe
000001f0: c5ce 58bc 58ca acbe b437 4b3e 77aa ab3e
00000200: f12e cbbc f7a9 673e 7da4 7b3e 27bf 0fbe
00000210: f140 503e 2d08 9abe b2ad 233e 4fe8 44be
00000220: d758 dabd 6a2f 2bbe a9c8 423e 89d7 9d3d
00000230: 1485 ffbd bbff 263c 349b d93d f31c 8f3c
00000240: 5578 be3d e408 423e 74c4 8f3e 595a a4be
00000250: 3cdb e33d a720 13be 5884 67be 87db 253e
00000260: 75b5 3c3e a9ff fcbd b76a b63e 1ece 94bd
00000270: a3dc 7fbe 10c0 5bbd 12c3 9ebe 0224 a73d
00000280: 385d 7e3e f7bc 24be e12e 383e 9026 0cbf
00000290: 6d89 c83d e6b2 b7bd 8b24 a53d 9a49 1b3e
000002a0: ae09 26bd 1fb0 023e 0d66 fe3d bd52 58be
000002b0: 7370 95be 3581 1b3e 3322 15be 46f1 cd3b
000002c0: d8b3 123e 3b67 15be ad91 d2bd b108 f73d
000002d0: e10d d83d 3312 63bc 9661 52be 09c4 aa3d
000002e0: a04c b5bd d127 bebe ae9d 4a3d 6794 303e
000002f0: 399e c93d 3742 98be e4df 293e 95a3 a03d
00000300: 25e0 183e 41b4 043e 6167 a43b 68dd ca3d
00000310: ae94 94be 4d9f f0be fdf4 bbbd eaee 98bd
00000320: fac6 933e 2565 73bc 4afc 5bbd 64b5 853d
00000330: 29fc 0abf 6a49 973c 30cf 11bc fc92 583e
00000340: a5f8 8e3e 8c59 cabd 8286 94be f6c5 433d
00000350: 860a 163e 4ba4 02bd 0f4a d63d 2d4f a93e
00000360: 2a3d 2c3d 2998 1fbe 3912 323d ef3b 943e
00000370: cf97 963e 38c0 d2be 3138 fcbd 110c 823d
00000380: fbbe 1c3e f4f6 04bf 3eb0 aebd a143 2fbf
00000390: 9631 a9bd 68b9 00be d163 28bc 0b81 173e
000003a0: 5c2c 0c3e 6175 bd3c a8e2 7f3e dce4 713e
000003b0: 7c70 d43e ba7c 32be 0f99 d4bd b074 8a3e
000003c0: 15bf 5dbe ae53 cbbd 0924 833d 704e 013e
000003d0: f0be 97bd 892f 463e 514e 4c3e 1669 303d
000003e0: be77 183e 78f4 84bd a5b6 e33d fbcc c83d
000003f0: f09b d9bd ccd6 273e f1e2 a5bd bf70 723e
0.037355725 -0.30431646 -0.035483204 0.025934553 -0.40092888 0.033117816 -0.4304325 -0.37692344
-0.29401994 -0.12795448 -0.29324844 0.18365814 0.26673812 -0.26569176 -0.41561234 -0.203596
-0.2913202 -0.41846576 -0.7128047 0.39577857 0.37549987 0.31873333 -0.15694697 0.23775388
0.22994423 -0.119784534 0.06324693 -0.03687161 -0.10274024 0.009071642 0.26966664 0.10053906
-0.014242564 -0.004586709 -0.4331189 0.052325074 0.10398577 0.16197465 -0.35750335 0.022506647
0.2333632 0.07135505 0.16370985 -0.22473904 0.25620624 -0.21010242 0.34939396 0.21048242
0.114628196 0.06251833 -0.06574441 0.18088919 -0.14485328 -0.019935941 0.083495714 -0.14056371
0.06201824 -0.12532525 0.062495627 -0.15393622 -0.08496998 -0.21833241 0.14872874 -0.1404126
0.15806876 0.18737121 -0.03789861 0.097960904 0.10753836 0.0009550497 0.5526824 0.3324839
-0.20035459 -0.053773697 0.038999707 -0.027747044 0.067907974 0.030606268 0.36914647 -0.45552352
-0.15552853 0.06357028 0.2652499 -0.08125874 -0.2776554 -0.074515 -0.24682069 0.029544232
-0.032866288 0.10454733 0.04563091 0.4657616 -0.12257099 -0.6673855 -0.06962216 -0.30567694
-0.34333122 0.032276165 0.40211317 0.1638689 -0.030465461 -0.30585527 0.47969386 -0.04350655
-0.12036351 -0.20236784 -0.31806692 -0.20682769 -0.36942038 -0.46442938 -0.05380133 0.30028337
0.082778335 -0.55648917 -0.13225545 -0.10510167 -0.06321235 0.09181708 -0.41968393 0.3336434
-0.33043858 0.070389986 0.010697779 -0.3091015 -0.013232891 -0.33748126 0.19845468 0.33528492
-0.024802657 0.2262343 0.24574466 -0.14037763 0.20337273 -0.30084363 0.15984228 -0.19229244
-0.10661476 -0.16717306 0.19021858 0.07707126 -0.124765545 0.010192807 0.10625306 0.017469859
0.09300295 0.18948704 0.2807957 -0.3210018 0.111258 -0.14367925 -0.22609079 0.16197024
0.18428595 -0.12353451 0.35628292 -0.07265876 -0.2498651 -0.053649962 -0.31008202 0.08161165
0.24840248 -0.1608771 0.17986633 -0.5474634 0.09791837 -0.08969669 0.08063611 0.15164796
-0.040536575 0.12762497 0.124218084 -0.21125312 -0.29187354 0.15186007 -0.14563827 0.0062848656
0.14326417 -0.1459016 -0.10281692 0.12062205 0.10549522 -0.0138593195 -0.20545039 0.08338172
-0.08852506 -0.37139753 0.04946678 0.17244111 0.09844632 -0.29738018 0.16589314 0.07843701
0.14929254 0.12959386 0.0050172065 0.09905511 -0.29019684 -0.46996537 -0.09177587 -0.07467444
0.28862745 -0.014855658 -0.0537074 0.06528738 -0.54291016 0.018467624 -0.008899495 0.2114982
0.27924076 -0.09880361 -0.2900887 0.047796212 0.14652452 -0.031894963 0.10463344 0.3306822
0.042050518 -0.15585388 0.04347441 0.28951976 0.29412696 -0.41162276 -0.12315405 0.06349958
0.15307228 -0.5193932 -0.08529709 -0.6846257 -0.08261411 -0.12570727 -0.010277704 0.1479532
0.13688797 0.02312726 0.24988806 0.23622459 0.4149207 -0.17430392 -0.10380756 0.2704215
-0.21654923 -0.0992807 0.064033575 0.12627578 -0.07409465 0.1935407 0.1995175 0.043068968
0.14889428 -0.06491941 0.11118821 0.09804722 -0.10625446 0.16390532 -0.08099926 0.23675822

net.4.bias f4 [3]
00000000: a88b 943c a802 44bd 69ba 92bc
0.018133 -0.047854096 -0.017911153
